Assignments/01_mlp/2_mlp.pth (torch, 2583 bytes, 5 tensors)

Linear1.weight f4 [10, 1]
0	0x3f535847	0.82556576
1	0xbf57ed37	-0.84346336
2	0x3fb13ef6	1.3847339
3	0xbf120d38	-0.5705142
4	0x3fca18f3	1.5788864
5	0x3f28af1f	0.65892214
6	0xbf564b3b	-0.8370854
7	0x3f83f045	1.03077
8	0x3f437536	0.76350725
9	0x3f33a483	0.701729

Linear1.bias f4 [10]
0	0xbf0957ec	-0.53649783
1	0x3f85edb7	1.046317
2	0x3e4bde43	0.19909005
3	0xbf76db56	-0.9642843
4	0x3e0800d6	0.13281569
5	0xbf3e6f21	-0.7438832
6	0xbf8fe677	-1.1242207
7	0x3fb701ba	1.4297402
8	0xbf85d67c	-1.045608
9	0x3f3deca2	0.741892

Linear2.weight f4 [11, 10]
0	0xbf22af99	-0.6354919
1	0x3f632473	0.8872749
2	0x3e69b73f	0.22823809
3	0xbd33da73	-0.0439095
4	0x3f11ea4f	0.5699815
5	0xbf4233ad	-0.758601
6	0x3d64aff8	0.05583188
7	0xbe847734	-0.25872195
8	0xbf9de327	-1.2334946
9	0xbd6b747b	-0.05748413
10	0x3decf13d	0.1156945
11	0xbed22629	-0.4104474
12	0xbf3defb6	-0.74193895
13	0xbe449a9f	-0.19199608
14	0xbf0a6cea	-0.5407244
15	0x3e9bd9f2	0.30439717
16	0xbe1cd5bf	-0.15315913
17	0x3f21fae4	0.63273454
18	0x3f4229e7	0.7584519
19	0xbe093c3f	-0.13401888
20	0x3e2db0d6	0.16961989
21	0x3f0bfc6a	0.5468203
22	0x3f2ffe7a	0.68747675
23	0x3e936e8b	0.28795275
24	0x3ef79f8d	0.48363915
25	0xbe655f82	-0.22399715
26	0x3ed3434a	0.41262275
27	0xbf0e2aa9	-0.55533844
28	0xbee96ea6	-0.4559223
29	0xbed1b54f	-0.4095864
30	0x3f382cd4	0.719434
31	0xbf14ec34	-0.5817292
32	0x3e8507b0	0.25982428
33	0xbe02f83c	-0.12790006
34	0x3f1eb153	0.61989325
35	0x3f0c4545	0.54793197
36	0x3ddefb87	0.10887819
37	0xbd29d7bd	-0.04146551
38	0x3e8c1016	0.27356023
39	0x3edb60f6	0.42847413
40	0xbe0ba6aa	-0.13637796
41	0x3de7bf31	0.11315764
42	0x3d5aa748	0.053382188
43	0xbf296ed9	-0.66184765
44	0xbee0369e	-0.4379167
45	0x3e4917d4	0.19637996
46	0xbf1d0e19	-0.61349636
47	0x3f5d36d8	0.8641181
48	0x3e86ab2d	0.26302472
49	0x3ee0d9fd	0.43916312
50	0xbf1e67d5	-0.61877185
51	0x3eb1fbb5	0.3476235
52	0xbf0a8c4d	-0.5412033
53	0x3e9fadbb	0.31187233
54	0xbe35f225	-0.17768152
55	0xbd8c6d43	-0.068567775
56	0x3ee93e5a	0.45555383
57	0xbeccab5a	-0.3997448
58	0x3dfb80c1	0.12280417
59	0xbf163b78	-0.5868449
60	0xbe6c44f5	-0.2307318
61	0x3f40ab2d	0.75261194
62	0x3e77ff19	0.24218406
63	0x3eb26d43	0.34848985
64	0x3e91d4d6	0.28482693
65	0xbe7fb655	-0.24971898
66	0x3e7584a8	0.23976386
67	0x3d294ceb	0.04133312
68	0xbeadabd4	-0.33920157
69	0xbdce6afa	-0.10078998
70	0x3e6a84a2	0.22902158
71	0xbf037691	-0.5135279
72	0xbee67619	-0.45011976
73	0xbeb5128e	-0.3536572
74	0xbf4ac27a	-0.79203
75	0x3ed43ef8	0.4145429
76	0xbe739a44	-0.23789316
77	0x3f38834b	0.7207534
78	0x3f2652bc	0.6496999
79	0xbe91b82b	-0.28460822
80	0xbdf7da55	-0.121021904
81	0x3e195883	0.14975171
82	0x3e147b7b	0.14500229
83	0x3f0265ca	0.5093657
84	0x3f451f20	0.7700062
85	0xbe28bbe5	-0.16477926
86	0x3f5d29b4	0.8639176
87	0xbf38f2db	-0.7224557
88	0xbe8398b3	-0.25702438
89	0xbea1e238	-0.31617904
90	0x3d9c2665	0.07624511
91	0xbf33666a	-0.70078146
92	0xbeab6cf6	-0.33481568
93	0xbf19687e	-0.5992507
94	0xbf4ac4bb	-0.79206437
95	0x3e9b845b	0.30374417
96	0xbeee2946	-0.46515864
97	0x3e7702d0	0.24122167
98	0x3f04e8bf	0.5191764
99	0xbe2aa2da	-0.16663685
100	0x3f5b2267	0.8559937
101	0xbe8a5a98	-0.27022243
102	0x3f51ad7b	0.81905335
103	0x3ea27cc0	0.31735802
104	0x3f599b5e	0.85002697
105	0x3ed8798a	0.42280227
106	0x3e8e2db8	0.27769256
107	0xbd17c30c	-0.037051246
108	0x3dfb213e	0.122622
109	0x3e12aad7	0.14322983

Linear2.bias f4 [11]
0	0x3eb533a4	0.3539096
1	0x3e77bded	0.24193545
2	0x3e189766	0.14901504
3	0x3d88a981	0.06672955
4	0x3d1716ff	0.036887165
5	0x3e92655e	0.28592962
6	0x3e98b3c4	0.2982465
7	0xbd4c3dfa	-0.049863793
8	0x3d05f03c	0.03269981
9	0xbddfc1e9	-0.10925657
10	0xbd437311	-0.047717158

Linear3.weight f4 [1, 11]
0	0x3eeb951b	0.46012196
1	0xbedf050b	-0.43558535
2	0x3f1e5dfb	0.6186215
3	0x3f258ca2	0.64667714
4	0xbf055450	-0.52081776
5	0xbf1ff9e9	-0.6249071
6	0x3e6d3edc	0.2316851
7	0xbf3c85de	-0.73641765
8	0x3f219d40	0.6313057
9	0xbf50acb3	-0.8151352
10	0x3ef2abf9	0.4739683
