Assignments/02_cnn/1_lenet5.pth (torch, 180551 bytes, 10 tensors)

conv1.weight f4 [6, 1, 5, 5]
0	0xbe816796	-0.25274342
1	0xbdd1ca7f	-0.10243701
2	0x3dc1109c	0.09426996
3	0x3e8fec1b	0.28109822
4	0x3ea16f6b	0.31530318
5	0x3ea55789	0.32293347
6	0x3dd1130d	0.10208712
7	0x3ebbd089	0.36682537
8	0x3e831bdc	0.25607193
9	0xbcf3b456	-0.029749077
10	0x3e65561b	0.22396128
11	0x3c95797f	0.01824641
12	0x3dc42cc3	0.0957885
13	0xbe5d8c4f	-0.21635555
14	0xbe83a04c	-0.25708234
15	0x3e623820	0.22091722
16	0xbec62a93	-0.38704357
17	0xbe7ff1ab	-0.24994533
18	0xbe45f6f8	-0.19332492
19	0xbe1f52d8	-0.15558946
20	0x3e00a634	0.12563401
21	0xbeac9d6d	-0.33713856
22	0xbe6c5dc3	-0.23082642
23	0x3c659edb	0.014014925
24	0xbe047af1	-0.12937523
25	0x3eab39bb	0.33442482
26	0x3edc6742	0.4304753
27	0x3db2bd74	0.087275416
28	0x3e57c452	0.21070984
29	0xbe266ebd	-0.16253181
30	0x3e40c63b	0.18825619
31	0x3e390d45	0.18071468
32	0x3e9b779c	0.30364692
33	0x3e3cf06a	0.18451086
34	0xbd88f8cd	-0.0668808
35	0xbd53778a	-0.051627673
36	0xbc341a07	-0.0109925335
37	0x3e19eaf6	0.15031037
38	0xbbe5afe1	-0.007009492
39	0x3d49997f	0.04921865
40	0x3dcf920c	0.10135278
41	0x3eb070a9	0.34460953
42	0x3e968228	0.29396176
43	0x3e61663b	0.22011654
44	0x3e91bde1	0.2846518
45	0xbcb7ea77	-0.022450669
46	0x3e7ef832	0.24899366
47	0x3ec77f8e	0.38964504
48	0x3e952e9a	0.29137117
49	0x3ea95588	0.33073068
50	0xbea1d8b9	-0.3161066
51	0xbec5052b	-0.38480505
52	0xbeb296d0	-0.34880686
53	0xbe724e3f	-0.23662661
54	0xbdf1aa3e	-0.11800049
55	0xbf0998fa	-0.5374905
56	0xbf47c2f6	-0.7803186
57	0xbf459ca8	-0.77192163
58	0xbee5be7f	-0.448719
59	0x3c95210c	0.018204235
60	0xbe68e118	-0.22742116
61	0xbf1b9dd3	-0.60787696
62	0xbf2556d4	-0.64585614
63	0xbec68534	-0.387735
64	0x3c976288	0.0184796
65	0xbe9d3bc9	-0.30709675
66	0xbecb14c1	-0.3966427
67	0xbe9a11b8	-0.30091643
68	0xbdd7fc84	-0.105462104
69	0xbce0d181	-0.02744365
70	0xbe47373e	-0.19454667
71	0xbeb5f0c7	-0.3553526
72	0xbd9b021e	-0.07568763
73	0x3d07aa28	0.033121258
74	0xbd13bf1d	-0.03607093
75	0xbec36a06	-0.38166827
76	0x3e6cfe60	0.23143911
77	0x3e271eb1	0.16320302
78	0xbd5f92a1	-0.054583196
79	0x3d32684d	0.0435565
80	0xbe8d2329	-0.27565888
81	0x3e85977f	0.26092145
82	0x3d170fa2	0.036880143
83	0x3c8ce6e9	0.01719995
84	0xbd5a14bc	-0.05324243
85	0xbebc3bf0	-0.3676448
86	0x3ecd9346	0.40151423
87	0x3b04d076	0.0020265854
88	0x3cef116b	0.02918311
89	0xbd96ab9a	-0.07356949
90	0xbeb150ad	-0.34631863
91	0x3e7b3fa6	0.24535999
92	0x3d3115c5	0.04323365
93	0x3ce76de1	0.028250637
94	0x3cf33497	0.029688163
95	0xbef1055d	-0.47074404
96	0x3e99a783	0.30010614
97	0x3e44ede2	0.1923137
98	0x3b9634fc	0.004583953
99	0xbd091f44	-0.033477083
100	0x3e280dd3	0.16411524
101	0x3e0563be	0.1302633
102	0x3e5a5c7d	0.21324344
103	0xbe31bf10	-0.17358041
104	0xbf154699	-0.5831085
105	0x3b8fe548	0.004391346
106	0x3eac056f	0.33597896
107	0x3e72d937	0.23715673
108	0xbdd75de0	-0.10515952
109	0xbf20085b	-0.6251275
110	0x3e19b908	0.1501199
111	0x3eb655cb	0.3561233
112	0xbcb3464e	-0.02188411
113	0xbe274789	-0.16335882
114	0xbe8b92f7	-0.27260563
115	0x3ec5241b	0.3850411
116	0x3e40cc33	0.18827896
117	0xbc5fcf35	-0.013660242
118	0x3db4921c	0.08816931
119	0xbf0cde68	-0.55026865
120	0xbd1620c6	-0.03665235
121	0x3e9ba0b3	0.3039604
122	0x3e726f7c	0.2367534
123	0x3de2615c	0.11053726
124	0xbf0bfc12	-0.54681504
125	0xbb422eac	-0.002962987
126	0xbda5203e	-0.0806279
127	0x3e71620a	0.23572555
128	0xbd7da1f7	-0.06192204
129	0x3c3c75bc	0.011502679
130	0xbe1ef535	-0.15523227
131	0xbc8cb58a	-0.017176408
132	0x3ed1526c	0.40883195
133	0xbd620025	-0.05517592
134	0x3dac6bb6	0.08418982
135	0xbd78956e	-0.060689382
136	0xbeccff6f	-0.4003863
137	0x3e875df8	0.2643888
138	0x3db82c1d	0.08992789
139	0xbe83083b	-0.25592217
140	0xbdadfad8	-0.0849511
141	0xbe87cb25	-0.26522174
142	0x3e9a9c02	0.3019715
143	0x3e3f1739	0.18661202
144	0xbe239994	-0.15976554
145	0xbd528e95	-0.051405508
146	0xbe0eba5b	-0.13938276
147	0x3ea80253	0.32814273
148	0x3e25391f	0.16135071
149	0xbe9e6752	-0.30938202

conv1.bias f4 [6]
0	0x3dc370b7	0.09542983
1	0x3e3a5841	0.18197729
2	0xbeeffaa2	-0.46870905
3	0x3868dd08	5.551896e-05
4	0x3e1722df	0.14759396
5	0x3bd23496	0.00641496

conv2.weight f4 [16, 6, 5, 5]
0	0xbdff4ee4	-0.12466219
1	0x3dc02a3a	0.09383054
2	0x3da4293d	0.08015678
3	0x3dc0abcb	0.09407767
4	0x3c843c4c	0.016142033
5	0x3d9d8c0f	0.0769273
6	0x3c9e6b48	0.019338265
7	0xbcf06f68	-0.029349998
8	0xbc909de4	-0.017653413
9	0xbb7ea6c0	-0.0038856715
10	0x3da5f89c	0.08104059
11	0x3e0c808a	0.13720909
12	0x3b0bbbe3	0.0021321706
13	0xbd8324f7	-0.06403535
14	0x3d636c18	0.055523008
15	0xbd66e745	-0.0563729
16	0x3dd8e399	0.10590286
17	0xbd8f3b23	-0.06993701
18	0xbc48e240	-0.012260973
19	0x3d4209c5	0.0473726
20	0xbbcf0fca	-0.006319021
21	0x3da7791b	0.08177396
22	0x3cb34a46	0.021886002
23	0x3cb22960	0.021748245
24	0xbd0975ac	-0.033559486
25	0x3d889368	0.066687405
26	0xbd811582	-0.063029304
27	0xbd94dc7a	-0.07268615
28	0xbb77dcbd	-0.003782078
29	0x3c9a6246	0.018845689
30	0x3e0623ce	0.13099596
31	0xbbd2d5be	-0.0064341715
32	0x3dea3310	0.11435521
33	0xbd8e9d9c	-0.06963655
34	0xbd8e0a20	-0.06935525
35	0xbdafcc8b	-0.08583935
36	0x3d70b310	0.058764517
37	0x3db50f87	0.08840852
38	0xbde0ade5	-0.10970668
39	0x3ccbe78b	0.024890682
40	0xbdce1e41	-0.10064364
41	0xbd84c107	-0.064821295
42	0x3c38ef8a	0.011287579
43	0x3c6f73f7	0.0146150505
44	0xbcebf611	-0.028803857
45	0xbd63deee	-0.055632524
46	0xbc9ad220	-0.018899024
47	0xbaa279b7	-0.0012395893
48	0x3bb7accb	0.0056053153
49	0x3c27b9bd	0.010237155
50	0x3d877635	0.06614343
51	0x3d38229e	0.04495489
52	0x3ec00b11	0.37508443
53	0x3e452375	0.19251807
54	0x3da2738c	0.07932195
55	0x3ca3b864	0.019985385
56	0xbe376f1a	-0.17913476
57	0x3d8f41f7	0.06995004
58	0x3e0906a1	0.13381435
59	0x3e8cab2c	0.27474344
60	0xbdb819b2	-0.08989276
61	0xbe4b13fc	-0.19831842
62	0xbe41e512	-0.1893504
63	0x3df97223	0.12179973
64	0x3e5dbaa8	0.21653235
65	0xbd5eb314	-0.05437
66	0xbe32bb04	-0.17454153
67	0xbe899365	-0.26870266
68	0xbd921a1f	-0.071338885
69	0x3dba547b	0.090981446
70	0x3ca051b4	0.01957021
71	0xbdd5c14b	-0.10437258
72	0xbe37b1ca	-0.17938915
73	0xbe139a0c	-0.14414233
74	0xbdb2dab3	-0.0873312
75	0x3d3aab33	0.045573425
76	0x3bc2679d	0.005932762
77	0x3d64ea0b	0.055887263
78	0xbd822da7	-0.06356364
79	0xbd1c63d9	-0.03818116
80	0x3e0f3959	0.1398672
81	0x3dcb3a19	0.099231906
82	0x3d07cad7	0.033152428
83	0xbc19f590	-0.009396926
84	0xbdc2ffe5	-0.09521464
85	0x3da59e45	0.08086828
86	0xbccdf063	-0.02513904
87	0x3df449a2	0.11928107
88	0xbc993208	-0.018700615
89	0xbd84e84f	-0.06489622
90	0x3c09cae3	0.008410188
91	0x3d3b95f5	0.045797307
92	0x3e34212a	0.17590776
93	0x3c8849d4	0.016636766
94	0xbddedfc8	-0.10882527
95	0x3dd31ce5	0.103082456
96	0x3d5cb254	0.053881004
97	0x3da4a5d3	0.08039441
98	0xbd095110	-0.033524573
99	0xbdf567fc	-0.11982724
100	0x3d9e368b	0.07725247
101	0x3c96f4e6	0.018427324
102	0x3dbf3d37	0.09337848
103	0xbdc2f742	-0.09519817
104	0xbd79d74e	-0.060996346
105	0x3d5eb57e	0.054372303
106	0x3dd096ba	0.10184999
107	0x3dddcf5e	0.10830568
108	0xbde0f93d	-0.109850384
109	0xbd3c3a2a	-0.045953907
110	0x3d16df86	0.036834262
111	0x3d4ff2aa	0.05076853
112	0x3df54b6c	0.11977276
113	0xbd091829	-0.033470307
114	0x3df86de6	0.121303365
115	0x3e3976f7	0.18111788
116	0xbda51395	-0.080603756
117	0x3d8769f4	0.06612006
118	0xbda74aa8	-0.081685364
119	0x3af2cf77	0.0018524964
120	0x3db5d539	0.088785596
121	0xbd85269f	-0.06501507
122	0xbdc2e479	-0.09516234
123	0xbdc138b1	-0.09434641
124	0xbdf7b219	-0.12094516
125	0xbd0779cb	-0.033075135
126	0x3d5c3c2e	0.05376833
127	0x3d0be216	0.03415116
128	0xbda313ce	-0.07962762
129	0x3d6df7ba	0.05809758
130	0x3d92d22b	0.071689926
131	0x3de7e6c1	0.1132331
132	0xbd111d07	-0.035428073
133	0xbc83e73c	-0.016101472
134	0xbc40d551	-0.011769609
135	0x3dbca1b2	0.092105284
136	0x3e24205c	0.16027969
137	0x3d62f7a1	0.05541194
138	0xbbfdfde7	-0.007751215
139	0x3d107fac	0.035278007
140	0x3d5c4ba7	0.053783085
141	0x3dd430bd	0.103608586
142	0x3d6212c9	0.055193696
143	0x3c876d21	0.016531529
144	0xbcaad23b	-0.020852199
145	0x3e09a6a8	0.1344248
146	0x3c80b9a7	0.015713526
147	0x3ddf9c0d	0.10918436
148	0xbb75dbc1	-0.0037515017
149	0xbda22caf	-0.07918679
150	0xbc8219c4	-0.015881427
151	0xbcf7d1f3	-0.030251479
152	0x3d6e2279	0.058138344
153	0x3df19366	0.11795692
154	0xb6cebbba	-6.1611327e-06
155	0xbcc31cb0	-0.02381739
156	0x3da31012	0.079620495
157	0xbba5e65b	-0.005062861
158	0x3d93740b	0.07199868
159	0x3d5e2d32	0.05424232
160	0xbe0fb15f	-0.14032505
161	0x3c2e869a	0.010652209
162	0xbd3ded00	-0.0463686
163	0xbd677aae	-0.05651348
164	0xbd05757f	-0.032582756
165	0x3c98ce3e	0.018653031
166	0xbe049917	-0.12949024
167	0xbd91600b	-0.07098397
168	0xbd82d066	-0.06387405
169	0xbb407c66	-0.0029371022
170	0x3bde82b7	0.006790485
171	0xba92f13a	-0.0011210807
172	0xbccfa6d1	-0.025348099
173	0xbb0c73f2	-0.0021431413
174	0x3d835d85	0.06414322
175	0xbdd72c43	-0.10506489
176	0x3d0fa74b	0.035071652
177	0x3bc50059	0.0060120043
178	0x3da54ace	0.080709085
179	0x3c1dcd20	0.009631425
180	0x3da89d74	0.08233157
181	0x3d662ccc	0.056195065
182	0x3ce7251d	0.02821594
183	0x3d306c36	0.043071948
184	0xbd2cfe14	-0.042234495
185	0xbcab8111	-0.020935567
186	0xbd56f6b0	-0.052481353
187	0x3d5e82b2	0.05432386
188	0xbc09f65a	-0.008420551
189	0xbc183650	-0.009290293
190	0x3de101ea	0.10986693
191	0xbd01ad36	-0.031659327
192	0xbd0c9ba6	-0.034328125
193	0xbdc325f1	-0.09528721
194	0xbd99dde7	-0.07513028
195	0xbd3431ec	-0.04399292
196	0xbd7ee385	-0.0622287
197	0xbd749ff9	-0.059722874
198	0xbd3cc1f7	-0.046083417
199	0xbe18a611	-0.149071
200	0x3dd3d228	0.103428185
201	0x3e04e06d	0.12976237
202	0xbd4248d3	-0.04743273
203	0x3d911491	0.07084001
204	0x3d45cb78	0.048289746
205	0x3da4343c	0.080177754
206	0xbd6d94a9	-0.0580031
207	0xbdb61acc	-0.0889183
208	0xbcf7c68d	-0.030246044
209	0xbbace38c	-0.005276149
210	0x3e072caa	0.13200632
211	0x3d480345	0.048831243
212	0xbe45d09d	-0.19317861
213	0x3c8203dc	0.01587098
214	0xbd28f251	-0.041246716
215	0x3e19e69a	0.15029374
216	0x3d48c927	0.04901996
217	0xbe49e760	-0.19717169
218	0x3d3f7080	0.046738148
219	0xbcbfe859	-0.023426222
220	0x3e152743	0.14565758
221	0xbd1b7f6e	-0.037963323
222	0xbe47b36e	-0.1950204
223	0x3bd65759	0.0065411744
224	0xbb8cc83c	-0.0042963307
225	0x3d361769	0.04445592
226	0xbd8d2405	-0.06891636
227	0x3e0eeac7	0.13956748
228	0x3cb4a932	0.022053335
229	0x3d50659e	0.05087816
230	0xbd4fb34d	-0.050708104
231	0xbcfbeb07	-0.030751718
232	0x3dfdda2d	0.12395129
233	0xbcc8e351	-0.024522455
234	0x3d4939fd	0.049127568
235	0xbda8f758	-0.08250302
236	0xbd573e92	-0.052549906
237	0x3d1631f4	0.036668733
238	0x3cccfb8b	0.025022289
239	0xbb1c196b	-0.0023818861
240	0xbaaf58a1	-0.0013377854
241	0x3c9f8225	0.019471237
242	0x3da00d8a	0.07815082
243	0x3d30a225	0.043123383
244	0x3bd0985c	0.006365819
245	0xbd4d3c42	-0.050106294
246	0x3caf99c0	0.021435618
247	0x3dd1c303	0.10242274
248	0xbd797ddb	-0.06091104
249	0xbc93609e	-0.017990407
250	0xbdbec9f0	-0.0931586
251	0xbd0cb38b	-0.034350913
252	0xbcbbccfb	-0.02292489
253	0xbda27c5e	-0.079338774
254	0xbd23ed8a	-0.040021457
255	0xbdadabc4	-0.08480027

conv2.bias f4 [16]
0	0x3c0ec1fa	0.00871324
1	0x3d18d17b	0.03730915
2	0xbd889584	-0.06669143
3	0xbd76d625	-0.060262818
4	0xbdcb5d3d	-0.09929893
5	0xbce9d88c	-0.02854564
6	0xbd1fd501	-0.039021496
7	0xbe144a2c	-0.1448142
8	0x3dff9adc	0.12480709
9	0x3d18af58	0.037276596
10	0xbd2b572d	-0.041831184
11	0x3dacb625	0.08433179
12	0x39348db9	0.00017218933
13	0x3db045d0	0.08607066
14	0xbd7ec385	-0.06219818
15	0x3b059457	0.0020382607

fc1.weight f4 [120, 256]
0	0x3d801291	0.06253541
1	0x3afb5de5	0.0019177763
2	0x3cfc60d6	0.030807894
3	0x3cb6c6e0	0.022311628
4	0xbc802d5f	-0.015646635
5	0xbc4d5d73	-0.012534487
6	0x3d2a870f	0.04163271
7	0xbd86c78f	-0.065810315
8	0xbd2dc675	-0.04242559
9	0x3d9eb985	0.07750229
10	0x3ae3af49	0.0017370965
11	0x3d83fd56	0.06444804
12	0xbd141e7d	-0.03616189
13	0x3d327c7b	0.043575745
14	0xbd7a454c	-0.061101243
15	0x3d52cb3f	0.05146336
16	0x3c902fff	0.017601011
17	0xbc96f85f	-0.01842898
18	0x3c24908c	0.010044228
19	0xbd2f65f6	-0.042821847
20	0x3c2e5473	0.010640251
21	0x3b2edf8a	0.0026683533
22	0x3a708bb1	0.0009176089
23	0x39bc208f	0.00035882412
24	0x3d70f3db	0.05882631
25	0xbd811f87	-0.063048415
26	0xbd43345c	-0.047657356
27	0xbc0b5413	-0.008503932
28	0xbc9996af	-0.01874861
29	0xbc834a26	-0.016026568
30	0xbd4a474c	-0.0493844
31	0x3d134470	0.03595394
32	0x3d67b354	0.056567505
33	0x3cc8c06d	0.024505818
34	0xbc24bda2	-0.010054978
35	0xbd1bcad1	-0.038035218
36	0x3d3d5b10	0.046229422
37	0xbda2f2c1	-0.07956458
38	0xbd684ac0	-0.056711912
39	0x3ce5174b	0.027965209
40	0x3a1e8add	0.0006047914
41	0x3c519b0c	0.012793314
42	0x3c7630c4	0.015026275
43	0xbd7dc642	-0.06195665
44	0x3d10fb3a	0.03539584
45	0xbd2d1fcc	-0.042266652
46	0x3ca001a0	0.019532025
47	0xbd7e39d7	-0.06206688
48	0x3d0898e6	0.03334894
49	0xbd2f8908	-0.042855293
50	0xbd3bce3a	-0.04585097
51	0xbd1bb9d1	-0.038019005
52	0x3d31b9a2	0.043389924
53	0xbd74f476	-0.05980345
54	0x3c7edb1e	0.015555171
55	0x3ce63a72	0.02810404
56	0x3ce44380	0.027864218
57	0x3cb8a44c	0.02253928
58	0xbcf6b621	-0.030116143
59	0xbd3334d9	-0.04375157
60	0x3cc2b98e	0.02377012
61	0x3d115db8	0.035489768
62	0x3d105259	0.035234783
63	0xbcd81f77	-0.026382191
64	0x3d82f75d	0.06394837
65	0x3b297452	0.0025856686
66	0xbd223e66	-0.03961029
67	0xbd178a7c	-0.036997303
68	0x3d34e761	0.044165973
69	0xbd739cba	-0.059475638
70	0xbce0d834	-0.027446844
71	0xbc7e670c	-0.015527498
72	0xbd0252ce	-0.03181725
73	0xbc1f77ac	-0.009733122
74	0x3cd5489b	0.026035598
75	0xbc54c397	-0.012986085
76	0xba070c85	-0.0005151707
77	0xbbbf4e79	-0.005838212
78	0xbd3e214a	-0.046418466
79	0xbcbe9d3b	-0.023268333
80	0xbd4696e8	-0.04848376
81	0xbbd4340f	-0.0064759324
82	0x3a38e7e6	0.00070535985
83	0x3d2c404b	0.042053502
84	0xbc23f25e	-0.010006515
85	0xbd931f26	-0.071836755
86	0xbda2e006	-0.07952885
87	0x3c48e12d	0.012260717
88	0xbc1015ba	-0.0087942425
89	0xbcfa7683	-0.030574089
90	0x3bdda054	0.0067634974
91	0x3bebdf34	0.0071982387
92	0x3c6ca4c1	0.014443577
93	0x3e0366e8	0.12832224
94	0xbce3936f	-0.027780263
95	0xbd273753	-0.040824246
96	0x3d08c2b2	0.0333888
97	0xbb687291	-0.0035468678
98	0x3cd5727e	0.02605557
99	0x3c4ab54d	0.012372327
100	0xbaa283b0	-0.0012398865
101	0x3d5cf445	0.05394389
102	0x3d6b848e	0.05749946
103	0x3d2a867c	0.04163216
104	0x3bc351fe	0.005960702
105	0xbcc27083	-0.02373529
106	0xbce29b71	-0.02766201
107	0x3ba47ca8	0.005019743
108	0x3d28f247	0.04124668
109	0xbb5611d2	-0.003266443
110	0xbc387da7	-0.011260427
111	0x3cf00a9e	0.029301938
112	0x3da9b5a9	0.08286602
113	0x3ba9dbd1	0.005183675
114	0x3cab0e35	0.020880798
115	0x3d6acfb1	0.057326976
116	0x3caa0021	0.020752015
117	0x3d908fec	0.07058701
118	0x3cc449b2	0.023960922
119	0x3b68d18e	0.0035525295
120	0x3cde5893	0.027141845
121	0xbd323b87	-0.0435138
122	0xbc18e88b	-0.009332786
123	0x3cea97b3	0.028636789
124	0x3cd53678	0.02602695
125	0xbda33717	-0.07969492
126	0x3d95c56f	0.07313048
127	0xbda893b8	-0.082313
128	0xbd2b1954	-0.0417722
129	0x3d0df938	0.0346615
130	0xbda70ab0	-0.08156335
131	0x3ccb8214	0.0248423
132	0xbd07f26c	-0.033190176
133	0x3ba0d06a	0.0049076574
134	0xbd41d1d6	-0.047319256
135	0x3b949978	0.0045348965
136	0x3d40e7c7	0.04709604
137	0x3d62cc08	0.05537036
138	0x3d2a9da4	0.041654244
139	0xbc34e6f7	-0.011041394
140	0xbccc2756	-0.0249211
141	0xbd763e5d	-0.060118068
142	0x3d276668	0.040869147
143	0x3c0258fd	0.007955787
144	0x3a0ce37d	0.00053744746
145	0xbd60352d	-0.054738212
146	0x3d54a8a1	0.05191863
147	0x3d37617b	0.0447707
148	0x3c626819	0.013818764
149	0xbc2f9f64	-0.010719154
150	0x3d372464	0.04471244
151	0xbcf34bd7	-0.02969925
152	0x3c1f3cad	0.009719056
153	0x3c5d3fd7	0.01350399
154	0xbbfc35ee	-0.0076968586
155	0xbb120011	-0.0022277872
156	0x3c968609	0.01837446
157	0xbc74c17b	-0.014938707
158	0x3d4f9945	0.05068328
159	0x3c12dda3	0.008963975
160	0xbc181009	-0.009281167
161	0x3d25f448	0.040516168
162	0x3d57c664	0.052679434
163	0x3d37d3d6	0.044879757
164	0x3bfb27ab	0.007664641
165	0xbd5a9119	-0.053361032
166	0xbc97df33	-0.018539047
167	0x3c214fc8	0.0098456815
168	0xbd086bcf	-0.03330594
169	0xbbecdcd8	-0.007228475
170	0xbd620941	-0.055184606
171	0xbd671ac5	-0.056422014
172	0xbcea06ac	-0.028567635
173	0xbd7ae44d	-0.06125288
174	0x3cc68c15	0.024236718
175	0xbc92c94d	-0.017918253
176	0x3d713ff0	0.058898866
177	0x3da13297	0.07870977
178	0xbd7e8fd1	-0.062148873
179	0xbda9e7e0	-0.0829618
180	0x3dbeadb6	0.093104765
181	0x3cc1f2ef	0.02367541
182	0xbcc37fe6	-0.023864698
183	0xbda092e8	-0.0784052
184	0x3ccb4967	0.024815274
185	0xbcf02ebb	-0.029319158
186	0x3d698f4c	0.057021424
187	0x3d9ac4f6	0.075570986
188	0xbb89ce07	-0.0042054686
189	0xbd86a62b	-0.06574663
190	0x3d811303	0.06302454
191	0x3d6759c5	0.056482095
192	0x3d06b66a	0.032888807
193	0x3d101d02	0.035183914
194	0xbd703590	-0.05864483
195	0xbbde2530	-0.0067793354
196	0xbc65d097	-0.0140267825
197	0xbd807608	-0.06272513
198	0x3d203e21	0.03912175
199	0xbd89747a	-0.06711669
200	0x3cabec61	0.020986738
201	0xbbcddd3e	-0.0062824776
202	0x3d4a874a	0.049445428
203	0x3ce894ce	0.028391268
204	0xbc57c202	-0.013168814
205	0x3c0aca61	0.008471102
206	0xbd2655e3	-0.04060925
207	0xbb529e71	-0.0032137895
208	0x3bdf65c1	0.00681755
209	0x3c4ff1e5	0.0126919495
210	0xbc448863	-0.011995408
211	0x3d87c36c	0.06629071
212	0xbcda5552	-0.026652012
213	0xbc8af949	-0.016964572
214	0xbcbe3a5a	-0.023221184
215	0x3d27021a	0.04077349
216	0xbd6220db	-0.055207115
217	0xbc4402e3	-0.011963579
218	0xbd361731	-0.04445571
219	0xbd5fd574	-0.054646924
220	0x3b1b9806	0.0023741736
221	0x3d1aa4b2	0.037754722
222	0xbd2a2c35	-0.041546065
223	0xbd7b1a6a	-0.061304487
224	0xbc9c0f0a	-0.01905014
225	0x3d35752a	0.04430119
226	0x3d2e9c27	0.042629387
227	0xbd1aedee	-0.037824564
228	0x3d784c5b	0.060619693
229	0x3ca9b31f	0.020715294
230	0xbdf9596b	-0.12175258
231	0x3d0bfbf9	0.034175847
232	0xbcc122ca	-0.023576159
233	0x3d953526	0.07285528
234	0xbd1d650d	-0.038426448
235	0x3c0df505	0.008664374
236	0x3d7a6e92	0.061140604
237	0x3d207ecc	0.039183423
238	0xbda759c8	-0.08171421
239	0x3d17096d	0.036874224
240	0x3cb600ad	0.02221712
241	0xbd5923aa	-0.053012528
242	0xbbb131ab	-0.005407532
243	0xbc9b288c	-0.018940233
244	0x3cf5f0db	0.030022075
245	0x3c9c8ebe	0.019111034
246	0x3d84abe9	0.06478102
247	0xbd804df7	-0.062648706
248	0x3d8e1e59	0.06939382
249	0x3d4cf267	0.05003586
250	0x3d2f7083	0.04283191
251	0x3d153815	0.036430437
252	0x3d90c79e	0.07069324
253	0xbc0bd56c	-0.00853477
254	0xbb12cf7a	-0.0022401498
255	0xbc373529	-0.011182108

fc1.bias f4 [120]
0	0x3c0187a6	0.007905876
1	0xbd5937a8	-0.053031594
2	0x3d4305c4	0.04761292
3	0x3d9ea2df	0.07745909
4	0x3cf62f26	0.030051779
5	0xbd6c4e6b	-0.057691973
6	0xbbe2b398	-0.006918382
7	0xbcbf3163	-0.02333898
8	0x3cbe99a3	0.02326662
9	0x3ae7c81c	0.0017683539
10	0xb8362c4f	-4.3433447e-05
11	0xbd01bea0	-0.031675935
12	0xbd4d878f	-0.050178107
13	0x3d0074a2	0.03136123
14	0xbd464812	-0.048408575
15	0x3c9e6d48	0.019339219
16	0xbcfc8933	-0.03082714
17	0xbbb81140	-0.0056172907
18	0xbc7984c7	-0.0152294105
19	0x3c3af591	0.011411087
20	0x3d0b4231	0.033998672
21	0xbd0b8f52	-0.034072228
22	0x3d56f29a	0.052477457
23	0xbd17d95b	-0.03707252
24	0x3c4afa41	0.012388767
25	0x3ba352a8	0.0049842186
26	0x3d82c3cd	0.06385002
27	0xbd570e18	-0.052503675
28	0xbd7c0ffb	-0.061538678
29	0x3a24c459	0.00062853616
30	0x3d8bc2ec	0.06824288
31	0xbce5243d	-0.027971381
32	0x3c47fd54	0.012206394
33	0xbd68fbf2	-0.0568809
34	0x3d4d4eb5	0.05012389
35	0x3d2d0646	0.04224231
36	0xbcf30b13	-0.029668367
37	0x3d378381	0.044803146
38	0x3c472953	0.012155849
39	0xbd2cddeb	-0.042203825
40	0xbd2060e8	-0.039154917
41	0x3c32fba3	0.010924253
42	0xbd2f4cca	-0.04279784
43	0xbc23caa3	-0.009997043
44	0xbd17392a	-0.03691975
45	0x3d5104f9	0.051030133
46	0x3bb48afb	0.005509732
47	0x3d41caeb	0.04731266
48	0xbd248a0b	-0.04017071
49	0xbd0eb736	-0.034842692
50	0xbd174b0e	-0.036936812
51	0x3d16c6c2	0.036810644
52	0x3a420431	0.0007401137
53	0xbc52211c	-0.012825277
54	0xbd12007d	-0.035644997
55	0x3cd7444b	0.026277682
56	0xbc956e7b	-0.018241158
57	0xbd53cdd8	-0.05170998
58	0xbcbb4401	-0.022859575
59	0x3d4e861a	0.050420858
60	0x3d0b086c	0.03394358
61	0x3ca458ff	0.020061968
62	0xbd7210e3	-0.059098136
63	0x3acb110d	0.0015492752
64	0xbc560a6d	-0.013064009
65	0x3c1973af	0.00936596
66	0xbd0f6241	-0.03500581
67	0x3d1a8551	0.037724797
68	0xbb405c7f	-0.0029352007
69	0x3ca9f1cb	0.020745179
70	0x3d0921ad	0.03347938
71	0x3ca5f112	0.020256553
72	0x3d427991	0.047479216
73	0x3d0c5105	0.034256954
74	0xbd62c7e5	-0.055366416
75	0x3d98056d	0.0742291
76	0x3cf24eac	0.02957853
77	0xbcb339c8	-0.021878138
78	0x3d14d473	0.03633542
79	0x3d5a3f22	0.053282864
80	0xbb09780f	-0.0020976102
81	0x3d75b481	0.059986595
82	0xbd0a892f	-0.033822235
83	0xbccf771e	-0.025325354
84	0x3cb857ef	0.022502868
85	0x3d842c21	0.064537294
86	0x3c493073	0.012279618
87	0xbd0caf36	-0.03434678
88	0xbcadb178	-0.021202788
89	0x3d80b58d	0.06284628
90	0x3d173ee3	0.036925208
91	0x3d8fff54	0.07031122
92	0x3daa55a8	0.08317119
93	0x3c678536	0.014130881
94	0xbb7f2766	-0.0038933395
95	0xbd51c890	-0.051216662
96	0xbd890669	-0.06690676
97	0x3cd4c3a5	0.025972197
98	0x3d4a2e30	0.049360454
99	0xbd6ef0d6	-0.058335148
100	0x3d21920c	0.03944592
101	0x3d4e6440	0.050388575
102	0x3d73abae	0.0594899
103	0xbca09ae5	-0.01960511
104	0x3d6e9b1a	0.058253385
105	0x3c6436af	0.013929053
106	0x3c5deaeb	0.013544778
107	0xbc438ace	-0.011934949
108	0xbd3f7d64	-0.04675044
109	0xbd248397	-0.040164556
110	0x3cd7bace	0.026334193
111	0xbcd4a344	-0.025956757
112	0x3b0056cc	0.0019582985
113	0x3d8972d8	0.06711358
114	0xbc753a5a	-0.014967525
115	0xbc153476	-0.009106746
116	0xbd90230d	-0.070379354
117	0x3d2bdcdb	0.04195867
118	0xbd9a74e5	-0.07541827
119	0xbd2885fa	-0.041143395

fc2.weight f4 [84, 120]
0	0xbb8cf029	-0.0043010903
1	0xbca9c22b	-0.02072247
2	0x3cd165b4	0.025561191
3	0xbd0d0c79	-0.034435723
4	0x3d085adb	0.03328977
5	0x3d03c125	0.03216662
6	0x3d2c75a5	0.042104382
7	0x3d882626	0.06647901
8	0x3d6cd181	0.057816986
9	0xbd2f4070	-0.04278606
10	0x3b86ce3d	0.004113941
11	0x3c8665b5	0.01640592
12	0x3a364852	0.00069535256
13	0xbd5ed58b	-0.05440287
14	0xbd05285a	-0.032509185
15	0xbe138401	-0.14405824
16	0x3d9eabbd	0.077476
17	0x3d4d67c5	0.05014779
18	0xbd70a395	-0.058749754
19	0xbd82bb71	-0.06383408
20	0xbd4cdcf1	-0.050015394
21	0x3ce93082	0.028465513
22	0x3d1ae798	0.03781852
23	0xbbea5441	-0.007151157
24	0xbd6e44dd	-0.058171142
25	0xbdc1d36a	-0.09464152
26	0x3e00f9b8	0.1259526
27	0xbc81d914	-0.015850581
28	0xbd400c2c	-0.046886608
29	0xbd9dbc1a	-0.07701893
30	0x3cce8473	0.025209641
31	0xbddfbe38	-0.10924953
32	0x3bede390	0.0072597936
33	0x3d619904	0.055077568
34	0x3bd2f82f	0.006438277
35	0xbc01b907	-0.007917649
36	0xbdb78e46	-0.089626834
37	0xbd7f46e2	-0.06232346
38	0xbd3e3d61	-0.046445254
39	0x3da85600	0.08219528
40	0xbddcbee9	-0.10778601
41	0xbc59e099	-0.013298177
42	0x3dc9581b	0.09831258
43	0x3da434f8	0.080179155
44	0x3d4c9788	0.0499492
45	0x3d42f2dc	0.04759489
46	0x3d021c8f	0.031765517
47	0xbde01f34	-0.109434515
48	0x3bb6a2cd	0.0055736066
49	0xbd4c0566	-0.049809836
50	0x3c830504	0.015993603
51	0x3d973a46	0.07384162
52	0x3cc476dc	0.023982458
53	0x3d9e2b97	0.07723158
54	0xbdac2e7d	-0.084073044
55	0xbe12ee8c	-0.14348811
56	0x3e07bfce	0.13256761
57	0x3b0269b1	0.0019899423
58	0xbd83e17e	-0.064394936
59	0xbe078d55	-0.13237508
60	0x3dedb552	0.1160685
61	0x3c64503c	0.013935145
62	0x3d3b2ab9	0.04569504
63	0x3ca07895	0.019588748
64	0x3d5bc4a4	0.053654328
65	0x3d24728c	0.040148303
66	0xbb0b8ea8	-0.0021294747
67	0x3af1fd58	0.0018462343
68	0x3d54f0a5	0.05198731
69	0xbdcb37b8	-0.09922737
70	0xbdeb8ae4	-0.11501101
71	0x3b0bcf80	0.0021333396
72	0x3d11fceb	0.035641592
73	0xbbd9bb2f	-0.0066446285
74	0x3daa52e6	0.08316593
75	0xbcb76d08	-0.022390857
76	0xbd4f2869	-0.050575648
77	0x3d2ddf34	0.04244919
78	0xbd974bf1	-0.073875315
79	0x3cfda1b2	0.030960891
80	0x3d162607	0.03665736
81	0x3d00f135	0.031480033
82	0x3d4475c5	0.047963876
83	0x3d0c0d91	0.034192625
84	0x3e13b009	0.14422621
85	0xbc9b63d9	-0.01896851
86	0xbcde2907	-0.027119173
87	0xbda421f8	-0.080142915
88	0xbdb94f54	-0.09048334
89	0xbcd92ded	-0.026511157
90	0x3db3f10a	0.08786209
91	0xbdbb2616	-0.09138124
92	0x3d05a6c7	0.032629754
93	0x3ccea713	0.025226152
94	0xbd2f8cbd	-0.042858828
95	0x3d4099fe	0.04702186
96	0xbd0144b1	-0.03155965
97	0xbd2a7955	-0.041619617
98	0xbcb40a0c	-0.021977447
99	0xbd0c133f	-0.034198042
100	0xbd1d1b6a	-0.038356222
101	0x3d0ca4a8	0.034336716
102	0x3cbc503c	0.022987477
103	0xbd3729ae	-0.044717483
104	0x3e096aed	0.13419695
105	0xbdfbabf4	-0.12288657
106	0xbd00c40b	-0.03143696
107	0xbc6ab856	-0.014326176
108	0xbc7bde31	-0.015372799
109	0x3da7779f	0.08177113
110	0xbd96091d	-0.07325957
111	0xbdaa75c0	-0.0832324
112	0x3d9058b4	0.07048169
113	0x3db1ea46	0.08687262
114	0xbb7b3209	-0.0038329384
115	0xbceed8da	-0.029156137
116	0xbd1df450	-0.038563073
117	0x3dc08a42	0.094013706
118	0x3cd96a02	0.026539806
119	0x3db0d7c8	0.08634907
120	0xbd914400	-0.07093048
121	0x3cfb453c	0.030672662
122	0x3bff01f2	0.0077822143
123	0x3ca034cc	0.019556426
124	0xbd505106	-0.05085852
125	0x3dcf5e64	0.101254255
126	0x3d7b0f6d	0.061294008
127	0x3cd1a35a	0.025590587
128	0xbdc5e7ec	-0.09663376
129	0x3dbdb140	0.092623234
130	0x3daec963	0.08534505
131	0x3dbe7f1a	0.093015864
132	0x3da23223	0.07919719
133	0xbda82b3e	-0.08211373
134	0x3dbd7a4f	0.09251844
135	0x3d133d7f	0.03594732
136	0x3c283fca	0.010269115
137	0x3d6ccc63	0.057812106
138	0xbd430ffa	-0.04762266
139	0x3d0e4f18	0.0347434
140	0x3d01ec7a	0.031719662
141	0xbc3db859	-0.011579596
142	0x3c9b74c8	0.018976584
143	0xbcf156ec	-0.029460393
144	0x3d6222c5	0.05520894
145	0x3d661b27	0.05617824
146	0xbccde156	-0.025131863
147	0xbcaf5bed	-0.021406138
148	0xbd2490c5	-0.040177125
149	0x3d89377b	0.06700035
150	0xbc589adc	-0.013220515
151	0x3d976bd2	0.07393612
152	0x3da8c503	0.08240702
153	0xbd1af3b3	-0.037830066
154	0xbc94eae5	-0.018178413
155	0x3d833b57	0.064078026
156	0xbd07ad40	-0.03312421
157	0x3b8c3185	0.004278364
158	0x3d3f6c46	0.046734117
159	0x3c7f8045	0.015594547
160	0x3ad52017	0.0016260174
161	0xbcf905ca	-0.030398268
162	0x3d5001e7	0.050783064
163	0x3baea39f	0.0053295637
164	0x3b79a149	0.0038090518
165	0x3c2343fa	0.009964937
166	0x3da88381	0.082282074
167	0xbd0fe3a8	-0.03512922
168	0xbd593686	-0.053030513
169	0xbd8f6279	-0.07001204
170	0xbd6b2f2f	-0.057418045
171	0xbd815052	-0.06314148
172	0xbd630477	-0.05542418
173	0x3c881ec6	0.016616236
174	0xbd148735	-0.036261756
175	0xbcab1d09	-0.020887868
176	0xbd3e8f5b	-0.046523433
177	0x3cb4f6a4	0.022090264
178	0x3d8d6900	0.06904793
179	0x3d6737ae	0.056449585
180	0x3c3f028b	0.011658321
181	0xbd8fb318	-0.07016581
182	0x3ce80823	0.028324192
183	0xbc78e631	-0.015191601
184	0xbd08c881	-0.03339434
185	0x3cd17ffe	0.025573727
186	0xbbd50b70	-0.0065016076
187	0xbc17f48e	-0.009274615
188	0x3d6b46a3	0.05744041
189	0xbd9bfd62	-0.07616688
190	0x3dc980ec	0.09839043
191	0xbd85162d	-0.0649837
192	0x3d700df7	0.058607068
193	0x3d14c7b8	0.03632328
194	0x3b73a2ca	0.0037175887
195	0xbda524d2	-0.080636635
196	0x3cb04e4b	0.021521708
197	0x3d15cf4d	0.03657465
198	0xbd8216c5	-0.06351999
199	0xbdb79626	-0.089641854
200	0xbda8ed1a	-0.082483485
201	0xbd97df13	-0.07415595
202	0xbdc31cbf	-0.09526967
203	0xbd3408bd	-0.043953646
204	0x3dad5546	0.0846353
205	0x3d95cfb8	0.0731501
206	0xbbcb2fb8	-0.006200757
207	0x3d5fa0e5	0.0545968
208	0x3b358842	0.0027699624
209	0x3d94a097	0.072571926
210	0xbd89b1d4	-0.06723371
211	0x3d412777	0.047156777
212	0x3b3dcb5d	0.0028960325
213	0x3d7b403a	0.061340548
214	0xbc4e942f	-0.012608572
215	0x3bf4b4bf	0.0074678357
216	0x3d8b8c7d	0.068139054
217	0xbd6ede08	-0.058317214
218	0xbd6cb680	-0.057791233
219	0xbd30cd8f	-0.043164786
220	0x3da39684	0.07987693
221	0xbdbb842a	-0.09156068
222	0x3d34d096	0.044144236
223	0x3cfa65ce	0.030566122
224	0xbdc21fd5	-0.09478728
225	0xbccec1c9	-0.025238888
226	0xbdc03102	-0.093843475
227	0x3d952b56	0.07283656
228	0x3dae6f24	0.08517292
229	0x3c5737e1	0.013135881
230	0x3dc0fcfa	0.094232515
231	0xbd1c76d0	-0.038199246
232	0xbd812c8b	-0.06307324
233	0xbde3fce7	-0.11132222
234	0xbdd6141d	-0.10453055
235	0xbcfdb9c7	-0.030972375
236	0x3a12cc52	0.0005599904
237	0x3d47d21f	0.04878437
238	0xbd28d3f7	-0.04121777
239	0xbd25c194	-0.040467814
240	0xbcc98c1a	-0.024602938
241	0x3d2015a1	0.039083127
242	0xbd32ff88	-0.043700725
243	0x3dc90432	0.09815253
244	0xbc97db3b	-0.018537154
245	0xba8e1fde	-0.0010843237
246	0xbc946148	-0.018112794
247	0x3cc356f8	0.02384518
248	0x3d9898d4	0.07451025
249	0x3d2ac393	0.04169042
250	0x3df86229	0.121280976
251	0x3df2ed6f	0.11861693
252	0xbc3930d1	-0.011303143
253	0xbd80f628	-0.062969506
254	0xbc0f5b45	-0.008749788
255	0xbdeec770	-0.116591334

fc2.bias f4 [84]
0	0xbc813711	-0.015773328
1	0xbd2f1a25	-0.042749543
2	0x3e24e7cb	0.16104047
3	0xbc0153a5	-0.007893478
4	0x3d1ab3e4	0.037769213
5	0xbbee8000	-0.0072784424
6	0x3d4f0c27	0.0505487
7	0x3d6a2894	0.057167605
8	0x3d20d26f	0.039263185
9	0xbd226e9c	-0.039656267
10	0xbd97564a	-0.07389505
11	0xbd6ae40c	-0.05734639
12	0x3de45c91	0.11150468
13	0x3dbd81a2	0.09253241
14	0x3de9c179	0.11413855
15	0xbd8cd9c3	-0.06877472
16	0x3d8e7d6f	0.06957518
17	0xbcaf3d90	-0.02139166
18	0xbdae40b0	-0.08508432
19	0x3beb361a	0.0071780803
20	0x3ca33d69	0.019926744
21	0xbd2d5089	-0.042313132
22	0x3d876580	0.066111565
23	0x3c9ace2b	0.018897137
24	0x3d8ef705	0.06980709
25	0x3d70ccbd	0.058789004
26	0x3d772236	0.06033536
27	0x3db7a617	0.08967226
28	0x3d6fe28d	0.058565665
29	0x3dcff5fa	0.10154338
30	0x3d454ba6	0.048167847
31	0xbdad3282	-0.08456899
32	0x3c91ec79	0.017812954
33	0xbd82ab48	-0.063803256
34	0xbd0bb59b	-0.03410874
35	0x3ce2d402	0.027688984
36	0xbda532d8	-0.08066338
37	0x3d304aba	0.043040015
38	0xbcee6077	-0.029098732
39	0xbcb8a5d1	-0.022540005
40	0xbd97fb3c	-0.07420966
41	0x3cfdbb5a	0.030973125
42	0x3c80df7d	0.015731568
43	0x3da44109	0.08020217
44	0x3ceb4eed	0.028724158
45	0xbde906d7	-0.11378258
46	0x3d1a3bca	0.037654676
47	0xbd7f3746	-0.062308572
48	0x3dbe67d8	0.092971504
49	0xbbf9e8cf	-0.00762663
50	0x3c3fc541	0.011704744
51	0xbd06ae13	-0.032880854
52	0xbc38bb76	-0.011275163
53	0x3d591cdf	0.05300605
54	0x3d9b52bd	0.075841404
55	0x3c84a5b9	0.016192304
56	0x3d58d82f	0.052940544
57	0x3c72ec5e	0.014826862
58	0xbcef3bab	-0.029203257
59	0xbc09477f	-0.008378862
60	0x3db1276f	0.086500995
61	0x3bd31d40	0.006442696
62	0x3d104c68	0.035229117
63	0xbda47bbe	-0.080314144
64	0x3d395018	0.0452424
65	0x3de2d7a9	0.1107629
66	0x3d1756f4	0.03694816
67	0x3dbb15dd	0.091350295
68	0x3ca6ba75	0.020352582
69	0x3e1a51ba	0.15070239
70	0x3dad61ee	0.08465944
71	0xbc9da423	-0.019243306
72	0x3c304a8d	0.010759962
73	0x3c8fb5e0	0.01754278
74	0xbd614a70	-0.05500263
75	0x3cc873a2	0.0244692
76	0x3e2be4c0	0.1678648
77	0x3e0dac0e	0.13835165
78	0xbca286ff	-0.019839762
79	0x3dad45c2	0.08460571
80	0x3e056ebe	0.13030526
81	0x3bf8081f	0.0075693275
82	0x3dbac231	0.0911907
83	0xbdad5be1	-0.0846479

fc3.weight f4 [10, 84]
0	0xbdf94965	-0.12172202
1	0x3d5e49c6	0.054269575
2	0x3dd3dd4b	0.10344943
3	0x3cabd4f3	0.020975566
4	0x3dbcf7b0	0.0922693
5	0xbe443e57	-0.19164406
6	0x3d124676	0.035711728
7	0xbc450868	-0.01202593
8	0x3c0ec8ba	0.008714849
9	0xbd97870e	-0.073988065
10	0x3e18a74c	0.14907569
11	0x3bb04f28	0.00538053
12	0x3e5ac6f9	0.21364965
13	0xbe1cd07b	-0.15313904
14	0xbd1dc411	-0.03851706
15	0x3ea129f0	0.31477308
16	0x3dd2a4b0	0.10285318
17	0x3cffe991	0.031239303
18	0xbd9d8ac5	-0.07692484
19	0x3def6a08	0.11690146
20	0xbdc81b1f	-0.09770798
21	0x3d870c78	0.06594175
22	0xbde08f05	-0.10964779
23	0xbd83b9ca	-0.06431921
24	0x3c9ca9cd	0.019123936
25	0x3e0fb48d	0.14033718
26	0x3d83b42d	0.0643085
27	0xbc041224	-0.008060966
28	0xbdac6e8b	-0.08419522
29	0xbdb150f0	-0.08658016
30	0x3dd9c869	0.10633928
31	0xbb325d2e	-0.0027216184
32	0x3dbf9678	0.093548715
33	0xbe245fad	-0.16052122
34	0xbe1054e8	-0.14094889
35	0x3de86f54	0.11349359
36	0xbd83b2aa	-0.06430562
37	0x3d2f0af8	0.04273507
38	0xbc2162d6	-0.0098502245
39	0x3dd699e4	0.10478571
40	0x3c9cf29f	0.01915866
41	0xbd4e9e90	-0.050444186
42	0xbd275eef	-0.04086202
43	0x3e22829f	0.1587014
44	0xbe04cfbf	-0.12969874
45	0x3dc96bbd	0.098350026
46	0xbd8e5ba4	-0.06951073
47	0x3e6ada35	0.22934802
48	0xbcb45449	-0.022012847
49	0xbdb3be47	-0.08776527
50	0xbde80e97	-0.11330908
51	0x3e3fd169	0.18732227
52	0x3d9d0389	0.0766669
53	0xbe9971fd	-0.2996978
54	0x3d807dbb	0.06273981
55	0x3c116e6c	0.008876424
56	0x3e621341	0.22077657
57	0x3d5c93ee	0.053852014
58	0x3e060786	0.13088807
59	0xbd0c44d7	-0.03424534
60	0x3e4b2b80	0.19840813
61	0xbd9f5e6b	-0.07781681
62	0x3db68900	0.089128494
63	0xbd5d2fd2	-0.054000683
64	0x3da03be1	0.07823921
65	0x3dc43d71	0.095820315
66	0x3d60d0ed	0.054886747
67	0xbdfbbbe9	-0.122917004
68	0xbd81fda7	-0.063472085
69	0xbd66dc45	-0.05636241
70	0x3e401b6b	0.18760459
71	0x3da84c19	0.082176395
72	0xbd41fbc2	-0.047359236
73	0xbe839aee	-0.2570414
74	0xbe4de38d	-0.20106335
75	0x3e1d7b2e	0.1537902
76	0x3e65e877	0.2245196
77	0x3e53628b	0.2064306
78	0xbd8fcf47	-0.07021957
79	0xbdc6bd00	-0.09704018
80	0xbd85c055	-0.06530825
81	0x3d622c8b	0.05521826
82	0xbe06abd8	-0.1315149
83	0xbd6df4dd	-0.058094848
84	0x3d6f631e	0.058444135
85	0x3dc565e4	0.09638575
86	0xbe0f22e9	-0.13978161
87	0xbd5ecfd2	-0.05439741
88	0x3e1e3d5e	0.15453097
89	0xbcb708ef	-0.022343127
90	0xbe84b971	-0.2592273
91	0x3dc4ece0	0.09615493
92	0x3ce895c8	0.028391734
93	0x3db46d8a	0.088099554
94	0xbdbdd32e	-0.09268795
95	0x3cf530e5	0.029930541
96	0x3d479bdb	0.04873262
97	0xbe2fcf71	-0.17168976
98	0xbe67bb3d	-0.2263002
99	0xbdcb8b13	-0.09938636
100	0x3d8b8b99	0.068137355
101	0x3c91e390	0.017808706
102	0xbdb3c6fc	-0.08778188
103	0x3d81e25f	0.06342005
104	0xbe12f8f1	-0.14352776
105	0x3e5a051b	0.2129101
106	0x3e4a5549	0.19759096
107	0xbdc7c790	-0.097548604
108	0x3e3d6690	0.18496156
109	0x3e595a3d	0.2122583
110	0x3e46d81c	0.19418377
111	0xbeb4359d	-0.35197154
112	0xbe0ccb4f	-0.13749431
113	0xbe9ac146	-0.3022558
114	0xbdf97301	-0.121801384
115	0x3d8110c5	0.06302027
116	0x3b882141	0.004154355
117	0xbdf8d161	-0.12149311
118	0x3e4ec225	0.20191248
119	0x3d8e9aa6	0.069630906
120	0x3d9bed86	0.076136634
121	0xbddc3152	-0.107515946
122	0x3cdaedcb	0.026724717
123	0xbd22a1d4	-0.039705113
124	0x3e06d464	0.13166958
125	0xbd0d83a2	-0.034549363
126	0x3e6d05b9	0.23146714
127	0xbe9eeec3	-0.31041536
128	0x3c46c8b5	0.012132813
129	0xbe30dca9	-0.17271675
130	0xbd2444fe	-0.04010486
131	0xbda5b7a8	-0.0809167
132	0xbc6c3811	-0.014417664
133	0x3cb44313	0.02200464
134	0xbe024bd3	-0.12724237
135	0xbd14d18a	-0.036332645
136	0x3e224146	0.15845212
137	0x3e5cc14e	0.21558115
138	0x3dcdaf1b	0.10043164
139	0xbde2cfab	-0.11074766
140	0xbda8602e	-0.0822147
141	0xbdd1e49a	-0.102486804
142	0xbd29db7b	-0.04146908
143	0x3ca88b85	0.02057434
144	0x3d3d76eb	0.046255987
145	0xbbfe7628	-0.00776555
146	0x3cf00123	0.029297417
147	0xbcc16dec	-0.023611985
148	0xbcda49cb	-0.026646515
149	0x3e39ba7d	0.18137546
150	0x3e9c5164	0.30530846
151	0x3d86f385	0.065894164
152	0x3da9ca5f	0.08290552
153	0xbc1e9372	-0.009678708
154	0x3e5c7574	0.2152918
155	0x3d8e7e45	0.06957678
156	0xbd7538c1	-0.059868578
157	0xbdf0eb4b	-0.117636286
158	0x3e36d18f	0.17853378
159	0xbde2e679	-0.110791154
160	0xbe996737	-0.2996156
161	0xbea9bce5	-0.33151928
162	0xbd81f896	-0.06346242
163	0x3b2ed839	0.0026679172
164	0x3cb50587	0.022097362
165	0x3e21396b	0.1574456
166	0xbdcb8091	-0.099366315
167	0x3dd7fd36	0.10546343
168	0x3d65f44f	0.056141194
169	0xbd652d8f	-0.05595165
170	0x3e4b9fc3	0.19885163
171	0xbdf74b3d	-0.120748974
172	0x3e0c5698	0.13704908
173	0xbc683376	-0.0141724255
174	0x3e1ca8c9	0.15298761
175	0x3e051691	0.1299689
176	0x3df8b23b	0.1214337
177	0x3e2c7447	0.16841231
178	0xbe158b23	-0.14603858
179	0x3dabed0b	0.08394822
180	0x3ea748bd	0.32672682
181	0xbe3ce97c	-0.18448442
182	0x3dbfc3ef	0.09363543
183	0xbce8afbe	-0.028404113
184	0xbe577c33	-0.21043472
185	0xbcf15cb2	-0.029463146
186	0x3dcb4dc7	0.09926944
187	0x3e284c93	0.16435461
188	0xbe01d2e9	-0.12678112
189	0xbd14f0ba	-0.036362387
190	0x3df918d8	0.12162942
191	0xbdf623f9	-0.1201858
192	0xbe2082ab	-0.15674846
193	0xbd2c2d9d	-0.042035688
194	0x3ce881f2	0.028382275
195	0xbe3057a1	-0.17220928
196	0x3be9e1d9	0.007137519
197	0x3c9a7dd0	0.01885882
198	0xbdb7a177	-0.08966344
199	0xbe30b245	-0.17255504
200	0xbd28e015	-0.041229326
201	0xbd101e57	-0.035185184
202	0xbddb2c7b	-0.10701843
203	0xbd97dc89	-0.074151106
204	0x3c97679d	0.018482024
205	0xbd9e3bb0	-0.07726228
206	0x3dd2061d	0.10255072
207	0xbd873570	-0.06601989
208	0x3e4c4587	0.19948398
209	0x3e9edb52	0.31026703
210	0xbdb36719	-0.08759899
211	0xbd58f13b	-0.05296443
212	0x3ba7d91b	0.0051223165
213	0xbdd6487c	-0.10463044
214	0xbc0d2d7a	-0.0086167995
215	0x3d448e29	0.047987137
216	0x3d9a1191	0.07522882
217	0x3c0be4e3	0.008538458
218	0xbdadb865	-0.08482436
219	0xbdbd3f14	-0.09240547
220	0x3d529ece	0.05142098
221	0xbdc097fe	-0.0940399
222	0x3bb7b883	0.0056067123
223	0x3db65468	0.08902818
224	0xbebc41fc	-0.36769092
225	0x3bca791a	0.006178987
226	0x3dfadf35	0.122496046
227	0xbca75a2a	-0.020428736
228	0x3e28003e	0.16406342
229	0xbe1d03a4	-0.1533342
230	0xbcb5623c	-0.022141568
231	0x3d333674	0.043753102
232	0x3d45cf16	0.048293196
233	0x3dbd1e4a	0.09234293
234	0x3d833e6d	0.06408391
235	0x3dc5e24a	0.09662302
236	0xbd8bfc47	-0.068352275
237	0x3e949738	0.2902162
238	0x3d2d19e2	0.042261012
239	0xbe15bcd3	-0.14622812
240	0xbd29fca0	-0.041500688
241	0xbd91232d	-0.070867874
242	0xbb475061	-0.00304129
243	0xbdc03de4	-0.09386805
244	0x3ea533ef	0.32266185
245	0x3d9f7387	0.07785707
246	0xbd9ee1dd	-0.07757924
247	0x3ecfe3a7	0.40603372
248	0xbe1b4b84	-0.15165526
249	0xbe24b8b4	-0.16086084
250	0x3df39e14	0.118953854
251	0xbe3c1d8f	-0.1837065
252	0xbe48d24f	-0.19611476
253	0xbd4a9e86	-0.049467586
254	0xbdd11cf1	-0.10210598
255	0x3df32f3c	0.118742436

fc3.bias f4 [10]
0	0xbcafa59d	-0.021441275
1	0xbde6e735	-0.11274568
2	0x3e032767	0.12808
3	0x3b7d9ee0	0.0038699433
4	0xbc7ca255	-0.015419562
5	0xbc011544	-0.007878605
6	0x3e1239e2	0.14279893
7	0xbdb9a0aa	-0.09063847
8	0x3e7b04df	0.24513577
9	0xbca636ff	-0.020289896
