Assignments/02_cnn/2_vgg_net.pth (torch, 295793 bytes, 52 tensors)

model.0.weight f4 [20, 1, 3, 3]
000000 89 70 3b 3f a6 47 a3 be 00 74 8d 3e 7d 4f aa 3d
       0.7321859 -0.318906 0.27627563 0.083159424
000010 2c 15 7b c0 8b 1c 18 3e 17 fb 9d bf d9 a4 bc c0
       -3.9231672 0.14854638 -1.2342252 -5.895123
000020 13 d3 99 be 8f ff 28 bf b9 a8 86 bd 92 c5 bd bf
       -0.3004385 -0.6601495 -0.0657515 -1.4825919
000030 c1 b4 d8 bf ca 9b 91 3f 31 f1 00 c0 7c 1a 14 bf
       -1.6930162 1.1375668 -2.0147212 -0.5785291
000040 39 a9 7f 3f d6 16 17 3f 7a 31 db 3e a2 83 8e 3c
       0.9986759 0.5901922 0.42811185 0.017396752
000050 aa aa 5a be 4e 1c 23 bf 75 c1 78 bf 6a 5c c0 bf
       -0.21354166 -0.63715065 -0.9717019 -1.5028203
000060 04 ee 98 3d 00 de bf be a4 ec 2c bf dd 4a 03 bc
       0.07467273 -0.3747406 -0.67548585 -0.008013454
000070 ba 94 5c 3f 23 63 38 3f a6 14 7b bf 6a a8 5e 40
       0.8616444 0.7202627 -0.9807838 3.4790292
000080 41 52 db 3f bd 74 cd bd 66 03 1b 40 8e 2e 8f 3f
       1.7134477 -0.10032032 2.4220824 1.1186082
000090 10 0e 7b 3c b9 f5 e5 3e a7 ba d6 be 53 5e 73 c0
       0.015323177 0.44914034 -0.4193928 -3.802632
0000a0 1a 28 44 c0 cf 46 80 be 1c a6 8f be 39 5f 74 bf
       -3.0649476 -0.25054023 -0.2805642 -0.954578
0000b0 42 6e 5e 3f d9 d0 84 3e 42 07 e9 be f9 31 9b 3e
       0.8688699 0.25940588 -0.4551335 0.30311564
0000c0 f5 fd c5 bd a2 63 e4 bf 34 73 9e bd 42 1d 1b be
       -0.09667579 -1.7842906 -0.07736817 -0.1514788
0000d0 5e bd c2 bf db bf 28 be 8f 39 7f bf 6b d6 9a 3f
       -1.521404 -0.16479437 -0.996972 1.2096685
0000e0 74 94 83 3f 0c 80 16 c0 c7 ac 77 bf 3b 18 f2 3f
       1.0279679 -2.3515654 -0.9674801 1.8913645
0000f0 6e 37 74 bf a0 20 45 bf 6a 43 ed 3f f4 70 b6 3f
       -0.9539708 -0.77002907 1.8536198 1.425322
000100 98 50 38 3f 1b 1c db 3b 0f 2c 8f 3e 57 e6 9e be
       0.71997976 0.0066867 0.27963302 -0.3103511
000110 ac f1 23 3f 42 5e c4 bf 48 e8 59 c0 be 9e ee bf
       0.64040637 -1.5341265 -3.4048023 -1.8642194
000120 65 43 61 3f 30 a8 27 bf 64 cf 27 3f f0 8f 7d bf
       0.8799346 -0.6549101 0.6555083 -0.99047756
000130 85 e3 33 c1 5f 49 ac 3d df 60 99 3e e4 6a 60 bf
       -11.243047 0.08412432 0.2995672 -0.876631
000140 a0 ca ce 3e dd 47 0a bf 75 f6 a8 be 96 2a 96 3e
       0.40388966 -0.54015905 -0.33000532 0.29329365
000150 7b e3 dd bd cb 48 7f 3e 2f 31 a0 be ea ab 18 bf
       -0.10834404 0.24930112 -0.31287524 -0.5963732
000160 ba cf 45 3d 85 a2 e2 bf fa 49 13 3f cc e2 9a bf
       0.048293807 -1.7705847 0.57534754 -1.2100463
000170 a3 89 90 be ed be 19 c0 a5 97 b2 c0 cf 3a ab bf
       -0.28230008 -2.4022782 -5.5810113 -1.3377322
000180 32 8d 08 3f 38 9e 97 bf 33 dc dd 3e 3e dc 04 bd
       0.53340447 -1.184516 0.4333206 -0.0324366
000190 0d c3 85 3f c2 31 68 be 91 50 09 bd 36 55 6d 3f
       1.045015 -0.22675231 -0.0335241 0.92708147
0001a0 84 f4 2e be e5 aa 8f 3e 14 3a 8e 3e 7d ce 8c bc
       -0.17085463 0.2806007 0.27778685 -0.017188305
0001b0 ec 57 1f bf 54 54 8b 3e f4 8d 97 be a5 9b 03 3f
       -0.62243533 0.27212775 -0.2960049 0.5140937
0001c0 25 99 02 bf 61 8b 34 c0 94 b6 f4 3e f0 e6 16 40
       -0.5101493 -2.821007 0.47795546 2.3578453
0001d0 1f d0 ac be 38 30 95 bf 6a 7d d4 be 3e 7b c7 3f
       -0.33752534 -1.165534 -0.41501933 1.5584486
0001e0 f3 5c 29 c0 3b f9 97 3f 52 98 dd 3e 75 ed f3 bd
       -2.6462982 1.1872934 0.43280274 -0.11910526
0001f0 b0 bc c1 3f 02 c4 81 bf 57 ae 2c bf 00 18 c7 3e
       1.5135708 -1.0137942 -0.6745352 0.38885498
000200 4e b5 84 bc 1b 45 66 bf 62 23 2c 3f 6e 93 3d 3f
       -0.016199734 -0.89949197 0.6724149 0.74053085
000210 fa f4 a4 bb f0 0c e6 3e 11 8f e8 3f 0a c2 9e 3e
       -0.0050340863 0.44931746 1.816866 0.31007415
000220 80 a3 e9 3f 51 77 9b 3e 95 73 ac 3f fc dc 83 bf
       1.8253021 0.3036447 1.3472773 -1.0301814
000230 99 5a 11 40 cf 64 e5 3d ff 4d 10 c0 46 94 08 bf
       2.2711546 0.11200868 -2.2547605 -0.5335125
000240 de 32 ea 3d 09 7c 15 bf c1 11 a4 3e f1 eb 60 bf
       0.114354834 -0.5839239 0.32044795 -0.8786002
000250 81 91 33 c1 c3 83 95 be b2 48 69 3f e7 fe 12 bf
       -11.223023 -0.2920209 0.9112655 -0.574202
000260 86 ce 03 3f 95 e8 10 bf 55 64 04 3f 93 38 88 be
       0.51487005 -0.5660489 0.51715595 -0.26605663
000270 4b f0 c3 bf 8d 3c 69 40 09 e0 e0 be fe 46 0f 3f
       -1.5307707 3.6443207 -0.43920925 0.559677
000280 de 62 cd 3d e1 d6 e1 bf 58 25 87 be 82 c5 2c c0
       0.10028623 -1.7643701 -0.2639568 -2.699555
000290 14 87 f9 bf cc 15 25 3f 01 ed b7 3f 8b 14 f3 3e
       -1.9494348 0.64486384 1.4369203 0.4747661
0002a0 a1 d0 0a bf 43 bd bf 3f 30 a6 9f 3f e5 d4 32 bf
       -0.5422459 1.4979633 1.2472591 -0.698561
0002b0 55 83 97 c0 6e f0 38 bf ca bd 22 be c1 10 23 c0
       -4.7347817 -0.72241867 -0.15892711 -2.5478976
0002c0 cc 3a 3e 3f 41 85 e0 3f 13 dc 6b be a8 35 d3 3d
       0.74308467 1.7540666 -0.2303317 0.103129685

model.0.bias f4 [20]
000000 01 cc 74 3e 67 5c 86 3f 9d cc c5 3e 27 ce 08 c0
       0.23905946 1.0496949 0.3863267 -2.1375825
000010 b8 2d bd 3f 2b 33 92 3d 43 ae d6 bf fd 31 ea be
       1.4779577 0.07138666 -1.677193 -0.45741263
000020 de 36 4f bf b0 09 b2 bd c7 86 af be 73 81 84 3d
       -0.80943096 -0.08693254 -0.34282514 0.06470003
000030 90 98 b0 3f 5d 3f 22 3e 67 8b 6f 3e d3 8f f2 3e
       1.3796558 0.15844484 0.23393022 0.47375354
000040 89 5b 10 c0 26 d0 45 3e 1e 4f ce be 19 ec f2 be
       -2.2555869 0.19317684 -0.40294737 -0.47445753

model.1.weight f4 [20]
000000 93 1a ad 3f e0 09 fa 3e fc 44 14 3f 0a e5 b1 3f
       1.3523735 0.4883566 0.5791776 1.3898022
000010 65 27 7b 3f ae e4 15 3f 26 94 36 40 3a 9e 9b 3f
       0.98106986 0.5855206 2.8527923 1.2157662
000020 b7 f1 5c 40 57 44 9e 3e e2 71 11 40 17 54 65 3e
       3.452253 0.30911514 2.2725759 0.22395359
000030 db ab 5c 3f 47 95 b9 3f e6 d8 47 3e 8d 66 cc 3f
       0.8619973 1.4498681 0.19516334 1.5968796
000040 f9 1e 5d 40 ba 20 0b 40 84 df bf 3f 5c 30 c0 3f
       3.4550154 2.1738725 1.4990087 1.5014758

model.1.bias f4 [20]
000000 4b 3b de bf d8 84 a1 bf 9b ca 63 bf 62 fc 9c bf
       -1.7361845 -1.2618666 -0.88981026 -1.2264521
000010 42 d1 b5 bf be 90 67 bf ff dc 5d 3f bb c7 da be
       -1.4204485 -0.90455234 0.8666534 -0.42730507
000020 1c 74 d5 bf f5 f2 31 bf 74 6f c3 bf d3 65 4c bf
       -1.6676059 -0.6951135 -1.5268388 -0.7984287
000030 ec 8f 1e bf 98 13 66 bd 0b ac 48 bf a6 09 b3 bf
       -0.6193836 -0.05617103 -0.78387517 -1.398732
000040 69 72 8a bf 89 94 36 3f 6a b5 84 3e 31 56 8e bf
       -1.0816165 0.71320397 0.25919658 -1.1120054

model.1.running_mean f4 [20]
000000 48 c9 92 40 e3 f4 1d 40 1c 5e fb 3f 06 fb bd c0
       4.5870705 2.4680717 1.9638095 -5.9368925
000010 13 04 93 40 53 48 d1 3f d1 34 da bf 64 09 92 3f
       4.5942473 1.6350197 -1.7047368 1.1409116
000020 38 43 88 40 4a 61 88 3f 15 eb 83 40 5a e6 4c bf
       4.2582054 1.065469 4.1224465 -0.8003899
000030 9c 89 e4 3f 98 b7 aa 3e 61 09 41 bf cf 5a ed be
       1.7854495 0.33343196 -0.75404936 -0.46358344
000040 b8 9b 38 40 30 8a e2 bd 6e 96 f2 be 68 b2 0e 40
       2.8845043 -0.110615134 -0.47380394 2.229639

model.1.running_var f4 [20]
000000 d4 4a 4c 42 c3 19 c8 40 17 5a cc 40 9b 5c 12 42
       51.073074 6.2531447 6.3859973 36.590435
000010 ea da c7 41 28 60 cb 40 1d 1c cd 40 1d d9 2b 41
       24.981892 6.355488 6.409682 10.740506
000020 c9 ee 87 42 5e 77 63 40 e0 1f 43 42 e0 78 fb 3f
       67.96638 3.5541606 48.781128 1.9646263
000030 64 e2 32 40 84 f0 2f 40 e8 89 7e 40 79 cc 80 40
       2.7950678 2.749055 3.9771671 4.02496
000040 67 01 8b 42 e0 52 fb 3f c6 9c 44 40 75 c5 b1 41
       69.50274 1.9634666 3.0720687 22.221415

model.3.weight f4 [20, 20, 3, 3]
000000 c5 16 2b 3f 57 e0 32 bf 08 a1 fd be fb 86 9c bd
       0.6683162 -0.69873565 -0.4953692 -0.07642933
000010 a6 c5 84 bf 28 32 17 bf 95 9a 07 3f 4c 2a 2c 3e
       -1.0372818 -0.5906091 0.5297025 0.1681301
000020 b1 36 d7 3e 2f a1 1d 40 d9 cc 59 bf b8 75 8c 3b
       0.42033914 2.4629629 -0.850782 0.004286494
000030 6f b5 ac 3f 86 c6 40 bf 23 6d 06 bf 1a 24 82 3e
       1.3492869 -0.7530292 -0.5251028 0.25418168
000040 d7 14 ea 3e b0 52 85 bb 01 6a a4 bd bf 59 00 bd
       0.45719025 -0.004068695 -0.08028031 -0.03133559
000050 a3 a9 ff 3e 64 0f b5 be bc d2 a4 be a9 bb 18 be
       0.4993411 -0.35363305 -0.32192028 -0.14915337
000060 34 bd 63 3e 7b 00 3a 3d 31 9f 58 3e 49 78 6e 3f
       0.22240144 0.045410614 0.21154477 0.9315229
000070 42 b5 35 bf 78 b4 ea bf cd 6a 96 3f ac 74 22 3e
       -0.709797 -1.8336325 1.1751343 0.1586482
000080 59 a7 d7 bf 1d 24 a3 be 12 0a a5 be 14 ed 03 c0
       -1.6847945 -0.3186349 -0.32234246 -2.061345
000090 df 20 2b bf 28 36 58 be 6b f0 11 3f e9 89 81 3e
       -0.6684703 -0.21114409 0.57007474 0.2530053
0000a0 2b 00 f5 be 1f 5d b9 be 99 61 82 3e 40 77 86 be
       -0.4785169 -0.36203858 0.25465086 -0.26262856
0000b0 ed 8c 08 3f f2 af 72 3e 81 77 b3 bd d7 b5 52 be
       0.53340036 0.2369993 -0.08763028 -0.20577179
0000c0 4b 21 1e be 6f b2 30 bf 20 7b 0b bf dc 78 c2 bd
       -0.15442388 -0.6902227 -0.5448475 -0.09495708
0000d0 31 70 73 be 11 0d 1f 3d f2 3b 48 3f 74 93 60 c0
       -0.23773266 0.03883082 0.7821647 -3.5089998
0000e0 aa 65 01 c0 5b 4c d2 3f 8c 12 74 c0 95 7b a9 c0
       -2.02183 1.6429552 -3.813632 -5.2963357
0000f0 5e 22 e8 3f a9 8d 0b bf 17 e3 3b c0 e2 83 ee 3c
       1.8135488 -0.5451303 -2.9357355 0.029115621
000100 bf e6 55 bd 22 fe 86 3f df 1d ca bd b9 69 95 3e
       -0.05222201 1.0546305 -0.09868979 0.29182222
000110 3c f0 95 3f 70 1d 2e 3f 42 9c 3a 3f e0 59 6c be
       1.1713939 0.6801367 0.7289468 -0.2308116
000120 35 8b 4d bf 17 8e e1 be a0 d6 fd 3e c9 1f 5b bf
       -0.8029054 -0.44053718 0.49577808 -0.85595375
000130 79 92 fe bf 3f e0 14 bf 73 6e 98 be 19 8e 80 bf
       -1.988845 -0.5815467 -0.29771766 -1.0043365
000140 f9 de 0b 3f 3d 54 bb 3e 80 de 06 be eb e3 ef 3d
       0.54637104 0.36587706 -0.13170815 0.11713394
000150 2a 44 c6 3d ef bb f2 be 69 71 3d be eb 97 04 3e
       0.0968097 -0.47409007 -0.18500294 0.12948577
000160 d8 ac c2 be 02 c8 57 be 6d 04 0f bf ff 45 2d 3f
       -0.38022494 -0.2107239 -0.5586613 0.6768493
000170 5c a6 e5 3f 46 bb 56 3d 2b 74 16 bf 3d d2 24 3c
       1.7941394 0.05242469 -0.5877101 0.01005989
000180 53 1a 60 3e e6 a1 2a 3d 4b fd 48 3f b4 58 97 3e
       0.21885042 0.041658305 0.78511494 0.29559863
000190 d0 da c3 be 1a 2b 64 3d 55 62 a8 3e 96 41 7b be
       -0.38252878 0.055705167 0.3288752 -0.24536738
0001a0 d0 4a 8b 3d c6 95 1c 3d f8 db f4 bd 28 12 0d 3e
       0.06801379 0.038228773 -0.11956018 0.13776457
0001b0 1c ed c7 3e 0c 64 4b bf 80 91 8a 3d d5 2a 3a bf
       0.39048088 -0.79449534 0.06766033 -0.72721606
0001c0 ae b4 06 bf 7f 45 0f 3f 65 fd 1d bf 9e e6 19 bf
       -0.52619445 0.5596542 -0.61714774 -0.6011752
0001d0 29 30 37 3f 7d 62 5a 40 76 df 8f bf a5 89 07 c0
       0.7155786 3.4122612 -1.124007 -2.1177762
0001e0 13 26 84 3f 15 9e 12 c0 cd 8d b7 bf 92 54 91 3f
       1.0324119 -2.2908986 -1.4340149 1.1353934
0001f0 3f ca 46 bf f6 ad 99 bf e1 c4 3c bd 29 48 44 bf
       -0.77652353 -1.2006214 -0.046086196 -0.7667261
000200 72 86 35 bf 66 8c 40 3e b1 41 0b be 71 aa 63 bf
       -0.7090827 0.18803558 -0.13599278 -0.8893195
000210 d5 cc d4 bd da 52 7c 3e 76 a2 34 bf cc a8 bc bf
       -0.10390631 0.2464098 -0.70560396 -1.4739013
000220 b7 e7 8f bf 80 7e 72 3e ba 99 aa 3f 34 ee 83 be
       -1.1242589 0.23681068 1.3328164 -0.25767672
000230 ec 0f 01 3f 2c 64 2d 40 3c 7d 35 3e d2 8c 5a bf
       0.5041492 2.709239 0.17723554 -0.85371125
000240 e3 94 5b bf f2 13 a5 bd b2 34 6e 3f 35 f0 c9 bd
       -0.8577406 -0.08060445 0.93049157 -0.09860269
000250 be a7 77 bf b2 a2 7a 3e bb 48 ae be 3e bc 49 bf
       -0.9674033 0.24476126 -0.34039864 -0.7880286
000260 2e 20 60 3f 37 df 38 3e 6b 91 e3 bf 68 43 89 3f
       0.875491 0.180539 -1.7778753 1.0723696
000270 a8 2d b6 3e f1 e1 8b 3e 2a be 78 3f ca 64 7c bd
       0.35581708 0.27320817 0.9716517 -0.061619557
000280 49 3d 4c 3f b6 e4 44 3c 52 82 46 3f 0c 1c 25 3f
       0.79781014 0.01201742 0.77542603 0.6449592
000290 3b 60 b6 3f 9b 2f 31 3d df ac 94 3f 0a 9d f7 3e
       1.4248117 0.04325829 1.1615256 0.48362
0002a0 97 64 3c 3c 37 4b 0a 3f 1a 58 47 be 20 b5 1c 3e
       0.011498592 0.5402102 -0.19467202 0.15303469
0002b0 90 a0 86 3f 31 1a a0 3f f0 0e 8e 3f 4c 63 d1 3f
       1.051775 1.2507993 1.1098309 1.6358428
0002c0 21 53 b1 3f f9 9f 73 3f 2e 79 3c 3e ed 3d 57 3f
       1.3853494 0.95165974 0.18405601 0.84078866
0002d0 ba 0f 88 bf 71 37 11 40 61 9f e1 3e cd e5 1e 3f
       -1.0629799 2.2690089 0.4406691 0.620694
0002e0 21 69 68 40 64 6b 44 be dc 2d 3b 3f 3c 7f 46 40
       3.6314166 -0.19181591 0.7311685 3.1015158
0002f0 49 b3 83 bc 6a 48 85 be f7 3e d9 3f a9 15 ba 3f
       -0.0160767 -0.2603181 1.697234 1.453786
000300 92 e6 ae bf c8 5f 85 3f 51 b2 b5 3e bf a1 0c c0
       -1.3664114 1.0419855 0.35487607 -2.1973722
000310 bd ac cf 3f b2 3c 56 bf 8e 55 91 3d 7c 44 de bb
       1.622459 -0.83686364 0.070963964 -0.0067830663
000320 44 a9 02 bf 3c b8 b0 3d a7 25 33 be 06 fb 59 bf
       -0.5103953 0.0862889 -0.17494832 -0.85148656
000330 93 3d 25 3e 14 69 f8 3d ca 83 0a bf 2a 64 b5 3f
       0.1613677 0.12129417 -0.54107344 1.4171193
000340 ba 3c 05 40 9f d4 6f bf 09 37 90 3f 65 35 08 40
       2.0818315 -0.9368381 1.1266795 2.128259
000350 5d 30 b7 bf 5c b4 a2 3f e4 33 03 40 5a 34 11 c0
       -1.4311634 1.2711291 2.0500422 -2.2688203
000360 fe 91 29 bf 34 b6 c3 bf 6d ab 90 3d 9e 1a f3 3d
       -0.6623839 -1.5289979 0.07063947 0.11870311
000370 26 3e b6 be 04 2f 04 3f 1d ac 22 3f b7 69 df 3e
       -0.3559429 0.5163424 0.63543874 0.43635342
000380 9a 95 86 3f 0d 38 b0 3d 06 24 a1 3f 3e e5 02 3e
       1.0514405 0.08604441 1.2589118 0.12782761
000390 a1 37 90 3e cd fe bf 3f 63 e3 1c 3d e3 db 53 be
       0.2816744 1.4999634 0.03830279 -0.20689349
0003a0 31 57 1d 3f 67 11 87 3e a1 97 bc 3f 2b 75 54 3f
       0.6146117 0.26380464 1.4733773 0.82991284
0003b0 e0 fb a2 3d f0 50 71 bd dc 81 6e bf 66 05 f7 3d
       0.079581976 -0.05891508 -0.931669 0.120615765
0003c0 98 f1 d5 3e 46 9a 86 bf 1c 9d 69 bd 3b da 91 3c
       0.41785884 -1.051583 -0.057034597 0.017804256
0003d0 35 60 03 40 80 82 3d bf 07 d6 3c bf 70 51 96 3f
       2.052747 -0.7402725 -0.7376408 1.1743603
0003e0 70 4e 0f c0 5d ca bb 3e 40 8a 46 40 2b e7 2e bf
       -2.2391624 0.36677828 3.102188 -0.68321484
0003f0 87 95 47 c0 a4 82 bf 3f e6 a1 99 bf fe ef b6 be
       -3.1185014 1.4961743 -1.2002532 -0.35729975

model.3.bias f4 [20]
000000 1d ff 00 bf 5d 7d b9 3c 1d e9 49 3e 84 7d 9f 3f
       -0.5038927 0.022642786 0.19717832 1.2460179
000010 66 0c a4 be 8b 34 4b bf eb d2 7f bf f8 2b 61 3f
       -0.3204071 -0.7937705 -0.9993121 0.87957716
000020 e0 bc 8f 3e b2 a6 af 3e d6 18 a4 be 73 2f 50 3f
       0.28073788 0.34306866 -0.32050198 0.813224
000030 b3 db 3f be 77 c4 99 3d 2e 54 e6 3d 8a 8a cc 3d
       -0.18736152 0.07508176 0.11246525 0.09987362
000040 8a 64 02 3e a5 8e c6 be 38 a3 9b bd 49 d5 9a 3d
       0.12733665 -0.38780704 -0.07599491 0.07560212

model.4.weight f4 [20]
000000 e2 f2 8e 3f 89 ec d4 3f 69 02 f7 3f 96 a6 b7 3f
       1.1167872 1.6634685 1.929761 1.4347713
000010 07 b5 4c 40 e6 72 06 40 d5 ee e6 3f ef 4a 13 40
       3.198549 2.1007628 1.8041636 2.3014486
000020 3e 17 27 3f 83 d5 e8 3f 92 2a 03 40 3a ff 21 40
       0.6526984 1.8190159 2.0494733 2.5312028
000030 85 f4 da 3f a4 26 eb 3f 2f cd e7 3f 4a d7 ab 3f
       1.7105871 1.8371167 1.8109492 1.3425076
000040 e2 64 f3 3f df b5 60 3f e7 35 a4 3f 2a 0f a4 40
       1.9015162 0.87777513 1.282895 5.126851

model.4.bias f4 [20]
000000 fe 23 58 3f 8c ae 7d bf 7d 1c 1c bf 07 9b 0b bf
       0.8442992 -0.9909446 -0.6098097 -0.5453343
000010 78 08 92 bf ae d6 06 3f 28 6b 45 3f 65 2e 0c bf
       -1.1408834 0.52671325 0.7711663 -0.5475829
000020 56 22 bd be 16 cf 7a bd 92 78 e6 be e3 f6 09 be
       -0.3694026 -0.06123265 -0.45013863 -0.13473086
000030 38 a1 12 bf fe 94 66 be 1d 6f 31 bf 23 dc 5b bf
       -0.5727725 -0.22517774 -0.6931017 -0.85882777
000040 b7 ce 01 bf 3a 35 8e bf bd b7 1d bf 9b 2f ab 3f
       -0.50706047 -1.1109993 -0.6160849 1.3373903

model.4.running_mean f4 [20]
000000 2f 69 a2 c1 df 11 c2 3f 77 a5 9a c1 eb 96 df c1
       -20.30136 1.5161704 -19.330793 -27.94869
000010 47 98 ed c1 25 b6 35 c1 b1 40 33 c1 4e e7 42 41
       -29.699354 -11.356969 -11.203294 12.181471
000020 40 b2 35 41 62 d9 ad c1 76 d1 52 41 bd c2 a1 c1
       11.356018 -21.731144 13.176138 -20.220087
000030 e2 9d 54 41 0e 22 55 3e a7 bd 38 40 70 61 e8 c1
       13.288546 0.20813772 2.8865755 -29.047577
000040 43 fd c7 c1 e1 02 f7 c0 33 1e 32 41 39 7b 45 c1
       -24.998663 -7.7191014 11.132373 -12.342584

model.4.running_var f4 [20]
000000 da 5b 98 44 b9 eb 3e 43 0d ff a9 43 12 83 cb 43
       1218.8704 190.92079 339.99258 407.024
000010 f3 4d 29 44 d3 a7 9a 43 4c 75 fb 43 b6 86 49 44
       677.21796 309.31113 502.91638 806.10486
000020 37 55 38 43 ff de 9d 43 19 f7 ca 43 3a 75 50 44
       184.33287 315.74216 405.93045 833.83167
000030 50 22 01 44 17 2b a0 43 04 68 8c 43 ef 1b 9a 43
       516.53613 320.33664 280.81262 308.21823
000040 6f 92 27 44 fd 3d c7 43 5a 85 73 44 d0 44 2a 44
       670.288 398.48428 974.0836 681.0752

model.6.weight f4 [20, 20, 3, 3]
000000 af 36 19 3f 2e 9b 95 bf d6 54 dc bf c1 3c 30 3f
       0.59849066 -1.1687982 -1.721339 0.68842703
000010 ae fe c7 bf 50 f1 c1 bf c1 75 f7 be 71 35 e8 bf
       -1.5624597 -1.5151768 -0.48332027 -1.8141309
000020 33 9d c1 bf c0 5f 8b be 80 47 50 3f ac 7f dc be
       -1.5126098 -0.2722149 0.813591 -0.43066156
000030 44 0a 1c 3f 75 07 0f bf 97 c7 57 bf e7 2a 58 be
       0.60953164 -0.55870754 -0.84288925 -0.21110116
000040 2c 46 01 c0 e1 a4 81 bf 35 8b 6b 3e 1a 51 01 3f
       -2.019908 -1.0128442 0.23002322 0.50514376
000050 25 be 89 be 2a b2 b8 3e 6f 5e 85 be cb 6b 99 bd
       -0.2690288 0.36073428 -0.2604861 -0.07491263
000060 82 ba e6 3e 0d 66 b8 be 5f fa 5a bf f3 b4 ea 3e
       0.4506417 -0.3601536 -0.85538286 0.45841178
000070 94 d9 d5 bd 87 da 3c 3f d8 15 fe be 71 61 72 be
       -0.1044189 0.73770946 -0.4962604 -0.23669983
000080 b5 07 b7 3d cc 06 cf be 57 88 81 bf 92 4b 6c bf
       0.08937017 -0.40434873 -1.0119733 -0.9230281
000090 7d 1f 39 3f 11 08 93 be 8e 58 0d c0 e3 f1 7a bf
       0.7231367 -0.28717092 -2.20853 -0.9802534
0000a0 74 b3 e7 bf c5 45 c9 bf e5 1d 97 bf 47 45 ab bf
       -1.810164 -1.5724417 -1.1805998 -1.3380517
0000b0 ac 52 9c be b6 b3 4c 3e 31 96 9f 3f 5a d2 84 3f
       -0.30531824 0.1999043 1.246771 1.0376694
0000c0 56 a6 1b bf 8d 1f 55 3f 10 ee 92 bf 2a 99 ab 3d
       -0.60800683 0.8325127 -1.1478901 0.08378823
0000d0 58 d2 54 3f 00 1a 2d c0 06 09 04 bf 72 6b 3f bf
       0.8313346 -2.704712 -0.5157627 -0.74773324
0000e0 a6 f5 2c 3f 82 02 a4 3e dd 6b 2a be ac 82 13 3f
       0.6756233 0.32033163 -0.16642709 0.57621264
0000f0 e2 68 2e bf bf e5 b2 bf f2 de 82 bf f7 49 84 bd
       -0.6812879 -1.3976363 -1.0224288 -0.0645942
000100 a0 32 9b bf 0c 27 11 40 64 49 4e 3e 64 2b 5d 3f
       -1.2124825 2.2680082 0.20145184 0.86394334
000110 87 34 8c 3f 3c 8d 34 40 87 d2 12 40 25 49 95 3e
       1.095353 2.8211203 2.2940996 0.29157367
000120 21 b8 be bf 55 b7 c8 be 35 83 c6 be 01 cb 43 3e
       -1.4899942 -0.3920237 -0.38771978 0.19120409
000130 8b 09 44 bf b2 fd 14 3e 7a 56 f2 bf 23 12 a4 be
       -0.7657706 0.14549902 -1.893264 -0.32045087
000140 4c 82 c9 bf 66 e7 3c c0 97 f7 dd bf 12 27 45 3f
       -1.5742888 -2.9516234 -1.7341183 0.7701274
000150 9b ca b4 be cc 39 a4 bf e6 84 05 bf 4c 36 98 3e
       -0.35310826 -1.2830138 -0.5215591 0.29728925
000160 a2 e0 05 3e 1c 41 72 bb 4b 1a c2 3f b7 f5 c6 bf
       0.13073972 -0.0036965078 1.5164274 -1.5543736
000170 34 28 32 be 4b 89 02 40 a1 7d 46 bf 7c 12 5c 3f
       -0.17398149 2.0396297 -0.77535444 0.85965705
000180 28 33 d7 3f e3 d9 ef be f2 4a 77 3f fb cf ab 3f
       1.6812487 -0.46845922 0.9659873 1.3422846
000190 a0 40 de bf fb 08 f6 bf 08 c2 da 3f 8e b1 3e bf
       -1.7363472 -1.9221491 1.7090464 -0.74489677
0001a0 b8 4c 68 bf 03 79 3a 40 65 0d 92 3d 64 02 f4 3e
       -0.90742064 2.913636 0.07131461 0.47658074
0001b0 a0 43 53 3f e7 ea f3 3e 21 e0 23 40 8f e2 d3 3f
       0.8252506 0.47640154 2.5605547 1.6553515
0001c0 79 49 5f 40 d6 5e 10 40 18 de 78 40 2f 4a 9f 40
       3.4888594 2.2557883 3.8885555 4.9778056
0001d0 94 ef 8c 3f 0f a9 80 3e 5e 19 bb 3e 05 42 ff 3f
       1.1010613 0.2512898 0.3654279 1.9942023
0001e0 34 3e 90 3f 0c 3c cf 3f 60 5d 0c 40 db bb 3e 40
       1.1268983 1.61902 2.1931992 2.9802158
0001f0 d5 42 f3 3f 4b bd b5 3f aa 86 1a bf ad 4a be bf
       1.900477 1.4198393 -0.6036173 -1.4866539
000200 f0 f5 f5 3f f3 3c a5 bf 4c db dc 3e ac ae e5 3f
       1.9215679 -1.2909225 0.4313606 1.7943931
000210 6b fe 4d 3f bb 57 ff 3f ea 6e 13 3f 27 8a 05 bf
       0.80466336 1.9948648 0.57591116 -0.5216393
000220 d1 62 6f bf 88 31 00 3d 43 2f f8 3d c7 9b 87 3f
       -0.93510157 0.031297237 0.121183895 1.0594414
000230 d1 7c ae 3f c1 7e 07 bf 9e 93 db 3f 0b 1c 28 40
       1.3631841 -0.52927786 1.7154424 2.6267116
000240 69 64 ed 3f 9b 99 05 bd b0 09 27 3e 70 e3 01 40
       1.8546268 -0.032617193 0.16312289 2.0295067
000250 ec 4b 49 3f 30 ac ae 3e 61 c0 49 3f f8 8b 40 3f
       0.7863147 0.34115744 0.7880917 0.75213575
000260 a9 f3 fa 3e fb 72 4e bf ca 69 81 bf d8 29 4d bd
       0.49014023 -0.80644196 -1.0110409 -0.050088733
000270 6e fa b6 bf eb 73 d4 bf 6c 5c 96 be ae 3e 65 be
       -1.4295175 -1.6597875 -0.29367387 -0.22387192
000280 d3 c0 0f c0 68 97 1a bf c3 42 62 3f 15 90 3a bf
       -2.246144 -0.6038728 0.8838312 -0.728761
000290 c1 10 df 3f 5e c4 96 3f af 2e bf 3f d6 17 a4 3f
       1.7426988 1.1778677 1.4936122 1.2819774
0002a0 53 10 33 40 49 5a 5e 40 b7 2c 0d 3f 49 f8 ef 3e
       2.7978714 3.4742606 0.55146354 0.46869114
0002b0 71 bb bc be d7 83 f8 3e e5 97 a1 bf b4 42 a3 bf
       -0.36861756 0.48538086 -1.262448 -1.2754731
0002c0 03 35 fa 3d 11 b9 60 bf 06 22 b1 be 4b 5b eb 3e
       0.122171424 -0.8778239 -0.3459627 0.45968089
0002d0 4b f2 82 bf 40 d2 c1 3f 3b d0 b3 3f af 6f ec bf
       -1.0230192 1.5142288 1.4047922 -1.8471583
0002e0 c5 bd b4 bd a7 0d f9 be 54 2a d5 3e f3 1e 8f 3e
       -0.08825258 -0.48643228 0.41633856 0.279533
0002f0 12 37 01 bf 79 52 93 be 5f 96 e7 bf 80 b1 14 3f
       -0.50474656 -0.2877386 -1.8092765 0.58083344
000300 3d 0a f3 be cb 68 41 be 68 fa 32 3f 7b 4e f0 bf
       -0.4746875 -0.18887632 0.6991334 -1.877395
000310 11 71 f5 3e a6 6b 3f 40 ac e7 72 3d 49 ab bd bf
       0.47937825 2.9909453 0.05930297 -1.4817897
000320 bd bf fb 3e e8 e6 bc 3e f0 3c 7a bf 43 2d d9 bf
       0.49169722 0.36894917 -0.97749233 -1.6966938
000330 79 3d 8a 3f 85 b9 80 bf 6c 19 16 bf b2 3b c4 3e
       1.080001 -1.0056616 -0.5863254 0.38326794
000340 76 0b e3 bd 84 79 cd bf 13 83 40 3f d2 46 3a bf
       -0.110861704 -1.6052709 0.75200003 -0.72764313
000350 89 0b 05 c0 18 be 0d 3f d0 dd 1f bf 3e fa 9f be
       -2.078829 0.55368185 -0.62447834 -0.31245607
000360 d5 b2 29 c0 cb dd 01 c0 6d 65 c1 3f 73 9c 69 bf
       -2.65154 -2.0291622 1.5109078 -0.9125435
000370 c7 8d 42 3d a0 a2 09 40 ed 2e b8 3f 1c 8c 1e 40
       0.04749849 2.1505508 1.4389321 2.4773016
000380 f3 c6 a1 3f a9 32 96 bf 84 4d 3c c0 c9 c6 2d 3f
       1.263884 -1.173421 -2.9422312 0.6788145
000390 38 d3 b1 bf f3 3c 83 3e 7e 31 0c 40 b4 6e af 3e
       -1.3892584 0.25632438 2.1905208 0.34264147
0003a0 b7 0f 42 40 58 7a df 3f 99 cb 7b 3f 7f 84 e7 bf
       3.0322092 1.7459211 0.9835754 -1.808731
0003b0 13 1a 3d c0 af 18 bc bf 5d 8f b2 bf 7f 12 bd be
       -2.9547164 -1.4695033 -1.3950001 -0.36928174
0003c0 3e 5b 8f bf 93 0d dc 3e 9e 2a 04 40 10 a7 8e 3f
       -1.119972 0.42979106 2.0651011 1.1144733
0003d0 28 3b 5a bf 78 92 43 bf f3 c0 80 be 15 c2 39 bf
       -0.85246515 -0.7639537 -0.2514721 -0.7256177
0003e0 35 f2 57 3e d5 cf 95 bf bb 46 a5 be 24 89 d1 3f
       0.21088488 -1.170405 -0.32280526 1.6369977
0003f0 2c 2e 08 bf b1 9e a0 be 63 53 96 bf 9c 64 23 bc
       -0.5319545 -0.31371072 -1.1744198 -0.009972718

model.6.bias f4 [20]
000000 62 42 50 bf 82 0a 13 bf ad eb df 3e 2d 3e 3e be
       -0.8135129 -0.5743791 0.43734494 -0.18578406
000010 72 ac b8 3e 35 b8 24 bf 46 c8 5d be e8 f3 09 bf
       0.36069065 -0.6434358 -0.2165843 -0.53887796
000020 78 83 18 bf c3 e2 05 3d 87 a7 27 3f 94 d9 1f 3f
       -0.59575605 0.03268696 0.6549 0.6244137
000030 74 54 78 3e 98 d1 34 bf c2 07 d2 bd b9 0c 72 3e
       0.24250966 -0.70632315 -0.10255386 0.23637666
000040 4a 78 a1 3e 96 95 90 3e 6c a5 7b bf 13 ae 7c 3e
       0.31537086 0.28239125 -0.9829929 0.24675779

model.7.weight f4 [20]
000000 28 73 a9 3f 09 c9 33 40 34 e3 f0 3f 71 d1 fa 3f
       1.3238268 2.8091452 1.8819337 1.9595166
000010 2a 59 4c 40 85 fb d9 3f 89 3c 94 3f 5a 43 df 3f
       3.1929421 1.7029883 1.1580974 1.7442429
000020 9f 88 f2 3f 2f fd 12 40 bd c7 3c 40 c0 58 0b 40
       1.8947943 2.296703 2.949691 2.1772919
000030 01 38 be 3f 57 42 d2 3f eb 00 bf 3f 93 0c 97 3f
       1.4860841 1.6426495 1.4922155 1.1800712
000040 78 e8 ef 3f 9e f9 ad 3f 74 e9 0a 40 43 5d e2 3f
       1.8742819 1.3591802 2.1704988 1.7684711

model.7.bias f4 [20]
000000 9f 41 14 bf 38 75 7f bf 02 f2 83 be ff f0 3b 3e
       -0.5791263 -0.99788237 -0.25770575 0.18353651
000010 45 88 b3 be 38 cb 60 bf d9 0c 9d be ae 7c 37 bf
       -0.35064903 -0.8781009 -0.30673864 -0.7167462
000020 a8 7e 78 bf d5 be 51 bf 05 3f 71 3d 74 09 36 bf
       -0.9706826 -0.8193181 0.05889799 -0.71108174
000030 a6 32 f7 be be e9 18 be 6a 80 89 be 5a 24 80 bd
       -0.4828083 -0.14932916 -0.26855785 -0.062569335
000040 05 80 35 bf 9d b4 e9 be b9 e4 c0 be 87 4b c4 bf
       -0.7089847 -0.4564561 -0.37674502 -1.5335549

model.7.running_mean f4 [20]
000000 f7 4b 00 41 ea 06 45 c1 85 fd 65 c1 20 1e 55 40
       8.018546 -12.314188 -14.374394 3.3299637
000010 12 78 09 40 6f 9a 9f c0 85 55 5d 41 25 42 a1 c1
       2.1479535 -4.9876018 13.833379 -20.157297
000020 3d e0 7a c1 26 2c 16 c2 1c dd 9d c0 ed b3 7e c1
       -15.679746 -37.543114 -4.933241 -15.918927
000030 9f f5 52 c0 98 e6 18 c2 42 11 19 41 6c 2b 6f c2
       -3.2962415 -38.22519 9.566713 -59.792404
000040 d9 be df c0 10 57 25 c2 0b 8d c2 c1 d6 e8 d7 c0
       -6.992047 -41.335022 -24.318869 -6.7471724

model.7.running_var f4 [20]
000000 5d a9 a2 44 d5 a1 16 44 b7 26 8b 44 ad d0 08 45
       1301.2926 602.5286 1113.2098 2189.0422
000010 e0 b7 9e 44 e5 66 0d 44 1f d5 fe 44 0e 0d 22 44
       1269.7461 565.6077 2038.66 648.204
000020 ad c7 b9 44 3f 11 42 44 f1 7c 82 44 4c 16 0e 44
       1486.2399 776.2695 1043.9044 568.3484
000030 f4 48 76 44 28 3d 51 44 75 ce a4 44 73 a2 8e 44
       985.1399 836.95557 1318.4518 1141.0765
000040 f6 96 18 44 4a 6c 04 44 d5 d9 26 44 47 e6 02 44
       610.35876 529.692 667.4036 523.5981

model.10.weight f4 [40, 20, 3, 3]
000000 5b d6 7e bb 50 bc 05 3d d7 b4 34 3e 45 87 4f 3f
       -0.003888509 0.032650292 0.1764711 0.8106578
000010 f4 48 ae bf 48 a8 02 bf 1e 6c 12 3d 9a f0 1d c0
       -1.3616014 -0.51038027 0.03574764 -2.4678102
000020 01 84 7a bf 2b d1 d4 bf 0e 90 de be a2 94 36 3f
       -0.9785767 -1.6626333 -0.4346928 0.71320546
000030 d4 b5 9c bf ad 06 57 3d a2 77 be 3f 4f 18 ae bf
       -1.224299 0.0524966 1.4880259 -1.3601168
000040 17 9e 3d 3e bb 47 c3 bf 8a ad 1a c0 e1 aa f2 bf
       0.18517338 -1.5256265 -2.416842 -1.8958398
000050 6b 0f 9e be 37 6b 0c c0 36 8a f0 3e 84 3c bb 3f
       -0.30871138 -2.1940439 0.46980447 1.4627843
000060 55 c3 11 c0 92 91 da 3f ef 69 7b 3f 1a 97 21 bf
       -2.2775471 1.7075675 0.98208517 -0.6312119
000070 f5 de 63 3f c8 af 74 bf 69 e8 40 3d 89 3a 6e 3d
       0.8901208 -0.9558072 0.047096644 0.058161292
000080 5e 3b b6 bf 16 5e 35 bf 44 ce 26 c0 d2 e3 a9 bf
       -1.4236867 -0.7084669 -2.6063395 -1.327265
000090 b2 6b 36 c0 c5 d7 01 c0 0c c7 ae be c4 a3 9d be
       -2.8503232 -2.0287945 -0.34136236 -0.30789006
0000a0 91 1a a1 bd 4a 0a 9b bd 4d 3c f9 3f 66 92 47 3f
       -0.07866395 -0.07570322 1.9471527 0.7795776
0000b0 81 e5 59 be b8 9b b3 bf 7f d0 08 c0 d4 38 b5 bf
       -0.21278955 -1.4031897 -2.1377256 -1.4157968
0000c0 18 3b 0c 40 2f 28 07 40 21 5d 89 bf 59 7c 0e 40
       2.1911068 2.1118276 -1.0731546 2.2263396
0000d0 a1 c3 86 3d fa 88 24 be 54 53 50 be f3 f4 02 3f
       0.06580282 -0.16067877 -0.20344287 0.5115501
0000e0 19 e0 36 bf 87 31 3a 3f 78 b1 49 bf 8b 85 63 bf
       -0.71435696 0.7273182 -0.7878642 -0.88875645
0000f0 89 74 32 3c 31 10 2a c0 e8 be 3d bf b5 64 09 3f
       0.010892042 -2.6572382 -0.74119425 0.5366929
000100 b3 34 b9 bf 58 9e 77 bf 82 88 e1 3f d1 34 bf be
       -1.4469208 -0.9672599 1.7619784 -0.37344983
000110 0e 03 6e bd 86 56 00 be d5 cd 12 bf 85 9b 8d bf
       -0.058108382 -0.12533006 -0.57345325 -1.1063086
000120 b6 eb 49 bf a2 6c b1 3f 6b 5a 13 40 81 81 fd be
       -0.7887529 1.3861277 2.3023937 -0.49512866
000130 68 21 5e 3f 4e d7 1d bf 38 49 06 40 f7 6b 75 3f
       0.86769724 -0.61656654 2.098219 0.95867866
000140 12 0e 30 c0 32 d0 b9 bf f2 d9 1b 3f 13 0a 18 3e
       -2.7508588 -1.4516661 0.60879433 0.14847593
000150 be 8f 9b bd 3e 9a f8 3e 80 f5 6c bf 52 80 9b 3d
       -0.07595776 0.48555177 -0.92562103 0.075928345
000160 e0 72 1d 3d 0b cb 24 c0 cd 13 5f c0 8b 13 e7 bf
       0.03843963 -2.5748928 -3.4855835 -1.8052839
000170 32 88 8d bf 1d c2 cf bf e9 37 f8 3f 41 6c 13 3e
       -1.1057189 -1.6231114 1.9392062 0.14396764
000180 70 93 cd bf 14 e7 6e 3f 86 cb e3 3e cb c6 4f c0
       -1.6060619 0.9332135 0.44491214 -3.2465084
000190 fa 8f a7 3f 47 5f c8 bf 39 7a 86 3f 96 8c 5a 40
       1.3090813 -1.5654076 1.0506049 3.4148307
0001a0 7a 8a 04 c0 ab 49 19 3f c2 11 0a 3f 2f a0 12 3e
       -2.070952 0.59878033 0.53933346 0.14318918
0001b0 c2 a3 34 3d b8 55 51 3f 9d 85 cb 3f 5d 7c ce be
       0.044101484 0.8177142 1.590015 -0.40329257
0001c0 b3 41 ab 3e 48 a7 cd 3f 19 2b 6f be 86 c7 89 3e
       0.33448562 1.6066675 -0.23356284 0.26910037
0001d0 7f 51 b7 3f 4f 50 9b 3f a1 b9 85 bf a4 df 83 3e
       1.4321746 1.2133883 -1.0447274 0.25756562
0001e0 bd a8 d3 3f 87 09 66 be dd 1f 08 3f fd 6e bf 3f
       1.653587 -0.22464572 0.5317362 1.4955746
0001f0 15 b5 18 bf 85 d9 7a bf 54 52 15 3f 3a 91 a2 3f
       -0.5965131 -0.9798816 0.5832875 1.270057
000200 f9 2a 71 be 28 9b 1e 3e 30 23 ad 3e 3b bd c9 3e
       -0.23551549 0.15488875 0.33815908 0.39402184
000210 70 c1 ca bf f6 af da bf 88 23 f0 3f 41 b5 1c c0
       -1.5840282 -1.7084949 1.8760843 -2.4485629
000220 1e b4 b6 bf e9 b3 5c be c9 98 c6 bf 67 f8 b9 3f
       -1.4273717 -0.21553005 -1.5515376 1.4528931
000230 37 00 d5 3f 23 01 94 3e c8 7b 16 40 80 67 0e 3f
       1.664069 0.28907117 2.351305 0.5562668
000240 45 14 7d bf 6f 26 f0 3f 85 78 43 bf e8 3a 50 3f
       -0.98859054 1.8761729 -0.76355773 0.81339884
000250 e8 d3 a7 3f c5 23 e1 bf cd 58 64 bf 7d f9 dc bf
       1.3111544 -1.7589041 -0.89198 -1.7263638
000260 f8 f5 cb bd ed e1 75 c0 51 0c 96 3f fc ad 23 bf
       -0.09959024 -3.8419144 1.1722509 -0.63937354
000270 a1 1c 33 3e a8 11 46 40 ce be 86 3f 9e 6e 55 3e
       0.1749139 3.0948277 1.0526979 0.20842978
000280 c4 0e ed bf 98 61 a9 bf d0 15 b2 bf 70 43 13 3f
       -1.8520131 -1.3232908 -1.3912907 0.57524776
000290 ed 00 fe bf f5 86 0d 40 d2 14 34 40 a0 e0 07 c0
       -1.9844033 2.2113621 2.8137708 -2.123085
0002a0 b9 73 b1 be fb 23 5f bf 1f dd 47 3f 54 61 d0 bf
       -0.34658602 -0.87164277 0.7807178 -1.6279702
0002b0 89 cc 3b c0 87 1a e2 bf f8 c6 f8 bc bd 24 32 3f
       -2.9343588 -1.7664346 -0.030368313 0.6958731
0002c0 fc be a7 3f ae a6 79 3f d1 1f c8 be 68 97 70 3f
       1.3105159 0.9751996 -0.39086774 0.9398103
0002d0 3c e3 9a bf bf 80 4e 3f 93 d8 98 3f 25 95 83 bf
       -1.2100596 0.806652 1.1941093 -1.027989
0002e0 69 47 ab be be e4 ca be 04 48 5a bf a0 e1 6a bf
       -0.3345292 -0.3962764 -0.8526614 -0.91750526
0002f0 15 0a 8f bf a6 46 cf bf 52 0c 83 bf 46 e2 0a c0
       -1.1174952 -1.6193435 -1.0238135 -2.1700606
000300 a5 97 87 c0 a8 b4 bc bf c2 b1 d3 bf a7 c5 1f c0
       -4.2372613 -1.4742632 -1.6538622 -2.4964387
000310 9c ee ae bf 47 c8 0a 3e dd 99 cd 3d cc 6b 83 bf
       -1.3666568 0.13552962 0.10039113 -1.0267272
000320 c2 fb 31 bf 84 9d d9 bd 5b a3 7d bf cb 65 a6 be
       -0.69524777 -0.10625747 -0.99077386 -0.32499537
000330 46 38 66 be 16 12 ac bf 85 f2 43 3f d6 dc 8a bf
       -0.22482404 -1.3443019 0.7654193 -1.0848644
000340 85 a9 a5 3f 23 4d ec 3f 1c 5b 90 bf 3b 41 0d be
       1.2942358 1.846104 -1.1277804 -0.13794415
000350 ad 35 0b 3e e8 1c 24 bf 78 24 8f bd 3d 12 0f bf
       0.13594694 -0.6410661 -0.06989378 -0.55887204
000360 01 3f b7 3f 68 c4 b3 3f b0 6d 11 3f f7 e1 62 3d
       1.4316102 1.4044313 0.56807995 0.055391278
000370 f5 89 bb 3f d5 ba b2 bf 94 79 cb bf 82 e0 21 40
       1.4651476 -1.3963267 -1.5896478 2.5293279
000380 0c 65 b6 bf eb 74 b7 bf 02 b0 ef be f2 ae d0 3e
       -1.4249587 -1.4332556 -0.4681397 0.40758473
000390 59 ff 27 c0 80 01 c8 bf 45 02 8e bf 72 e2 3d c0
       -2.6249602 -1.5625458 -1.1094443 -2.9669461
0003a0 e0 a2 2a bf 42 14 24 be 45 76 8d bf 33 57 7a 3f
       -0.6665478 -0.16023353 -1.1051718 0.97789305
0003b0 6c 6c 96 3f 25 78 9a bf d8 9f 22 bf 68 f3 e6 be
       1.1751838 -1.2067915 -0.6352515 -0.4510758
0003c0 18 31 15 bf 33 a8 44 bf 58 f0 c7 bf c0 89 8e bc
       -0.58278036 -0.7681915 -1.5620222 -0.017399669
0003d0 f4 e5 66 bf 46 87 c7 bf 2b 65 07 c0 fa eb 12 c0
       -0.9019463 -1.5588157 -2.1155498 -2.2956529
0003e0 e1 c4 03 c0 9e 72 8a bf dd 55 57 bf 7d 65 9b bf
       -2.0588915 -1.0816228 -0.8411539 -1.2140347
0003f0 46 10 50 c0 14 58 3e be d8 dc db 3f df c6 66 c0
       -3.2509933 -0.18588287 1.7176771 -3.6058881

model.10.bias f4 [40]
000000 6c 6a c3 bc e2 16 f1 3c 3f 15 09 bd 16 17 05 bd
       -0.023854457 0.029429857 -0.033467527 -0.03249272
000010 fe d3 af 3d a7 25 9d bd 47 78 88 bd 59 86 25 3c
       0.08585356 -0.07673197 -0.06663566 0.010102832
000020 be bc a1 bd da d0 c5 3d 82 13 8a 3e 21 41 3f 3e
       -0.07897328 0.09658976 0.26968008 0.18677188
000030 5c 46 0e bd a1 7f ea bd 35 b4 42 bd 7e d1 04 3f
       -0.03473507 -0.114501245 -0.04753514 0.5188216
000040 cc 98 61 3a 56 97 f8 bd 10 be 38 3b 89 f1 a6 bd
       0.00086058374 -0.1213824 0.0028189458 -0.08151538
000050 2c e4 22 be 0c 71 0c 3c 07 f5 66 bd f4 75 f1 bb
       -0.15907353 0.008571874 -0.05638602 -0.0073687974
000060 79 a6 eb bb 19 dc 24 3e e6 22 cf bc 95 13 1e be
       -0.007191476 0.16099586 -0.025285196 -0.15437157
000070 cb 93 07 3e cf 2c de 3c c1 e0 b2 bd 21 f8 81 3d
       0.13239972 0.027120976 -0.08734275 0.06346155
000080 31 91 2b 3e af b3 7c 3c a2 a0 48 3b 21 cd 5d 3d
       0.16754605 0.015423699 0.0030613323 0.054150704
000090 be 85 4a 3d 6c 11 c2 bd bc 57 e2 3d 9e 8f 04 3e
       0.049443953 -0.09475979 0.1105189 0.1294541

model.11.weight f4 [40]
000000 39 8a 18 40 78 21 ef 3f 09 71 0e 40 2b 3a ef 3f
       2.3834364 1.8682089 2.225649 1.8689626
000010 8d 68 03 40 6c ac 70 3f e7 93 58 3f 08 24 a1 3f
       2.0532563 0.94013095 0.8460068 1.2589121
000020 ec 76 12 40 6b d1 0a 40 2a 24 0c 40 14 ec 00 40
       2.2885084 2.1690319 2.1897073 2.014409
000030 10 70 c4 3f cc 30 ba 3f a5 a5 07 40 aa e5 33 40
       1.5346699 1.4546142 2.1194851 2.8108926
000040 3b 7a 0a 40 22 13 a1 3f 59 dd 5a 3f 9c 6e 12 40
       2.1637104 1.2583964 0.85494 2.288001
000050 c4 ef bc 3f 20 71 77 3f 56 70 0f 40 d4 d8 1f 40
       1.4760671 0.9665699 2.2412314 2.4976091
000060 12 71 ea 3f 63 11 e8 3f 3a f4 19 40 64 15 fa 3f
       1.8315756 1.8130306 2.4055314 1.9537778
000070 60 cf 00 40 5d 31 04 40 3f 54 d3 3f 35 48 13 40
       2.0126572 2.065513 1.6510085 2.3012822
000080 54 e7 11 40 bd 26 34 40 55 ff 3a 40 7e 50 c6 3f
       2.2797441 2.8148644 2.9218342 1.5493314
000090 4d 63 e4 3f 6a 87 06 40 c3 db dc 3f 3a 4c 12 40
       1.7842804 2.102015 1.7254566 2.2859025

model.11.bias f4 [40]
000000 75 46 f3 bd 78 17 85 be 27 cc 24 bf 8a f7 ab be
       -0.11878673 -0.25994468 -0.6437401 -0.33587295
000010 d6 3c 26 bf 00 a3 d7 3e 5e 32 99 bf 2c 2c 0f bf
       -0.6493658 0.42116547 -1.1968496 -0.55926776
000020 22 c0 a3 be fb f9 40 be 1c 42 be be 01 56 58 be
       -0.31982523 -0.1884536 -0.37159812 -0.21126558
000030 4c b4 8b bf d5 d5 2b bf 60 61 ac be 8f 8b 68 bf
       -1.0914397 -0.67123157 -0.3366804 -0.9083795
000040 4c 1d 37 bf 03 72 06 bf 21 17 98 bf f8 6a 55 bf
       -0.7152908 -0.5251772 -1.1882058 -0.83366346
000050 25 9b 55 bf 14 15 0c bf 25 29 fa be 9b ec b6 bf
       -0.83439857 -0.5471966 -0.48859516 -1.4290956
000060 c9 84 a9 bf f5 3b bd bf 83 a9 e0 bf 03 17 32 bf
       -1.3243648 -1.4783922 -1.7551731 -0.69566363
000070 7b 60 93 be 84 15 d2 bf ab 67 03 bf d6 c0 01 be
       -0.28784546 -1.6412816 -0.5133006 -0.12671217
000080 83 9a 52 3e 6f 34 9a bf d6 8a d1 bf f0 a5 f8 be
       0.20566754 -1.2047251 -1.6370494 -0.485641
000090 54 50 41 bf cf 87 6d bf ce 21 72 3e cd 83 8b bf
       -0.75513196 -0.9278535 0.23645708 -1.0899597

model.11.running_mean f4 [40]
000000 85 47 0c c2 0f ad a3 c2 b0 df 54 c2 b8 ad 94 c1
       -35.069843 -81.838005 -53.218445 -18.584824
000010 9f 3c 27 c2 9a 93 d3 c1 df 9a 1a 42 0a 1b 60 c0
       -41.8092 -26.447071 38.65124 -3.5016503
000020 bf 55 79 c2 a2 85 5f 41 92 34 6d c1 d2 8c 31 c2
       -62.333736 13.970125 -14.825335 -44.38752
000030 77 b9 20 c2 d2 e5 09 c2 04 dd 49 c2 bb 5b bf bf
       -40.181118 -34.474434 -50.465836 -1.4949869
000040 5c 45 19 c2 25 48 1a c2 52 a0 54 c2 5b d2 69 c2
       -38.317734 -38.570454 -53.156563 -58.455425
000050 c4 fa b6 c1 da 59 bc c1 64 4d ff c1 a6 3e e7 c1
       -22.872444 -23.543873 -31.912788 -28.90559
000060 c3 af f8 c1 9d 51 87 41 41 e7 80 c2 f0 8d d7 c1
       -31.085821 16.91485 -64.45167 -26.944305
000070 5c 75 61 c2 ed d2 56 41 d3 01 78 c2 88 51 1e c2
       -56.36461 13.426496 -62.00178 -39.57962
000080 15 62 03 c2 2e ab 08 c2 15 73 99 c2 f7 a1 4b c1
       -32.845783 -34.167168 -76.72477 -12.727042
000090 f6 0b 4e c2 75 ae c4 c1 76 00 0d c2 3e 4a d6 c1
       -51.51168 -24.585184 -35.25045 -26.786251

model.11.running_var f4 [40]
000000 53 10 f4 44 07 f3 9c 45 84 ca c1 44 39 4c bd 44
       1952.5101 5022.3784 1550.3286 1514.382
000010 20 3c cd 44 b4 e9 27 45 8a 4d a9 44 62 93 21 45
       1641.8789 2686.6064 1354.4231 2585.2114
000020 e8 6a 2e 45 71 d5 dd 44 17 e3 f6 44 93 6a 61 45
       2790.6816 1774.67 1975.0966 3606.661
000030 a6 f9 4c 45 36 96 82 45 4f e1 f2 44 12 a3 f1 44
       3279.603 4178.7764 1943.0409 1933.096
000040 eb 7a 12 45 35 69 dd 44 d4 d7 5c 45 09 c4 d5 44
       2343.6824 1771.2877 3533.4893 1710.1261
000050 e2 b9 31 45 63 c2 3f 45 ac 60 ba 44 5b 3a 1d 45
       2843.6177 3068.1492 1491.021 2515.6472
000060 49 94 34 45 46 5f d2 44 07 82 1e 45 6f 3e 1b 45
       2889.2678 1682.9773 2536.1267 2483.902
000070 09 95 a4 45 e8 ae 01 45 07 05 76 45 87 08 1b 45
       5266.6294 2074.9316 3936.3142 2480.533
000080 48 86 f1 44 81 e0 b3 44 b9 e0 71 45 2e 1a 21 45
       1932.1963 1439.0157 3870.0452 2577.6362
000090 70 3a 21 45 7f fa 74 45 7a 61 0f 45 f9 f1 01 45
       2579.6523 3919.656 2294.0923 2079.1233

model.13.weight f4 [40, 40, 3, 3]
000000 bd 1a f2 3d 59 76 ab bf 01 12 1f 40 6b 10 3b 3f
       0.11821506 -1.3395492 2.4854739 0.73071927
000010 00 4d 02 40 7f 76 c5 be 07 65 86 3f a7 59 5f 3f
       2.0359497 -0.38566968 1.0499581 0.87246174
000020 e0 88 64 bf e3 24 0b c0 a9 ab 54 bf 22 25 cf be
       -0.89271355 -2.1741264 -0.8307443 -0.40458018
000030 9b b3 ef bf a6 86 19 be 6a 91 85 bf 64 0f 46 bf
       -1.8726686 -0.1499277 -1.0435002 -0.77367234
000040 ba 39 2d 3e 1f e6 00 c0 fb 31 31 bf a5 c1 0e 40
       0.16916552 -2.0140455 -0.6921689 2.2305691
000050 18 f6 ec 3e 33 00 5c bf 28 70 a7 be e5 3e 91 bf
       0.46281505 -0.85937804 -0.32702756 -1.1347319
000060 27 4a cf bf c2 28 f7 bf b7 a1 89 c0 7b 0e 0e 40
       -1.6194504 -1.9309313 -4.3009906 2.2196338
000070 7f 0b e1 be de a1 05 3f ec b5 d5 3f 09 4a 7f 3e
       -0.43954083 0.52200115 1.6696143 0.24930586
000080 29 40 88 be 56 72 36 3f 70 37 75 3f 95 1b d0 bf
       -0.2661145 0.7126821 0.95787716 -1.6258417
000090 25 c0 57 3e ba 74 12 3f 96 76 75 3e 4f a1 be 3c
       0.21069391 0.5720936 0.23971018 0.023270277
0000a0 b2 95 29 be 69 12 9f bf d8 1d 60 bf f4 56 f3 bf
       -0.1656101 -1.2427493 -0.8754554 -1.9010911
0000b0 66 01 24 c0 52 68 23 40 57 03 df 3e 90 cb 53 bc
       -2.5625854 2.5532422 0.43557236 -0.012926951
0000c0 79 d2 ee 3f 6d 29 31 3f ab 20 cf bd a6 70 a6 3f
       1.8657981 0.69203836 -0.10113653 1.3003128
0000d0 44 3c 0b 3f c3 8a e7 be 7d 37 74 bf cd 88 18 c0
       0.54388833 -0.45223054 -0.9539717 -2.3833497
0000e0 54 30 f6 bf bc 50 fb 3f 98 91 05 bf c1 49 2d 3e
       -1.9233499 1.9634013 -0.52175283 0.16922666
0000f0 e7 7c 8e 3e 89 72 86 3f f6 63 16 bf 61 d0 4f bf
       0.27829668 1.0503703 -0.5874628 -0.81177336
000100 3a d9 38 c0 f5 06 d9 3e ca 64 f2 3e a0 69 cb bf
       -2.8882585 0.4238812 0.4734252 -1.5891609
000110 8d ba 9d be 84 ca c4 3f 05 96 ae 3d 09 44 11 40
       -0.3080639 1.5374303 0.08524708 2.2697775
000120 f5 85 07 bf 56 dd ec 3f 1d 37 1b 40 07 e8 4f bf
       -0.5293878 1.8505046 2.4252388 -0.8121342
000130 20 9a 48 be 1d 14 0d 40 68 95 df bf d2 da 5d bf
       -0.19590044 2.2043526 -1.746747 -0.8666202
000140 82 bf bf be cd 5c b0 bf 40 03 38 c0 ac 86 e1 be
       -0.37450796 -1.377832 -2.8751984 -0.4404806
000150 d7 04 54 3f 12 2a 80 bf 5d 1b b7 bf d4 b4 83 3f
       0.82819885 -1.0012839 -1.4305226 1.0289559
000160 04 59 c2 3e 0a b3 86 be 05 ed df 3e 3c 27 f7 be
       0.3795854 -0.2630847 0.4373552 -0.4827212
000170 20 d6 1a c0 a7 16 99 3e db c1 aa be 23 04 0e be
       -2.4193192 0.29900095 -0.33351025 -0.13868766
000180 f8 90 b0 3f 22 92 82 3e 49 8d 07 bf b8 36 73 bf
       1.3794241 0.25502115 -0.5294996 -0.9500537
000190 8d 02 d9 3e 68 39 1e c0 ae 4f 4b bf b0 c2 24 bf
       0.4238476 -2.4722538 -0.79418457 -0.6435957
0001a0 6e d8 27 c0 3b 07 85 3e b2 ac b4 be b5 48 8c bf
       -2.6225848 0.2598208 -0.35288006 -1.0959688
0001b0 d8 ce 55 3d f0 a5 06 3f d3 69 a0 be 91 1c b7 be
       0.052199215 0.5259695 -0.31330737 -0.35763982
0001c0 5a 51 31 3f b0 19 a4 3e 8b a9 e4 3d 44 65 6a 3f
       0.6926476 0.32050848 0.1116515 0.9156077
0001d0 34 0c 99 bd 18 95 79 bf b8 e0 39 c0 4b f2 f1 bf
       -0.07473031 -0.97493124 -2.9043407 -1.8902067
0001e0 40 f2 2a 3e 1f 8e c1 bf 5a 55 87 bf e2 37 b4 3f
       0.16693974 -1.5121497 -1.0572922 1.4079554
0001f0 e8 1f f1 be ed 0e 80 bf 42 79 cc be fb 82 9a 3f
       -0.47094655 -1.0004555 -0.39936262 1.2071222
000200 99 4a 24 40 34 93 9a 3e 88 c4 df 3f b3 50 d2 3f
       2.567053 0.30190432 1.7481852 1.6430877
000210 e7 90 3e be 94 c0 76 3f 64 cd 9a bf a3 39 55 c0
       -0.18609963 0.963876 -1.209393 -3.3316429
000220 02 03 c2 be 6d e6 1f 40 d4 58 5d bf 76 39 e7 bf
       -0.3789292 2.498439 -0.86463666 -1.8064411
000230 5f ee 48 3f 1b ac 54 3f cc bc 32 bf a7 93 6f be
       0.78488725 0.8307511 -0.6981933 -0.23396169
000240 91 a9 95 3e 05 fc d5 bf db 13 9b 3e 48 61 2d 3f
       0.2923093 -1.6717535 0.30288586 0.67726564
000250 0a df d4 be 6f ff 63 bf cd 10 8d bf e0 82 84 bf
       -0.41576415 -0.89061636 -1.1020752 -1.035244
000260 fc 58 c6 bf 88 2e 41 c0 31 3d a5 3e 65 78 18 40
       -1.5495906 -3.018465 0.32273248 2.3823483
000270 f9 1d de bf c9 8b 4e 3f c5 5e af be f6 89 14 bf
       -1.7352897 0.80682045 -0.3425199 -0.5802301
000280 87 af e6 be 4e 65 1a c0 68 5d 0b 40 73 bb 5d 3f
       -0.45055792 -2.4124331 2.177576 0.8661415
000290 24 ea 5c 3f 53 b0 cb 3f fd 29 b0 3d 24 c9 38 3e
       0.8629477 1.5913185 0.08601759 0.18045479
0002a0 99 10 c4 3f d0 c1 bd 3e 22 a8 b9 bf 1e 82 ee bf
       1.5317565 0.3706193 -1.4504435 -1.8633459
0002b0 79 c7 59 3f 71 65 ab be ea 2d 10 c0 70 de 5f 3f
       0.85069996 -0.3347583 -2.2528024 0.8744879
0002c0 6c 4e 96 3f 03 d7 b4 be f8 e6 f6 bf 9b ef 89 bf
       1.1742682 -0.3532029 -1.9289236 -1.0776247
0002d0 fa 91 2e 3d 9a e1 46 bf 51 c4 db be 62 0a 17 bf
       0.042619683 -0.7768799 -0.42923215 -0.5900022
0002e0 df d6 26 bf 46 fc 0e bf 2f 00 76 3f 23 28 d2 bf
       -0.6517162 -0.5585369 0.9609403 -1.6418499
0002f0 26 d0 79 bf 9a 5e 2b bf 9b 38 1a c0 b3 01 39 bf
       -0.97583234 -0.66941226 -2.409705 -0.7226822
000300 b8 f7 9f be ee c1 68 bf 68 0e 5b bf 98 d4 9a 3e
       -0.31243682 -0.90920913 -0.8556886 0.3024032
000310 59 91 99 3f d6 a1 8e bf 68 af c7 3f 9b 2a d8 3f
       1.1997482 -1.1143138 1.5600405 1.6888002
000320 b6 6a c1 3e 5d 26 86 bf 8e 57 5c 3f a8 14 1f 40
       0.37776726 -1.0480458 0.860711 2.4856358
000330 88 52 8a bf 7b fa 16 3d d0 9e 78 3f 1e 47 f3 3e
       -1.0806437 0.03685997 0.9711733 0.47515196
000340 57 b7 eb bf 3f a4 f7 bf 43 de 45 be 14 f9 9d bf
       -1.8415326 -1.9346999 -0.19323067 -1.2341638
000350 0d ab a5 be 98 07 02 3f fd 11 ee be 40 b6 38 3f
       -0.32357064 0.5079284 -0.464981 0.7215309
000360 4f 24 6f be 5c 6c 1b c0 6c 58 11 bf a2 d6 84 3e
       -0.23353694 -2.4284887 -0.56775546 0.25945002
000370 da 03 2c bf bf e6 27 c0 9a ce e2 3f ad aa cc 3e
       -0.67193377 -2.6234586 1.77193 0.39973965
000380 7b 5c b7 bf fd 8e 59 bf 68 48 c7 bf 03 46 c2 bf
       -1.4325098 -0.8498381 -1.5568972 -1.5177616
000390 59 27 a9 bf 62 df cf 3e 1e e7 ad bf 0a d0 8b bf
       -1.3215133 0.40600115 -1.3586156 -1.0922863
0003a0 d6 1f 55 3f fc 38 05 be f1 84 e9 3f ca d9 d0 3f
       0.832517 -0.13010019 1.8243695 1.6316464
0003b0 70 8c 23 bd 50 20 6c 40 87 3a 8c bf 09 11 68 c0
       -0.039928854 3.6894722 -1.0955361 -3.6260397
0003c0 9c 85 46 40 f4 07 ab bf d1 01 ad bf 33 be 6b 3e
       3.1019049 -1.3361802 -1.3516179 0.23021774
0003d0 8a 0f 2a 40 31 99 24 3f e5 c7 5d bf b2 21 d9 3f
       2.6571984 0.6429625 -0.8663314 1.6963408
0003e0 d0 96 29 3e 11 86 e0 bf 77 23 09 bf 69 3f 97 bf
       0.16561437 -1.7540914 -0.5356974 -1.1816226
0003f0 07 8a 10 40 62 04 65 3e 7c 8b 0b bf 6d 44 af 3f
       2.2584245 0.22364953 -0.5450971 1.3692757

model.13.bias f4 [40]
000000 2b 99 07 3e 98 05 02 3d e4 0f 94 bd aa f3 1b be
       0.13242023 0.031743616 -0.072295934 -0.15229669
000010 2f b0 83 bd 25 1c 4d bd a6 a2 cc bd 2b 01 2b 3e
       -0.06430089 -0.05007567 -0.0999196 0.16699664
000020 e0 8a 6d 3d b2 4b f4 bd 39 75 cc 3d 1c a9 1c 3e
       0.05799377 -0.119285 0.09983296 0.15298885
000030 08 19 13 bd c6 c9 75 3e bc e4 99 3c 34 ae c0 bd
       -0.035912544 0.24002752 0.018785827 -0.094082266
000040 2c 0f 98 3e 1c 33 51 bd 5e 75 93 bd 5d 5f f7 bd
       0.29699075 -0.051074132 -0.072001204 -0.12078736
000050 20 0b f8 3d 7c e9 19 3e 41 a6 01 3e 50 2b cb bd
       0.12111497 0.15030473 0.12661077 -0.099203706
000060 68 57 38 3c 75 84 2c 3e 03 55 57 bc 24 83 bf bc
       0.011251308 0.16847403 -0.013142827 -0.023377962
000070 5d 6a e9 bc e7 80 5c bb dc e7 ce bd f3 e2 c7 bb
       -0.0284931 -0.0033646168 -0.101028174 -0.0061000525
000080 c2 4f 83 bc 95 44 9d 3e 62 67 8d bd 9e 38 6b 3e
       -0.016029242 0.30716386 -0.06904484 0.22970816
000090 9b 09 cf 39 4e 07 d5 bd 27 77 bc bd 53 d1 ce be
       0.00039489273 -0.10401784 -0.09202414 -0.40394077

model.14.weight f4 [40]
000000 6f ce 04 40 cc a8 27 40 e4 05 ad 3f fe 78 ca 3f
       2.0750997 2.6196775 1.3517423 1.5818174
000010 de 48 b8 3f 9b 4e c7 3f 24 0d 21 40 54 46 25 40
       1.4397237 1.5570863 2.516427 2.5824175
000020 6b 43 e5 3f 5a f8 fb 3f 24 00 dd 3f b8 25 dc 3f
       1.7911199 1.9685166 1.7265668 1.7199011
000030 99 57 c7 3f de 8d 2e 40 8d 44 ee 3f d8 fb c0 3f
       1.5573608 2.727409 1.861467 1.5076857
000040 00 a2 d7 3f 96 25 b1 3f 86 c5 9f 3f c9 86 a7 3f
       1.6846313 1.3839595 1.2482154 1.3088008
000050 92 ce 06 40 32 4b 13 40 b9 c4 20 40 13 31 17 40
       2.106358 2.3014646 2.512007 2.3623703
000060 e1 92 df 3f 69 6a 45 3f 04 03 b1 3f eb 95 b1 3f
       1.7466699 0.77115494 1.3829045 1.3873876
000070 90 24 00 40 3d 04 80 3e 7d 78 fc 3f ca bf f6 3f
       2.0022316 0.25003234 1.972427 1.9277279
000080 bf 78 dd 3f 8b 2d 26 40 67 48 03 40 e0 35 f2 3f
       1.7302474 2.5965297 2.051294 1.8922691
000090 91 32 97 3f 44 1c e0 3f 47 ed 0f 40 49 76 3b 40
       1.1812307 1.7508626 2.2488573 2.9290946

model.14.bias f4 [40]
000000 38 03 00 bf 14 96 85 bf 31 b9 4c 3e 8b 0e 6e bf
       -0.5000491 -1.0436425 0.1999252 -0.9299094
000010 5a ab 24 bf ac 4e 5d bf 8d 3d 41 bf 5f 22 c5 bf
       -0.6432396 -0.8644817 -0.75484544 -1.5401114
000020 1f 75 e2 bf 02 1b 7b bf ef 0a e9 be 18 dc 49 bf
       -1.7691993 -0.98088086 -0.45516154 -0.7885146
000030 51 cf e4 bf 87 64 97 bf 21 53 ac bf 67 f5 a2 bf
       -1.7875768 -1.1827554 -1.3462869 -1.2731141
000040 39 8e e2 bd d3 76 a5 bf c2 61 71 bf e0 f4 e3 be
       -0.11062283 -1.2926887 -0.9428979 -0.44522762
000050 f7 64 37 bf ab 55 59 bf 44 91 13 bf e7 34 da bf
       -0.71638435 -0.84896344 -0.5764353 -1.7047395
000060 1b 4f a4 bf 82 80 65 be e1 5a d2 bf 0d 1d bb be
       -1.2836641 -0.22412303 -1.6433984 -0.365456
000070 eb 74 84 bf 57 13 25 bf 39 74 e6 be 3d a9 b9 bf
       -1.034818 -0.64482635 -0.45010546 -1.4504772
000080 76 c7 e4 bf 07 8a b2 bf 24 f9 34 bf ba 34 34 bf
       -1.7873371 -1.3948373 -0.7069266 -0.70392954
000090 aa 22 74 bf 6f 87 7f bf 13 26 42 bd 6f 76 a3 bf
       -0.95365393 -0.9981603 -0.04739959 -1.2770518

model.14.running_mean f4 [40]
000000 b2 b5 1b c2 5b b8 5e c2 8a 21 e1 c1 cb c6 94 c2
       -38.927437 -55.680035 -28.141376 -74.38827
000010 c2 a3 a5 c2 96 bc 16 c2 23 7e b6 c1 69 26 37 c2
       -82.81984 -37.684166 -22.81159 -45.78751
000020 6b c6 03 c2 8b e4 9a c1 9e ec f4 c1 41 2d 35 c2
       -32.943768 -19.361593 -30.615536 -45.294193
000030 f7 58 9e 41 46 ea 3e c2 cc cc 50 c2 08 05 15 c2
       19.79344 -47.728783 -52.199997 -37.254913
000040 f4 28 3e c2 c8 99 1f c2 93 77 52 c2 36 42 fa c1
       -47.539993 -39.900177 -52.61677 -31.28233
000050 98 88 15 c2 74 c9 04 c2 c2 64 4c c2 7b 4c 71 c2
       -37.383392 -33.19673 -51.098396 -60.324688
000060 5d a2 b3 c1 fa a1 95 c1 55 da 08 c1 a8 ae 15 c2
       -22.454279 -18.70409 -8.553304 -37.420563
000070 47 d1 3b bf 13 17 84 c1 82 cc cb bb ea b8 f0 c1
       -0.73366207 -16.511267 -0.0062194476 -30.09029
000080 5d 33 0b c2 38 0e 44 c2 78 2a 89 c2 f1 aa 19 c2
       -34.80016 -49.013885 -68.58295 -38.416935
000090 15 91 c4 c1 89 0d 78 c2 4f 1b e5 c1 c7 68 0f c2
       -24.57084 -62.013218 -28.638334 -35.85232
