Assignments/02_cnn/3_resnet.pth (torch, 735185 bytes, 77 tensors)

conv1.weight f4 [16, 1, 5, 5]
0	0xbf83ac1c	-1.0286899
1	0xbfb51dc7	-1.4149712
2	0x3d1108b8	0.035408705
3	0x3fa922de	1.3213766
4	0x3e94bb64	0.29049218
5	0xbf436b16	-0.76335275
6	0x3e1128ba	0.14175692
7	0x3e953211	0.2913976
8	0x3fcc22b9	1.5948097
9	0x3fb18806	1.3869636
10	0x3eaa6230	0.33278036
11	0x3f061eea	0.5239092
12	0x3f9cf16e	1.2261178
13	0x3ff22dd8	1.892024
14	0x3f4cdf78	0.80028486
15	0x3dd199a7	0.10234385
16	0x3f1d0715	0.6133893
17	0x3efeeb6a	0.49788982
18	0xbf0521ca	-0.52004683
19	0xbff0173a	-1.8757088
20	0x3e55e10d	0.20886631
21	0x3e963383	0.29336175
22	0xbf3bf2b0	-0.73417187
23	0xc0535022	-3.301766
24	0xc0285946	-2.6304488
25	0xbeb1b9df	-0.3471212
26	0xbe43c843	-0.19119363
27	0x3f01618f	0.5053949
28	0xbee6eb73	-0.45101508
29	0x3f7d2566	0.9888519
30	0x3f7b2e0a	0.98117125
31	0x3fbe7965	1.4880797
32	0x3e2805bd	0.16408439
33	0xbefdbe5f	-0.49559304
34	0xbf03c102	-0.5146638
35	0xbd1af02d	-0.037826706
36	0xbacade48	-0.0015477622
37	0x3d18ddc2	0.03732086
38	0xbf586a94	-0.84537625
39	0x3f3d36ca	0.73911726
40	0x3f5340b4	0.82520604
41	0xbf2f5722	-0.6849233
42	0xc03c686e	-2.943874
43	0xc034b3ea	-2.823481
44	0x3f4d90c3	0.80299014
45	0xbd28b430	-0.041187465
46	0xbf0b3a6a	-0.5438601
47	0xc0848a48	-4.14188
48	0xc09aa6ec	-4.832876
49	0x3eb9c105	0.36280075
50	0x3e3100a2	0.17285398
51	0x3f2dd6de	0.67905986
52	0x3e136631	0.14394452
53	0xbe121cc1	-0.14268781
54	0x3e857286	0.26063937
55	0x3f10bffc	0.56542945
56	0x3e5274ce	0.2055237
57	0x3eb55908	0.35419488
58	0xbed3d340	-0.41372108
59	0xbe20c070	-0.15698409
60	0x3d5cb34e	0.053881936
61	0xbf3601b1	-0.7109633
62	0xbfd794b9	-1.6842262
63	0xc046aaaf	-3.1041677
64	0xbed7574f	-0.420588
65	0x3f74a254	0.95560193
66	0xc03274b7	-2.7883737
67	0xc0932425	-4.598162
68	0xc0c7b1d0	-6.2404556
69	0xc000942b	-2.0090435
70	0xbfaba5d1	-1.3409978
71	0xbf34d4c0	-0.7063713
72	0xbfed73ea	-1.8550999
73	0xbf9a3697	-1.204791
74	0xbec21345	-0.37905326
75	0x3f35249d	0.7075899
76	0x3f612d33	0.87959594
77	0xbf6b6719	-0.9195419
78	0xbf4fe1dc	-0.8120401
79	0xbe229cfe	-0.158802
80	0x3ecb03f0	0.39651442
81	0xbea296e1	-0.31755736
82	0xbd7e3b5e	-0.062068336
83	0xbd441008	-0.04786685
84	0xbde3f76a	-0.11131175
85	0x3e02c1d0	0.12769246
86	0xbfad86a0	-1.3556709
87	0xbfb0efa3	-1.3823131
88	0xbebbc297	-0.36671898
89	0xbe571189	-0.21002783
90	0x3e27b851	0.16378905
91	0xc081d829	-4.0576367
92	0xc0c5683a	-6.168973
93	0xbfc86031	-1.5654355
94	0x3e9ff286	0.31239718
95	0xbfe34737	-1.7756108
96	0xc044e042	-3.0761876
97	0xc08e90ff	-4.4551997
98	0xbf699d64	-0.91255784
99	0xbeb30810	-0.3496709
100	0x3e1d5562	0.15364602
101	0xbe797bb5	-0.24363597
102	0x3e93ff13	0.28905544
103	0xbec097a9	-0.37615708
104	0x3e8b7d46	0.27244014
105	0x3f03733c	0.5134771
106	0xbf0fe30e	-0.5620583
107	0x3ee146f5	0.43999448
108	0xbe365d57	-0.17809044
109	0x3f134ff1	0.57543856
110	0xbedd043c	-0.43167293
111	0xbfa7568a	-1.3073285
112	0x401ec72d	2.4809067
113	0xbfa4ac29	-1.2865039
114	0x3f6d9c95	0.9281705
115	0xc0301fa4	-2.7519312
116	0x3f95edfe	1.1713254
117	0x402d823d	2.711074
118	0xbff7bd4c	-1.9354644
119	0x3f26d96b	0.65175503
120	0xbffee85c	-1.991466
121	0x3fd001b1	1.6250516
122	0x3f8c52e5	1.0962797
123	0xbf3535e3	-0.7078535
124	0xbe95a9e3	-0.29231176
125	0xbf92fac6	-1.148278
126	0xc00e9166	-2.2276244
127	0x3f7e94ab	0.994456
128	0xbf400ff7	-0.7502436
129	0x3eb5538e	0.3541531
130	0xbfdbfca2	-1.7186472
131	0xc036d832	-2.8569455
132	0x3eb0eb9b	0.34554753
133	0x3f919a36	1.1375186
134	0x4018da3a	2.3883195
135	0x3faac619	1.3341705
136	0x3fa7901e	1.3090856
137	0x3fc5f1a2	1.5464365
138	0xbd96dde7	-0.07366543
139	0xbf2bba2f	-0.6708097
140	0xbe021973	-0.1270502
141	0xbf95ad13	-1.1693443
142	0xbf4f9415	-0.8108533
143	0xbfb62afb	-1.4231867
144	0x3ed7cf99	0.42150572
145	0xbde0e7b0	-0.10981691
146	0x3f6edeba	0.93308604
147	0x3cead99b	0.028668215
148	0xbf8eb341	-1.1148454
149	0x3e89415b	0.26807675
150	0x3dce8821	0.10084558
151	0xbeeb016c	-0.45899522
152	0xbd8e0597	-0.0693466
153	0xbeb0b7c1	-0.34515193
154	0xbdff830d	-0.12476168
155	0x3f1520ff	0.58253473
156	0x3e9c943f	0.30581853
157	0xc02d5690	-2.7084084
158	0xbf9de9db	-1.2336992
159	0xbecc8b73	-0.3995014
160	0xbf198707	-0.5997166
161	0xbfee74e4	-1.8629422
162	0xc0d4a76f	-6.6454387
163	0xc0a80521	-5.250626
164	0xbf92330b	-1.1421827
165	0x3f22bc82	0.6356889
166	0x3f697276	0.9119028
167	0xbf301493	-0.68781394
168	0xbe83e20d	-0.257584
169	0x3f2d8a16	0.6778883
170	0xbf8312b8	-1.0240088
171	0x3e3652cf	0.17805026
172	0xbdde6510	-0.1085912
173	0x3f3b431b	0.7314927
174	0x3f20a461	0.6275082
175	0x3f8585f0	1.04315
176	0x3e636559	0.2220663
177	0xbbaa3ed3	-0.0051954775
178	0x3fcf90fb	1.621612
179	0x3f074f0a	0.5285498
180	0xbff61bf2	-1.9227278
181	0xbfd0fb76	-1.632674
182	0xbf357633	-0.7088348
183	0x3ef96f3e	0.48717684
184	0x400be5c2	2.1858983
185	0x3f71d07e	0.9445876
186	0x3eff9007	0.49914572
187	0xbf2624ea	-0.64900076
188	0xbf7bada6	-0.9831184
189	0x3f9d3fe9	1.2285129
190	0x3ee8175f	0.4533033
191	0x3e028ce4	0.12749058
192	0xbf7213c6	-0.9456142
193	0xbfaf4259	-1.3692123
194	0x40043be2	2.066155
195	0xbf19022b	-0.59768933
196	0xbfb344b7	-1.4005345
197	0xc007121c	-2.1104803
198	0xbeffc61e	-0.4995584
199	0x400108b2	2.0161557
200	0xbde3987b	-0.11113068
201	0xbe7eec09	-0.24894728
202	0x3f34014c	0.7031448
203	0xbf1b0959	-0.6056114
204	0x3e32fbeb	0.17478912
205	0xbe17fab9	-0.14841737
206	0xbf8417bb	-1.0319742
207	0x40076039	2.115248
208	0xbf6bb13b	-0.9206731
209	0x3ee4a937	0.4466035
210	0x3f011d09	0.5043493
211	0xc04367d1	-3.0532115
212	0x3fcf5b16	1.6199672
213	0x3f8311f9	1.023986
214	0xbdfdafb9	-0.12387032
215	0x3f596927	0.84926075
216	0xc0513033	-3.2685668
217	0x3df1c2c7	0.11804729
218	0x3ffe25f9	1.9855338
219	0x3e5db68e	0.2165167
220	0x3f5e5485	0.86847717
221	0xbfcdcbe0	-1.6077843
222	0x3e35015a	0.17676297
223	0x3f0acf92	0.5422298
224	0x3eba2989	0.36359814
225	0xbe9550ae	-0.29163116
226	0xbe19a20d	-0.15003224
227	0x3f2e5902	0.68104565
228	0x3e978842	0.29596144
229	0xbd5e2108	-0.05423072
230	0x3e4a4534	0.19752961
231	0x3df4afe5	0.11947612
232	0x3e9972ae	0.29970306
233	0x3e08ea73	0.13370685
234	0xbd973670	-0.0738343
235	0x3ec9c3d1	0.3940721
236	0x3e20050a	0.15626922
237	0xbd87a765	-0.06623725
238	0x3e907bb0	0.28219366
239	0x3dd6281c	0.10456869
240	0xbab1e7cb	-0.0013573108
241	0xbdf66130	-0.12030256
242	0xbe9be591	-0.30448583
243	0x3ecf48cb	0.40485224
244	0x3eb6ebf0	0.3572688
245	0x3c57dcc5	0.013175194
246	0xbeaf0149	-0.34180668
247	0xbe924440	-0.28567696
248	0x3d9547c5	0.072890796
249	0x3c0d1450	0.0086108
250	0xbc181c3b	-0.009284074
251	0xbf2318a7	-0.6370949
252	0x3e92751f	0.2860498
253	0x3ef3f956	0.47651166
254	0x3f652551	0.89510065
255	0x3f587482	0.84552777

bn1.weight f4 [16]
0	0x401479cd	2.3199341
1	0x4007fc04	2.1247568
2	0x400b1ad1	2.1735117
3	0x4049c058	3.1523647
4	0x400361f7	2.0528543
5	0x3ff0c251	1.8809301
6	0x4039258c	2.8929167
7	0x3ff6155c	1.9225268
8	0x402dcccc	2.7156248
9	0x3de33853	0.11094727
10	0x3fcf1531	1.6178342
11	0x3ff54257	1.916087
12	0x40002b97	2.0026605
13	0x40198654	2.3988237
14	0x404740d8	3.1133327
15	0x403a2c6e	2.9089618

bn1.bias f4 [16]
0	0x3ec736f3	0.3890911
1	0x3e0c0a26	0.13675746
2	0xbfbd2755	-1.4777628
3	0xbfe9b076	-1.8256977
4	0x3daff35b	0.08591338
5	0x3f1f457b	0.62215394
6	0xbf6c4b00	-0.9230194
7	0x3f825bc4	1.0184255
8	0x3f419fbf	0.7563438
9	0xbf02c5f7	-0.5108332
10	0xbf37137f	-0.71514124
11	0x3f1884ea	0.5957781
12	0xbe68710e	-0.22699377
13	0xbff389e5	-1.9026457
14	0xbf8d9ead	-1.1064049
15	0x3fadea1d	1.3587071

bn1.running_mean f4 [16]
0	0xbf0ea53e	-0.5572089
1	0x40867709	4.2020307
2	0x410cb329	8.79374
3	0x4112002c	9.125042
4	0xbf06cff8	-0.52661085
5	0x3f5d98cc	0.86561275
6	0x40e7cc87	7.2437167
7	0x3e09aa08	0.13443768
8	0xbdd46a4c	-0.10371837
9	0xbf28fee9	-0.6601396
10	0xbf84fc8b	-1.038957
11	0xbed3ebd9	-0.41390875
12	0x3f8784b9	1.0587379
13	0xc0acc399	-5.3988767
14	0x40a54fd8	5.1659966
15	0xbeef1e77	-0.4670293

bn1.running_var f4 [16]
0	0x4141e616	12.118673
1	0x4292c3b8	73.38226
2	0x43676d40	231.42676
3	0x4374cd02	244.80081
4	0x41091f60	8.57016
5	0x411d1176	9.816763
6	0x430e4c98	142.2992
7	0x418cbd43	17.592413
8	0x41274919	10.455346
9	0x3fb6ac3d	1.4271313
10	0x412daa61	10.854096
11	0x413d46fa	11.829828
12	0x4166a39a	14.414942
13	0x42cebf42	103.37355
14	0x42ba0eb3	93.02871
15	0x41682923	14.510043

group1.group.0.main.0.weight f4 [16, 16, 3, 3]
0	0xbe37e331	-0.1795776
1	0x3f89b2d4	1.0757699
2	0xbfabdcc7	-1.3426751
3	0x3f7cbde5	0.98727256
4	0x3fb24e6a	1.393018
5	0xbeb8080d	-0.35943642
6	0xbf6afd2e	-0.9179257
7	0xbf131b7d	-0.5746382
8	0xbf274941	-0.6534615
9	0x3f9981dc	1.1992755
10	0x3f74323e	0.95389163
11	0x3fed5666	1.8541992
12	0x400db695	2.214269
13	0x40562df7	3.3465555
14	0x3fdb728d	1.7144333
15	0xbf382939	-0.719379
16	0x3ed21348	0.41030335
17	0x3c31b463	0.01084623
18	0xbe8561b2	-0.26051098
19	0x3f93e54b	1.155435
20	0x3fe02c33	1.7513489
21	0x402736e4	2.6127253
22	0x406be97c	3.6861258
23	0x3fc787a1	1.5588266
24	0x3fcfcd2b	1.6234487
25	0x3fbb54ad	1.4635216
26	0x3e5d0d31	0.21587063
27	0x3c800ff3	0.015632605
28	0x3f43b9ea	0.7645556
29	0x3fd932f2	1.6968672
30	0x3fc73204	1.5562139
31	0x408459df	4.1359706
32	0x40420fcf	3.0322149
33	0x3f00b5b7	0.50277275
34	0x400fbb3d	2.245803
35	0x3f5c682e	0.86096466
36	0xbda9e7a4	-0.08296135
37	0x3f8ab438	1.0836248
38	0xbeeb5010	-0.4595952
39	0x3d2ac9e9	0.041696463
40	0x3fa6d2ee	1.3033121
41	0x3fbb0b98	1.4612913
42	0xbf9cd51f	-1.2252539
43	0xbde7d003	-0.11318972
44	0x3f9bc46f	1.2169322
45	0x3fcaf5f1	1.5856305
46	0x3fc06623	1.503117
47	0xc02635b4	-2.5970278
48	0x3fb3f46c	1.4058967
49	0x3f6e9023	0.93188685
50	0xbf7a7687	-0.9783711
51	0xbf20d750	-0.6282854
52	0xbec7b53b	-0.39005455
53	0xbf5ee94f	-0.8707475
54	0xbf7a2dda	-0.97726214
55	0xbf8f8549	-1.121255
56	0x3f77f4c7	0.96857876
57	0x3efa96d7	0.48943207
58	0x3fe8d319	1.8189422
59	0x3f82abc0	1.0208664
60	0x3fb6e444	1.4288411
61	0x40305fca	2.7558465
62	0xbe9a64c6	-0.3015501
63	0x400b4bfa	2.1765122
64	0x3e4cfc41	0.20018102
65	0xbec5df5d	-0.38646975
66	0x3f5df2cc	0.86698604
67	0x3fce5370	1.6119213
68	0x3ebd5718	0.3698051
69	0xbf880c98	-1.0628843
70	0x3f5e1b20	0.8676014
71	0x3e809a6d	0.25117818
72	0x3f384a35	0.7198823
73	0x40075d1f	2.1150587
74	0x3efe77e6	0.4970085
75	0x3e8da212	0.27662712
76	0x3fe13902	1.7595522
77	0x3f6fc5a8	0.93660975
78	0xbfa48fcd	-1.2856385
79	0x3f686749	0.907826
80	0xbf8ceb47	-1.1009301
81	0xbce38844	-0.027774937
82	0x3e03cf54	0.12872058
83	0xbcb6de88	-0.022322908
84	0xbcf51204	-0.029915817
85	0x3efe021a	0.49610978
86	0x3e6a4fb2	0.22881964
87	0xbe5dd6ff	-0.21664046
88	0x3dc10f09	0.09426696
89	0xbd9e4720	-0.0772841
90	0xc0133b12	-2.3004804
91	0xbf970b74	-1.180037
92	0xbf931866	-1.1491821
93	0xbf18572c	-0.59508014
94	0xbf4240ed	-0.7588032
95	0xbf4c1a86	-0.7972797
96	0x3f5c9f72	0.86180794
97	0xbe8d4bb2	-0.27596813
98	0xbf5c6497	-0.8609099
99	0x3e73ee1e	0.23821303
100	0x3f4b16c5	0.7933162
101	0x3e5c5d2c	0.21519917
102	0xbf9b5a9d	-1.2137028
103	0x3e6b96df	0.23006772
104	0xbdbf5c32	-0.09343757
105	0xbf2bf27e	-0.6716689
106	0x3fa5e1fb	1.2959589
107	0xbd950e01	-0.07278062
108	0xc03980ee	-2.8984942
109	0xbf76f026	-0.9646019
110	0x3fc74720	1.5568581
111	0xbf9be432	-1.2179015
112	0x3d74c3b8	0.059756964
113	0x3eec445a	0.46145898
114	0x4002ed3f	2.0457304
115	0x3efdc83d	0.49566832
116	0xbfee4fcc	-1.8618102
117	0xbfe539f8	-1.7908316
118	0xbf2cf6ce	-0.67564094
119	0xbf8f0297	-1.1172665
120	0xbfac269a	-1.344928
121	0xbfaea466	-1.364392
122	0xbfe9f29f	-1.8277167
123	0xbeee2210	-0.46510363
124	0xbfd9365f	-1.6969718
125	0xbffaae12	-1.9584372
126	0xbfea3d25	-1.829991
127	0xbf58e197	-0.8471922
128	0x3fedab29	1.8567859
129	0x401f688a	2.4907556
130	0x3fd13d48	1.6346827
131	0x3f844be2	1.0335658
132	0x40497026	3.14747
133	0x400671da	2.100699
134	0xbee1ccf4	-0.4410168
135	0xbf5f3589	-0.87191063
136	0x3d53fa18	0.05175218
137	0xbf297ebb	-0.66209
138	0x3f3c0877	0.73450416
139	0x3ef8e3dd	0.48611346
140	0x3d2411b8	0.04005596
141	0x3fc50e7c	1.5395045
142	0x3ef00563	0.4687911
143	0xbee1054a	-0.43949348
144	0xbf19b727	-0.60045093
145	0xbf0b9479	-0.54523426
146	0xbece82ba	-0.4033411
147	0xbfd327a6	-1.6496475
148	0x3ecf28b1	0.40460733
149	0x40138295	2.304845
150	0xbfe24bf5	-1.767943
151	0x3ee7574e	0.45183796
152	0x3febf14c	1.8433013
153	0x3fef654e	1.8702791
154	0x3f679acd	0.9047058
155	0xbe835e98	-0.25658107
156	0x3fb54d6a	1.416425
157	0x3ea06368	0.3132584
158	0x3f05600a	0.5209967
159	0x3eb9ff11	0.36327413
160	0xbe481916	-0.1954082
161	0x3f295ba9	0.6615549
162	0x3fee6d6d	1.8627144
163	0x3f619665	0.8812011
164	0xbdefd5b5	-0.11710683
165	0x4011d50d	2.2786286
166	0x3e08d63d	0.13362975
167	0x3d2ad2e3	0.041705023
168	0x3fe23928	1.7673693
169	0xbea2c5e5	-0.31791607
170	0x3f2b14db	0.668287
171	0x40280239	2.6251357
172	0x3fbac171	1.4590284
173	0xbda572fc	-0.08078572
174	0x4036fda2	2.8592305
175	0x3fc12fe9	1.5092746
176	0xbf09129c	-0.5354402
177	0x3fc62698	1.5480528
178	0x3eca6c72	0.39535862
179	0xbee1804c	-0.44043195
180	0xbf62459d	-0.8838747
181	0xbd2ae195	-0.041719038
182	0x3f537554	0.82600904
183	0xbf5b18c6	-0.85584676
184	0x3f8e26f5	1.1105639
185	0x3f5f7fd4	0.87304425
186	0xbfafb113	-1.3725914
187	0x3e2f754c	0.17134589
188	0xbcb3a963	-0.021931356
189	0xbf1da78c	-0.6158378
190	0xbef51a70	-0.47871733
191	0xbec595a7	-0.38590738
192	0xbfb1dc56	-1.3895366
193	0xbe2456bd	-0.16048713
194	0x3f8ed8cc	1.1159911
195	0xbf1985a9	-0.59969574
196	0xbeb779c3	-0.35835084
197	0x3f4181fa	0.75588953
198	0x3fc48b31	1.5354978
199	0x3f551efa	0.8325039
200	0xbdeb0cab	-0.114770256
201	0x4024e5b5	2.5765202
202	0x3f85392a	1.040807
203	0xbe9b71e9	-0.30360344
204	0x400aa23d	2.1661522
205	0x3ebc8fdb	0.36828503
206	0x3ebada5e	0.36494726
207	0x3ec033c9	0.3753951
208	0x3f05f5d8	0.5232825
209	0x3fb1184d	1.3835541
210	0x3eee01d1	0.4648576
211	0xbdf45e6d	-0.11932073
212	0x3f6ffcdd	0.93745214
213	0x3e26f85c	0.16305679
214	0xbf8dff54	-1.1093545
215	0x3efcbacf	0.49361274
216	0xbdb63802	-0.088974014
217	0x3f1a6708	0.60313463
218	0x3e27293e	0.16324326
219	0x3e949348	0.29018617
220	0x3f167614	0.5877392
221	0xbe5ff2e1	-0.21869995
222	0x3ebb3b64	0.3656875
223	0x3e716cfb	0.23576729
224	0xbf5bca13	-0.85855216
225	0x3ca6dc7d	0.020368809
226	0x3e187676	0.1488894
227	0xbe829be6	-0.25509566
228	0x3e3afd4e	0.1826069
229	0x3eaa0d3f	0.3321323
230	0xbe715e69	-0.23571171
231	0x3dc2b73c	0.095076054
232	0x3e3909b2	0.18070105
233	0xbde5f567	-0.112284474
234	0xbd95bd1b	-0.0731146
235	0xbecffd0b	-0.40622744
236	0xbf586fee	-0.8454579
237	0xbff17413	-1.8863548
238	0xbf81ef6e	-1.0151193
239	0xbf0736cc	-0.5281799
240	0xbfe9a959	-1.8254806
241	0xbf34a802	-0.7056886
242	0x3eaa0034	0.3320328
243	0x3f048e74	0.51779866
244	0xbcfcf4d2	-0.030878458
245	0xbf4a1985	-0.7894519
246	0x3eda928e	0.42689937
247	0xbdcedb54	-0.10100427
248	0xbcdbf641	-0.026850821
249	0x3f3bd302	0.7336885
250	0x3f606662	0.87656224
251	0x3f8f89a7	1.1213883
252	0xbfd614a7	-1.6725053
253	0xbeaaf305	-0.33388534
254	0x3e67b2d4	0.22626811
255	0xbd0eb26d	-0.03483813

group1.group.0.main.1.weight f4 [16]
0	0x400e38a1	2.2222064
1	0x3edcce58	0.43126178
2	0x40336421	2.8029864
3	0x40282429	2.627207
4	0x400983af	2.1486623
5	0x3fd560d4	1.6670175
6	0x3fda6c3e	1.7064283
7	0x3fe50076	1.7890766
8	0x3ff91279	1.9458762
9	0x3f99a9bf	1.2004927
10	0x3ede41dd	0.43409625
11	0x4036c668	2.8558598
12	0x3ff0a020	1.8798866
13	0x3fdb2a02	1.7122195
14	0x4019bd8b	2.4021938
15	0x4040c70d	3.012149

group1.group.0.main.1.bias f4 [16]
0	0xbde2dd25	-0.11077336
1	0xbf9a74de	-1.2066915
2	0xbf4d6170	-0.802268
3	0xbf0812f2	-0.5315391
4	0xbf9dbf46	-1.2323997
5	0xbf5f0b2d	-0.8712643
6	0x3e9e7797	0.30950615
7	0xbf7691a6	-0.9631599
8	0xbee15891	-0.44012883
9	0x3e723bc2	0.23655608
10	0xbf3527e1	-0.70763975
11	0xbf9a8de5	-1.2074553
12	0x3e5e936c	0.21735924
13	0xbf1855d6	-0.59505975
14	0xbfa1cbb7	-1.2640294
15	0xbf0c462d	-0.5479458

group1.group.0.main.1.running_mean f4 [16]
0	0x428563d6	66.69499
1	0x4221056b	40.25529
2	0xc2c30f89	-97.53034
3	0xc24f8436	-51.879112
4	0x40b059d2	5.5109644
5	0xc23f3d48	-47.809845
6	0xc282321e	-65.097885
7	0xc2145795	-37.08553
8	0xc28ab9dd	-69.363014
9	0x42a89dd2	84.30824
10	0x428d6fef	70.71862
11	0xc257a1a2	-53.907845
12	0x42990d08	76.52545
13	0x426f16cf	59.772274
14	0xc2d0333d	-104.100075
15	0xc1ae0b7c	-21.755608

group1.group.0.main.1.running_var f4 [16]
0	0x44ee285f	1905.2616
1	0x44af7bd0	1403.8691
2	0x45a71066	5346.05
3	0x451b426d	2484.1516
4	0x458037cd	4102.975
5	0x459bfa52	4991.29
6	0x44f61677	1968.702
7	0x45829eb0	4179.836
8	0x45193bd3	2451.739
9	0x453889fe	2952.6245
10	0x450367fd	2102.4993
11	0x4567edb2	3710.856
12	0x453707b7	2928.4822
13	0x4557a3af	3450.2302
14	0x45cf1432	6626.5244
15	0x452503a0	2640.2266

group1.group.0.main.3.weight f4 [16, 16, 3, 3]
0	0x3ffc093f	1.9690322
1	0xbf40eefc	-0.7536466
2	0xbb8b02d0	-0.0042422786
3	0xbf30f5fe	-0.69125354
4	0xbe7db2dc	-0.2477526
5	0x4040ed6e	3.0144916
6	0xc0182578	-2.377287
7	0xbf89777f	-1.0739592
8	0x3ee81054	0.45324957
9	0xbebf8422	-0.37405497
10	0xbe2e29ef	-0.17008184
11	0x3dacf203	0.084445976
12	0x3ee51cfa	0.4474867
13	0xbeafc1b3	-0.34327468
14	0xbe9a9f17	-0.301995
15	0x3e29d8a9	0.16586556
16	0xbfbdc36c	-1.4825263
17	0x3f4ac959	0.7921348
18	0x3dffbb6b	0.12486919
19	0x3e980437	0.29690716
20	0x3dcbfc15	0.0996019
21	0xbf855c94	-1.0418878
22	0xbf8fe216	-1.1240871
23	0xbf6b1f4a	-0.9184462
24	0x3ef930c9	0.48670033
25	0x3e9d3f3a	0.307123
26	0x3e6ef9b5	0.23337443
27	0xbfa1072b	-1.2580312
28	0xbf012c59	-0.50458294
29	0x3f5c9d93	0.8617794
30	0x40002627	2.0023286
31	0x40089510	2.134098
32	0x3d294e28	0.0413343
33	0x3fb3999d	1.4031254
34	0x3fbc34cb	1.4703611
35	0xbf36dccc	-0.7143066
36	0x3f90e6b1	1.1320401
37	0xbfb8be1d	-1.4433018
38	0xbe2970b0	-0.16546893
39	0x3e17255e	0.14760348
40	0x3e87e64a	0.26542884
41	0x3fe30e96	1.7738826
42	0xbed4c669	-0.41557625
43	0x3e02bdf5	0.12767775
44	0x3f984ed5	1.1899058
45	0x3fb55dec	1.4169288
46	0x3f1f5883	0.62244433
47	0xbf620688	-0.88291216
48	0x3f59619c	0.84914565
49	0x3ea77820	0.32708836
50	0x3d47e476	0.04880186
51	0xbe86a2d3	-0.262961
52	0x3f2baedf	0.6706371
53	0x3f65f8a5	0.89832526
54	0x3fadf54a	1.3590481
55	0x4033bea3	2.8085105
56	0x3f95c3dd	1.1700398
57	0x3f949f2f	1.1611079
58	0x3eb81b6c	0.3595842
59	0xbf28d4f5	-0.65949947
60	0xbfeb8fe1	-1.8403283
61	0xc005f0a9	-2.0928137
62	0xbff8f831	-1.9450742
63	0x402b14e8	2.673151
64	0xbf1d8db1	-0.6154433
65	0xbf22e8ba	-0.6363636
66	0xbfae087b	-1.3596338
67	0xbe64ee37	-0.22356497
68	0x4018449e	2.379188
69	0xbf25f54a	-0.64827406
70	0x3e408f05	0.18804558
71	0x3fb163a6	1.3858535
72	0xbfa45af9	-1.2840263
73	0xbf587e06	-0.84567297
74	0x3e919198	0.28431392
75	0xbedf7c25	-0.43649402
76	0x3c0c8940	0.008577645
77	0xbd02acdd	-0.031903137
78	0x3f874762	1.0568659
79	0x401e32ee	2.4718585
80	0x3f61260f	0.879487
81	0xbf9af8d8	-1.2107191
82	0xbfea73c5	-1.831658
83	0xbf8e45e9	-1.1115085
84	0xbf7c0497	-0.98444504
85	0xbf95b27b	-1.1695093
86	0xbf84ec11	-1.0384542
87	0x3f869a92	1.0515921
88	0x3f2993d8	0.66241217
89	0x3e0db594	0.13838798
90	0xbdad0059	-0.08447332
91	0xbeeed0dc	-0.46643722
92	0xbf85505d	-1.041515
93	0xbf556a66	-0.83365476
94	0xbf87b7d8	-1.060298
95	0xbe551a24	-0.20810753
96	0xbef76e06	-0.4832613
97	0xbedfd8ec	-0.43720186
98	0x3f7a07d2	0.9766818
99	0x3fb16a3d	1.3860546
100	0x3d324b04	0.04352857
101	0x3de8fb80	0.11376095
102	0xbfd991e7	-1.6997651
103	0xc003d4e7	-2.0598695
104	0xbff4b7aa	-1.911855
105	0x3ec6fdaa	0.38865405
106	0x3f4e0ec4	0.8049128
107	0x3feb5178	1.8384237
108	0xbfc073aa	-1.5035298
109	0xbfff9766	-1.9968078
110	0xbfbf6757	-1.4953412
111	0xbf625e38	-0.88425016
112	0xbef0c3f7	-0.4702451
113	0xbf9de1d2	-1.233454
114	0x3f59561f	0.84897035
115	0x3fc7c32b	1.5606436
116	0x3dc88156	0.09790294
117	0x3f25f142	0.64821255
118	0x3d129e38	0.03579542
119	0xbf868a17	-1.0510892
120	0x3f7c0c9c	0.9845674
121	0xbf63602b	-0.88818616
122	0xbe9975c5	-0.29972664
123	0xbeb73435	-0.35782018
124	0xbf9273ad	-1.1441551
125	0x3fae3d63	1.3612484
126	0x3f8609c0	1.0471725
127	0x3fa5c6ed	1.2951332
128	0x3e897df4	0.26853907
129	0x3ec6aa6b	0.38801894
130	0xbfb2caac	-1.39681
131	0xbf6fae85	-0.9362567
132	0x3f1a4401	0.60260016
133	0x3efde553	0.49589023
134	0x3fadc511	1.3575765
135	0x3ff7111d	1.9302098
136	0x3fd58628	1.6681566
137	0xbed46ea3	-0.4149066
138	0xc025250a	-2.5803857
139	0xbf9e7988	-1.2380838
140	0x3f81af15	1.0131556
141	0xbfc56d3d	-1.5423962
142	0xbfb04f5c	-1.3774219
143	0x3fea1dae	1.8290308
144	0xbfc7c24d	-1.5606171
145	0x3ef63e38	0.48094344
146	0x3de9342f	0.11386906
147	0x3eb8ffab	0.3613256
148	0x3fa0cd80	1.2562714
149	0x3f40ac87	0.75263256
150	0x3f385090	0.7199793
151	0xbc1e1791	-0.009649173
152	0x3c45165d	0.012029258
153	0xbf24c758	-0.64366674
154	0x3e45df7e	0.19323537
155	0x3ea56859	0.32306173
156	0x3deca170	0.11554229
157	0x3e87c6ca	0.26518852
158	0x3f996857	1.1984967
159	0xbf10cf72	-0.56566536
160	0x3cd66014	0.02616886
161	0xbf109665	-0.56479484
162	0xbfab1039	-1.3364326
163	0xbfae7faf	-1.3632716
164	0xbf5377ce	-0.8260468
165	0xbface809	-1.3508312
166	0x3eab1afe	0.3341903
167	0xbf477d16	-0.7792524
168	0xbeb54b37	-0.35408947
169	0x3f70232e	0.9380368
170	0x3f0247cd	0.5089081
171	0x3f155c7e	0.58344257
172	0xc0009c35	-2.0095341
173	0x3e4aab33	0.1979187
174	0x3f581ebf	0.84421915
175	0xbf307760	-0.6893215
176	0x3fc73f40	1.5566177
177	0x3f84c49b	1.0372499
178	0xbf97a2a3	-1.1846508
179	0x3f81a738	1.0129156
180	0xbf162abd	-0.58658963
181	0xbefe8da2	-0.49717432
182	0xc026cc5d	-2.6062233
183	0x3fb08f0a	1.3793652
184	0x3facecec	1.3509803
185	0xc011a978	-2.2759686
186	0x3fb03f61	1.3769342
187	0x3ed2d981	0.41181567
188	0xbfd0220c	-1.626039
189	0xbfa065f6	-1.2531116
190	0xc0083ffc	-2.1289053
191	0xbf9ff56a	-1.249677
192	0xbf45080b	-0.769654
193	0xbf5e5a16	-0.8685621
194	0xbfa4df0e	-1.2880571
195	0xbf62b8a1	-0.8856297
196	0x3e92a5c8	0.28642106
197	0xbf2129c3	-0.6295435
198	0x4016c14b	2.3555477
199	0x3edc5013	0.43029842
200	0x3f3e6138	0.74367094
201	0xbe3a1fb4	-0.18176156
202	0xbf85379d	-1.0407597
203	0x3f43c897	0.7647795
204	0xbfa6cde4	-1.3031583
205	0xbdf51d86	-0.11968522
206	0x3f8f1fa4	1.1181531
207	0xbe5b82f2	-0.2143667
208	0xbf0cba9d	-0.5497225
209	0xbf5a63e9	-0.853087
210	0x3f5a13cb	0.8518645
211	0x3fa77ea3	1.3085521
212	0xbf42aa7f	-0.76041406
213	0x4003c1a5	2.0586941
214	0x3fcb19f0	1.586729
215	0x3e5a1ce7	0.21300088
216	0xbf80168d	-1.0006882
217	0x3d158964	0.03650798
218	0x3f6eaa3f	0.93228525
219	0xbf95028d	-1.1641403
220	0xbfe3f286	-1.7808387
221	0xbf6a6ef9	-0.9157558
222	0xbf3350a2	-0.7004491
223	0xc043e759	-3.0609953
224	0xbfa02ba6	-1.251332
225	0xbf251be5	-0.6449569
226	0x3d0f1cb2	0.034939475
227	0xbab3dbbe	-0.0013722104
228	0x3e37895c	0.17923492
229	0xbd29dbea	-0.041469492
230	0xbf8d1d59	-1.1024581
231	0x3f639fdb	0.88915795
232	0xbbc24856	-0.0059290333
233	0xc005826d	-2.0860856
234	0xbf822eee	-1.0170572
235	0xbf713317	-0.9421858
236	0xbf963170	-1.1733837
237	0xbf7e3bdf	-0.99310106
238	0xbf4641d5	-0.774442
239	0xc00091fc	-2.0089102
240	0xbf698956	-0.91225183
241	0xbfb4827d	-1.4102322
242	0xc0663dea	-3.597529
243	0xc00e1855	-2.220235
244	0xc0239fc4	-2.5566263
245	0xc02374e7	-2.5540102
246	0xbfce0138	-1.6094122
247	0xc003dc51	-2.060322
248	0xc037b395	-2.8703358
249	0x3effc3ce	0.49954075
250	0xbe879fd4	-0.26489127
251	0xc0021dba	-2.0330644
252	0xbf820018	-1.0156279
253	0xbf6f760d	-0.93539506
254	0xbead1f1a	-0.3381279
255	0x3e073e46	0.13207349

group1.group.0.main.4.weight f4 [16]
0	0x3fab4607	1.3380746
1	0x3f9128e4	1.1340604
2	0x400e25f3	2.2210662
3	0x3fad0830	1.3518124
4	0x3fd1f51d	1.6402928
5	0x3fc776d2	1.5583136
6	0x3f53bf07	0.8271336
7	0x3f8e8174	1.1133256
8	0x3fbc74d4	1.4723153
9	0x4022c860	2.54348
10	0x3f6ee331	0.93315417
11	0x401a0378	2.4064617
12	0x3f59a45f	0.85016435
13	0x3fa11dfa	1.2587273
14	0x4001a281	2.0255435
15	0x3fdc34e5	1.7203642

group1.group.0.main.4.bias f4 [16]
0	0x3e061c28	0.13096678
1	0xbebba4f9	-0.36649302
2	0xbe90f550	-0.2831216
3	0xbe0c6b5d	-0.13712831
4	0xbf7f59b5	-0.9974626
5	0xbf84f461	-1.0387079
6	0xbf6b8b26	-0.920092
7	0xbeb476f3	-0.35247
8	0xbf90223c	-1.1260448
9	0x3dfabd5f	0.12243151
10	0xbef6ec36	-0.4822709
11	0xbd94fb57	-0.07274502
12	0x3c16278c	0.009164702
13	0xbd343c12	-0.0440026
14	0xbf36d236	-0.71414506
15	0xbf4b1d62	-0.7934171

group1.group.0.main.4.running_mean f4 [16]
0	0xc020d4c9	-2.5129874
1	0xc1aaa418	-21.330124
2	0xc124658e	-10.274794
3	0xc0f3778c	-7.608343
4	0xc1c2d584	-24.354256
5	0xc1a5a4d4	-20.705482
6	0xc002b770	-2.0424461
7	0xc1859358	-16.696945
8	0xc2196023	-38.343884
9	0xc20eff90	-35.749573
10	0xc1c8ff81	-25.124758
11	0xc16698d0	-14.412308
12	0xc198450c	-19.033714
13	0xc1ba4142	-23.281864
14	0xc19ed0e0	-19.85199
15	0xc1b69fbe	-22.828

group1.group.0.main.4.running_var f4 [16]
0	0x438191a9	259.13797
1	0x43e6c055	461.5026
2	0x43bfbd14	383.47717
3	0x43beeeed	381.8666
4	0x441aef63	619.7404
5	0x43d1679f	418.80954
6	0x43fec350	509.52588
7	0x43922c6c	292.34705
8	0x441c5ed4	625.4817
9	0x4429667a	677.6012
10	0x43c79334	399.15002
11	0x43e58701	459.05472
12	0x438a8a70	277.08154
13	0x4457f826	863.8773
14	0x440a32f3	552.7961
15	0x4401e7ef	519.62396

group1.group.1.main.0.weight f4 [16, 16, 3, 3]
0	0xbd8b1bda	-0.06792422
1	0xbf2d59c6	-0.6771511
2	0xbf9189a0	-1.1370125
3	0x3fb0485c	1.3772082
4	0xbe1ff5c0	-0.1562109
5	0x3fa97c90	1.3241138
6	0x3dac109a	0.08401604
7	0xbf126ffe	-0.57202137
8	0x3fb6c4c2	1.4278796
9	0xbfa41922	-1.282017
10	0x3fa42fe3	1.2827114
11	0xbfcbb309	-1.5914012
12	0xbd968c1a	-0.07350941
13	0x3fc2b0c0	1.521019
14	0xbf63cfeb	-0.8898913
15	0x3f6d85ad	0.927821
16	0x3f817d0f	1.011629
17	0xbea2e8ff	-0.31818387
18	0xbfbad87b	-1.4597315
19	0xbf04a64a	-0.51816237
20	0x3f141dd0	0.5785799
21	0xbf682ed2	-0.9069644
22	0xbe5d6580	-0.2162075
23	0x3d99f295	0.07516972
24	0x3dc6439a	0.09680863
25	0xbdba2849	-0.09089715
26	0x3eec6fa3	0.46178922
27	0xbf57b5f9	-0.84262043
28	0x3e30fbd4	0.17283565
29	0xc01355eb	-2.302119
30	0xbe16ea6d	-0.14737864
31	0x3f514c7f	0.8175735
32	0xbd8dce8f	-0.069241636
33	0xbf2fd6e4	-0.6868727
34	0x3f74543f	0.9544105
35	0x3f842600	1.0324097
36	0x3e4e82d2	0.20167091
37	0x3e0dd06a	0.13849035
38	0x40102a9f	2.2526014
39	0x3ed21b6b	0.41036543
40	0x3f42609f	0.7592868
41	0x403d9e56	2.962789
42	0x3f5c985a	0.8616997
43	0x3f8a411d	1.0801121
44	0x3fd2af3f	1.6459731
45	0xbf8a07d4	-1.0783639
46	0xbfe1cf81	-1.764145
47	0xbf5eb569	-0.8699556
48	0xbed500a4	-0.4160205
49	0xbf2fd610	-0.6868601
50	0x3d57c2a3	0.052675854
51	0xbdc331d4	-0.09530988
52	0xbf1a6ff3	-0.6032707
53	0xbf838b50	-1.027689
54	0xc00b2d24	-2.1746302
55	0xbe796974	-0.24356633
56	0xbf0c8d49	-0.54903084
57	0xbf25e8a9	-0.64808136
58	0xbd282a79	-0.04105613
59	0xbe55d1bd	-0.2088079
60	0xbf2ed142	-0.6828805
61	0x3da108a2	0.07862975
62	0x3f2329db	0.6373574
63	0xc00aff49	-2.1718314
64	0x3f91c73c	1.1388927
65	0xbfee0f43	-1.8598408
66	0xbe028d69	-0.12749256
67	0x402e46ac	2.7230635
68	0xbfe44494	-1.7833428
69	0x39a31a9d	0.0003110961
70	0x3fba7b82	1.4568942
71	0xbff724c9	-1.9308101
72	0xbe504c99	-0.2034172
73	0xbeeee97c	-0.4666251
74	0x3eb27a69	0.34859017
75	0xbd8b6e9e	-0.06808208
76	0x3faedda4	1.3661389
77	0x40179d2c	2.368968
78	0x3f302783	0.6881029
79	0xbd53ce47	-0.051710393
80	0x3f0d42df	0.5518016
81	0xbf80de4b	-1.0067838
82	0x3ef886e5	0.48540416
83	0x3ee2bc38	0.44284225
84	0xbf22482f	-0.63391393
85	0x3fbeeef7	1.4916676
86	0x3fcbed1d	1.5931736
87	0xbf530f11	-0.82444865
88	0x3f8d8f04	1.105927
89	0x3fcae8eb	1.5852331
90	0xc006ffbc	-2.1093588
91	0xbf5f0e12	-0.87130845
92	0xbf6090f3	-0.87721175
93	0xbedb7e1a	-0.42869645
94	0xbee3ffa6	-0.44530982
95	0x3da19084	0.07888892
96	0xbf8c324e	-1.0952852
97	0xbf5bee06	-0.8591007
98	0x3e83b8e7	0.25727007
99	0x3f9e7b0f	1.2381305
100	0xbfc6cf5c	-1.5532031
101	0x3f99ed6e	1.2025583
102	0x3eed3b0c	0.46334112
103	0xc008f47d	-2.1399224
104	0x4065d364	3.5910273
105	0xbdd7db0c	-0.10539827
106	0xbf309a7c	-0.68985724
107	0x40652ed4	3.5809832
108	0xc007b7ae	-2.120586
109	0xbf7c94c6	-0.9866451
110	0xbf572da1	-0.84054
111	0xbf47a766	-0.77989805
112	0xbf96a462	-1.1768916
113	0xbfab9f97	-1.3408078
114	0x3efddc36	0.4958207
115	0xbee8c24b	-0.45460734
116	0xbef0c8c8	-0.47028184
117	0x3ec0b6f9	0.37639597
118	0x3e918e56	0.28428906
119	0x3e9d03a8	0.30666852
120	0xbf4fdf68	-0.81200266
121	0x3e173ff0	0.14770484
122	0x3f82130f	1.0162066
123	0xbfa5897f	-1.2932585
124	0x3eb7330c	0.35781133
125	0x3f1db256	0.61600244
126	0x3e7806ce	0.24221346
127	0xbf3d0758	-0.7383933
128	0x3f76c4d5	0.9639409
129	0x3fb2d8fe	1.3972471
130	0xbfa7b507	-1.310212
131	0x3ed1f581	0.41007617
132	0xbe24efae	-0.16107056
133	0xbfefd36f	-1.87364
134	0x3f2f321d	0.6843584
135	0x3f973743	1.181374
136	0xbfaba2cd	-1.3409058
137	0x3e244b09	0.16044249
138	0x4068fed4	3.6405535
139	0xbfca0f98	-1.5786009
140	0x3e0bad04	0.13640219
141	0x3fbd1e06	1.4774787
142	0xbfabfff9	-1.3437492
143	0x3df5c027	0.11999541
144	0xbed1e11e	-0.40992063
145	0xbf8ba7d2	-1.091059
146	0xbf7b9ca8	-0.98285913
147	0xbf1bb4fe	-0.6082305
148	0xbd8aafd7	-0.0677182
149	0x3f156cc1	0.5836907
150	0x3ca9122e	0.020638552
151	0x3f0d25a2	0.5513555
152	0x3ec3183d	0.3810443
153	0x3f0665e3	0.52499217
154	0x3f8e67d7	1.112544
155	0xbf218cbf	-0.63105386
156	0x3fb0666a	1.3781254
157	0x3f7db849	0.9910932
158	0x3dc57d9b	0.09643098
159	0x3f96b123	1.1772808
160	0x3e0fa059	0.14026012
161	0x3e29ee18	0.16594732
162	0x3f042bba	0.5162922
163	0x3ef526ca	0.47881156
164	0xbf1855d7	-0.5950598
165	0x3ed16e57	0.40904495
166	0x3ee07603	0.43840036
167	0xbf6411d4	-0.89089704
168	0x3f109e56	0.564916
169	0x3e1604ec	0.14650315
170	0xbf2113ff	-0.62921137
171	0xbd9a0611	-0.07520688
172	0xbf34a9e7	-0.7057175
173	0xbf99548e	-1.1978929
174	0x3e7fad2a	0.249684
175	0xbeba8176	-0.36426896
176	0x3e4542f7	0.19263826
177	0x3f1f31a0	0.62185097
178	0x3e82cb28	0.2554562
179	0xbe32b75b	-0.17452757
180	0x3bcc7908	0.006240014
181	0xbf1856a0	-0.5950718
182	0x3fb77dda	1.4335282
183	0x3edb39ea	0.42817622
184	0xbdc0c1d8	-0.09411973
185	0x3f598ce8	0.8498063
186	0x3d239272	0.039934583
187	0xbeefc8aa	-0.46832782
188	0xbf2ca0cd	-0.6743286
189	0xbfbda5cc	-1.4816222
190	0xbef4e610	-0.47831774
191	0x3f1cb457	0.61212677
192	0xbfd2f07e	-1.6479642
193	0x3e6b9399	0.23005523
194	0x3f151e4b	0.5824935
195	0xbfbbf4f1	-1.4684125
196	0xbe677abf	-0.22605418
197	0xbf629c5b	-0.8851983
198	0xbdd23361	-0.10263706
199	0x3f04b759	0.51842266
200	0xbeda4f7d	-0.4263877
201	0xbed3921a	-0.41322404
202	0xbf33e5e9	-0.7027269
203	0xbf984b91	-1.1898061
204	0xbf619b18	-0.8812728
205	0xbfbdf558	-1.4840498
206	0xbfdcb13f	-1.7241591
207	0xbf3bdc64	-0.73383164
208	0x3ee577bf	0.44817922
209	0xbebea9dd	-0.3723897
210	0x3f62543c	0.8840978
211	0x3f041b28	0.5160394
212	0xbc03572b	-0.008016388
213	0x3f602a76	0.8756479
214	0xbeabbe49	-0.33543614
215	0x3ebeeedd	0.37291613
216	0xbf0c5e0c	-0.54831004
217	0xbf0149f2	-0.50503457
218	0x3ec27cb4	0.37985766
219	0x3fae3ab5	1.3611666
220	0x3eef93d9	0.46792486
221	0x3e070892	0.13186863
222	0x3faa3db5	1.3300081
223	0x3d16991c	0.03676711
224	0x3ee631c5	0.44959846
225	0x3eba2e05	0.36363235
226	0x3ed1930a	0.40932494
227	0xbe8758ff	-0.26435086
228	0x3e8f513e	0.2799167
229	0x3eb20e08	0.3477633
230	0x3ed0a4dc	0.40750778
231	0x3f7f56d6	0.99741876
232	0x3f101533	0.5628235
233	0x3f54a801	0.83068854
234	0xbf92995b	-1.145305
235	0xbfd43163	-1.6577572
236	0xc007eb52	-2.1237378
237	0xbfaaccd3	-1.3343757
238	0xbf23b209	-0.63943535
239	0xbf557104	-0.83375573
240	0xbf1206a1	-0.57041365
241	0x3ea9dd5e	0.33176702
242	0x3ea196df	0.31560418
243	0x3e5a6702	0.21328357
244	0xbfd7f19e	-1.6870611
245	0x3e8b43b7	0.272001
246	0x3f2e63cd	0.68121034
247	0xbf88826b	-1.06648
248	0x3f20432a	0.62602484
249	0x3f96556d	1.174482
250	0x3e21f5a2	0.15816358
251	0x3f1c937d	0.6116255
252	0x3f71a4bd	0.94391996
253	0x3e11d3bc	0.14240927
254	0xbe9c745d	-0.30557528
255	0x3e29d9fd	0.16587062

group1.group.1.main.1.weight f4 [16]
0	0x3f97c0fd	1.185577
1	0x3e86e5d7	0.2634723
2	0x402fdcce	2.7478518
3	0x4031af13	2.7763107
4	0x3fec7013	1.8471702
5	0x400a8165	2.1641476
6	0x402b575f	2.6772077
7	0x3f914f77	1.1352376
8	0x40335407	2.8020036
9	0x3fb4a6dc	1.4113421
10	0x3fd07d32	1.6288207
11	0x401217c0	2.2826996
12	0x3fd91581	1.6959687
13	0x4012f68e	2.2962985
14	0x3e9f65ff	0.31132504
15	0x40036149	2.0528128

group1.group.1.main.1.bias f4 [16]
0	0xbef126fe	-0.4710006
1	0xbf82adb9	-1.0209266
2	0xbf229788	-0.6351247
3	0xbe21ae48	-0.1578914
4	0xbf36d68e	-0.71421134
5	0xbf2f7c17	-0.6854872
6	0xbf204472	-0.6260444
7	0xbf6f1923	-0.9339773
8	0xbeaa8c4e	-0.3331017
9	0xbeb609f2	-0.35554463
10	0xbf71c78c	-0.9444511
11	0xbf6ac463	-0.9170591
12	0xbed7b2cb	-0.42128596
13	0xbf2aef93	-0.6677181
14	0xbf90b405	-1.1304938
15	0x3eb2e5a7	0.34940836

group1.group.1.main.1.running_mean f4 [16]
0	0x41631f01	14.195069
1	0xc1505e3c	-13.023006
2	0xc22d1acf	-43.27618
3	0xc288ca4e	-68.39513
4	0xc1ac781b	-21.558645
5	0xc285c56a	-66.885574
6	0x42d53746	106.607956
7	0x424a6881	50.602055
8	0xc14af8ca	-12.6857395
9	0x4234e53c	45.22386
10	0xc2bbeaca	-93.95857
11	0xc1dea1cd	-27.829004
12	0x4214339a	37.050392
13	0x4289c2a5	68.880165
14	0xc1eb264a	-29.393696
15	0xc1109c75	-9.0381975

group1.group.1.main.1.running_var f4 [16]
0	0x44f334e5	1945.653
1	0x44587353	865.80194
2	0x4500767f	2055.406
3	0x45550b72	3408.7153
4	0x450090d6	2057.0522
5	0x4569c4bc	3740.296
6	0x459b07f4	4960.994
7	0x44648062	914.006
8	0x449ed5b0	1270.6777
9	0x44de1f3a	1776.9758
10	0x458ee9aa	4573.208
11	0x44d898a8	1732.7705
12	0x449254aa	1170.6458
13	0x451970f0	2455.0586
14	0x444e435d	825.05255
15	0x44fd0471	2024.1388

group1.group.1.main.3.weight f4 [16, 16, 3, 3]
0	0x3fcc5279	1.5962669
1	0x3f95a33b	1.1690439
2	0xbf29a551	-0.6626788
3	0x3f43dbbf	0.7650718
4	0xbfa9d012	-1.3266623
5	0xbdeef7fe	-0.116683945
6	0xbf6ecdf0	-0.93282986
7	0xc01f8b11	-2.492863
8	0x3f55f7ee	0.83581436
9	0xbc3eb5ce	-0.011640025
10	0x3f1493b7	0.58037895
11	0xbee7d373	-0.4527851
12	0xbe941410	-0.28921556
13	0xbf497ed9	-0.7870918
14	0xbf13011a	-0.57423556
15	0x3f13d7dd	0.57751256
16	0xbe995116	-0.29944676
17	0x3e1ea7a9	0.15493645
18	0x400df7fc	2.2182608
19	0xbf3bbca2	-0.73334706
20	0xbfec917a	-1.8481896
21	0xbe680005	-0.22656257
22	0xbfa3d2cb	-1.2798704
23	0x3f5a680e	0.85315025
24	0xbf8aa1d8	-1.0830641
25	0x3e97999b	0.2960938
26	0x3ff9e777	1.9523762
27	0x3fae180c	1.3601089
28	0x3fa6357c	1.2985072
29	0x3f85d114	1.045443
30	0x3eb8a56a	0.360637
31	0xbf873729	-1.0563709
32	0xbdd8ae7e	-0.10580157
33	0xbef76f22	-0.48326975
34	0x3ecd5d58	0.40110278
35	0x3f15e560	0.58553123
36	0x3f9ea66f	1.2394542
37	0x3f76f038	0.96460295
38	0x3effec41	0.49984935
39	0x3e932b45	0.2874395
40	0xbfe6e659	-1.8039047
41	0xbedba9db	-0.42903027
42	0xbfe53538	-1.7906866
43	0xbff00a33	-1.8753113
44	0xbf6d55f9	-0.9270931
45	0x3f87b370	1.0601635
46	0xbeb38c3c	-0.35067928
47	0xbf1a383e	-0.6024207
48	0x3f3954ed	0.7239521
49	0xbfa22e5b	-1.2670397
50	0x3f3ed7d2	0.74548066
51	0xbf420c10	-0.75799656
52	0xbe45a204	-0.19300085
53	0x3e781b05	0.24229057
54	0xbee02ec0	-0.43785667
55	0x3f58f6d2	0.8475162
56	0xbe6fbea3	-0.23412566
57	0xbf624ce2	-0.88398564
58	0xbedefe61	-0.4355345
59	0xbfe81acc	-1.8133178
60	0xbf9b9867	-1.2155885
61	0xbfab3681	-1.3376008
62	0xbf1cd348	-0.6125989
63	0xbfc7cece	-1.5609987
64	0xc013ab30	-2.3073235
65	0xbfa9fe0c	-1.3280654
66	0xbff4c875	-1.9123675
67	0xbff667de	-1.9250448
68	0x3fa5cc23	1.2952923
69	0xbe47d406	-0.19514474
70	0xbde49841	-0.11161853
71	0x3f43d861	0.76502043
72	0x3ebdbfff	0.37060544
73	0xc0305e81	-2.755768
74	0x3f5869ba	0.84536326
75	0xbfd51a33	-1.664862
76	0xbf292782	-0.6607591
77	0x4040eade	3.0143352
78	0xc0400737	-3.0004404
79	0xbf006e96	-0.5016874
80	0x3ef5ecb1	0.48032144
81	0x3d4a0df4	0.049329713
82	0x3e825177	0.25452778
83	0x3f75862b	0.9590785
84	0xbfcec6e1	-1.6154443
85	0xbf308e1e	-0.68966854
86	0x3fd78e0f	1.6840228
87	0xc0109f37	-2.2597177
88	0xc0005df6	-2.005735
89	0xbf3a70e9	-0.7282854
90	0x3ed40b73	0.41414985
91	0x3d0011dc	0.031267032
92	0xbf6e3e17	-0.9306349
93	0x3f38029a	0.7187897
94	0xbf122ba0	-0.57097816
95	0xbf227550	-0.63460255
96	0x3e88bcd7	0.26706573
97	0x3ecfaf6f	0.40563533
98	0x3fbf4226	1.4942062
99	0x3fd3cbb9	1.6546546
100	0x3fec0695	1.8439509
101	0x3f1ad960	0.6048794
102	0x3f5a358c	0.85237956
103	0xbfac226e	-1.3448007
104	0xbf9baa4e	-1.2161348
105	0x3e041a3b	0.12900631
106	0xbdddee88	-0.10836512
107	0xbe508429	-0.20362915
108	0x3f71d702	0.944687
109	0x3fa49dc1	1.2860643
110	0xbfa551a6	-1.2915542
111	0x3f6efa4f	0.9335069
112	0xbf4feb19	-0.81218106
113	0xbfb5f19f	-1.4214362
114	0x3ee68f18	0.45031047
115	0xbf5cf9d4	-0.8631871
116	0x3f3d8ddc	0.74044585
117	0xbeadac07	-0.3392031
118	0x3f248020	0.64258003
119	0x3d767640	0.060171366
120	0xbfe5bdfa	-1.7948601
121	0xbfbeb571	-1.4899122
122	0xbfa19481	-1.2623445
123	0xbf0b14b5	-0.5432847
124	0x3f50116d	0.8127659
125	0x3d4eef6d	0.050521303
126	0xbeb25022	-0.3482676
127	0xbf5323bc	-0.824764
128	0x3ec33be0	0.38131618
129	0xbf7d4499	-0.98932797
130	0xbebb5775	-0.36590162
131	0x3f3973ad	0.7244213
132	0xbe0a4aec	-0.13505143
133	0x3ed80acf	0.42195746
134	0x3f1e0775	0.6173013
135	0xbf1e6935	-0.61879283
136	0xc022e118	-2.5449886
137	0xc02205d8	-2.5316067
138	0xbf4f5bda	-0.8099953
139	0x3ef49e59	0.4777706
140	0x3f8a8ea6	1.0824783
141	0x3fc1b78f	1.5134143
142	0x400df84f	2.2182806
143	0x3fc2e56c	1.5226264
144	0x3e9d70dd	0.3075017
145	0x3f1d942c	0.6155422
146	0x3e0675ce	0.13130876
147	0xbedfe776	-0.43731278
148	0x3facd37b	1.3502039
149	0x3de308d3	0.110856675
150	0xbfdf6b91	-1.7454702
151	0x3f94034d	1.1563507
152	0x3d0690ac	0.032852814
153	0xbe9d75c5	-0.30753914
154	0x3df46919	0.11934108
155	0x3f2fb27d	0.68631727
156	0xbf7cd00a	-0.9875494
157	0xbf2d7fca	-0.67773116
158	0x3e4f8caa	0.20268503
159	0xbf04f7f4	-0.51940846
160	0xbe3e8107	-0.18603908
161	0xbec9db2c	-0.39425027
162	0xbfb5210b	-1.4150709
163	0xbff3809a	-1.9023621
164	0xc00ac665	-2.168359
165	0x3df6500a	0.12026985
166	0x3fd0dd60	1.6317558
167	0xbfbc3b83	-1.4705662
168	0x3f22b190	0.6355219
169	0x3fb9f014	1.4526391
170	0xbf8f616c	-1.1201606
171	0xc00c43f8	-2.1916485
172	0xbe49bf76	-0.19701943
173	0xbe3b0610	-0.18264031
174	0xbf58f90f	-0.84755033
175	0x3d80b88d	0.062852
176	0xbe8f8866	-0.2803375
177	0x3f4e09bc	0.80483603
178	0xbe5edb46	-0.21763334
179	0x3f094b89	0.5363088
180	0x3f07312a	0.52809393
181	0x3f79c4c6	0.9756588
182	0x3f4ecd5d	0.8078211
183	0xbf847308	-1.0347605
184	0x3f196f87	0.599358
185	0x3ecc2da1	0.39878562
186	0xbf88bfa9	-1.068349
187	0x3f8cc1c2	1.099663
188	0x3de4cca8	0.111718476
189	0xbfe9c9d6	-1.826472
190	0xc02c317d	-2.6905205
191	0xc018da6f	-2.3883321
192	0xbe83c1e5	-0.25733867
193	0x3e678384	0.22608763
194	0xbfa79413	-1.3092064
195	0x3f16b542	0.5887033
196	0x3f9ac2c1	1.2090684
197	0xbd5dd721	-0.05416024
198	0xbeafaf80	-0.34313583
199	0xbe92abcf	-0.28646705
200	0xbf00d8d5	-0.5033086
201	0x3e161a7b	0.14658539
202	0xbee72374	-0.45144236
203	0xbf5a2825	-0.85217506
204	0x3e20914c	0.15680426
205	0xbf700810	-0.937623
206	0xc010f71f	-2.265083
207	0xc0178008	-2.3671894
208	0xc0027c83	-2.0388496
209	0xbf3f84d0	-0.7481203
210	0xbfa04d88	-1.2523661
211	0x3c9e66ca	0.019336123
212	0x3c8ca37e	0.017167803
213	0xbe2490a5	-0.16070803
214	0xbede19d0	-0.43379068
215	0xbde82bb8	-0.11336464
216	0x3e8a5761	0.2701979
217	0x3e8abbe3	0.2709647
218	0xbfa6eeec	-1.3041663
219	0x3fc221c5	1.5166556
220	0xbebc09b1	-0.36726144
221	0xc0441fb1	-3.0644343
222	0x3f1f67c3	0.622677
223	0xbf9387ae	-1.1525781
224	0xbfe2df7d	-1.7724453
225	0x3f4356b9	0.76304203
226	0x3f580bf1	0.8439322
227	0xbf9c8170	-1.2227001
228	0x3f79dc96	0.9760221
229	0x3f9d2fdf	1.2280234
230	0xbfb35018	-1.4008818
231	0xba48c27c	-0.0007658375
232	0xbeb23b4d	-0.34810868
233	0xbf9e5fab	-1.2372946
234	0xc02c1c01	-2.6892092
235	0xc02506b6	-2.5785346
236	0xbf9c4be6	-1.2210662
237	0xbf97a790	-1.1848011
238	0xbf7dd972	-0.9915992
239	0xbe24590d	-0.16049595
240	0x3ee4b018	0.446656
241	0x3e9005ca	0.28129417
242	0x3f538725	0.8262809
243	0xc058a314	-3.3849535
244	0x3ec291c0	0.38001823
245	0x3faec9ce	1.3655336
246	0xc016d514	-2.3567553
247	0x3df85c78	0.12127012
248	0xbeefd645	-0.46843162
249	0xbee96893	-0.45587596
250	0x3f2937ed	0.6610096
251	0x3dd63792	0.10459818
252	0xbf4ebfea	-0.8076159
253	0xbf308abd	-0.689617
254	0x404abf5f	3.1679304
255	0xbf43ebec	-0.76531863

group1.group.1.main.4.weight f4 [16]
0	0x3fc6cddc	1.5531573
1	0x3f299bb1	0.6625319
2	0x3f7e9042	0.9943887
3	0x3fbfa96a	1.4973576
4	0x3f418a81	0.75601965
5	0x3fc32d17	1.5248135
6	0x3f4f0c8a	0.8087851
7	0x3d0381b6	0.032106124
8	0x3f69b20b	0.91287297
9	0x3f836698	1.0265684
10	0x3f0e039f	0.55474275
11	0x3fb02546	1.3761375
12	0x3c518bd2	0.012789683
13	0x3f93198d	1.1492172
14	0x3f944d79	1.1586143
15	0x3f3f141f	0.7464008

group1.group.1.main.4.bias f4 [16]
0	0xc00b1094	-2.1728868
1	0xbf461096	-0.7736906
2	0xbf03f1cf	-0.51540846
3	0xbf6d3355	-0.9265645
4	0xbf591518	-0.8479781
5	0xbf1b1907	-0.60585064
6	0xbf7405d0	-0.9532137
7	0xbf3de83a	-0.74182475
8	0xbd5e5ef8	-0.054289788
9	0xbd776458	-0.06039843
10	0xbe30c871	-0.17263962
11	0xbe87b82b	-0.26507697
12	0x3e34fd5d	0.17674775
13	0xbf006ac9	-0.5016294
14	0xbfad46be	-1.3537214
15	0x3e740a3e	0.23832032

group1.group.1.main.4.running_mean f4 [16]
0	0xc138a029	-11.539102
1	0xc1ad1071	-21.633028
2	0xc0f658e5	-7.6983514
3	0xc140baa6	-12.045568
4	0xc014d249	-2.3253348
5	0xc10bb2fb	-8.731196
6	0xc1d1b655	-26.21403
7	0xc1d5619a	-26.672657
8	0xbfa1194b	-1.2585844
9	0xc2051ec1	-33.280033
10	0xc138999f	-11.537505
11	0xc238c88a	-46.19584
12	0xc184b759	-16.589525
13	0xc159be03	-13.60889
14	0xc2145109	-37.079136
15	0xc20277fc	-32.617172

group1.group.1.main.4.running_var f4 [16]
0	0x4403d2e8	527.2954
1	0x43d60688	428.05103
2	0x43c74c53	398.59628
3	0x440b7936	557.8939
4	0x441b5a98	621.4155
5	0x44129679	586.35114
6	0x440ae957	555.64594
7	0x4458e344	867.551
8	0x44028d3f	522.207
9	0x4414099c	592.15015
10	0x440ba06d	558.50665
11	0x44076886	541.6332
12	0x4400614b	513.5202
13	0x440d5d66	565.45935
14	0x442577e9	661.8736
15	0x441fdb6a	639.42834

group2.group.0.main.0.weight f4 [32, 16, 3, 3]
0	0xbeaf431c	-0.34230888
1	0xc010c0a0	-2.261757
2	0xbfca7de3	-1.5819668
3	0xbf4da185	-0.80324584
4	0xbeb384f7	-0.35062382
5	0x3e9bc5ff	0.30424497
6	0x3edb3cbe	0.4281978
7	0x3f3b440c	0.73150706
8	0x3f54ce5c	0.8312738
9	0x3f9afe6b	1.2108892
10	0x3ea1150d	0.31461373
11	0x3eda8abd	0.42683974
12	0xbfafa0b3	-1.3720917
13	0xbf4e6e51	-0.8063708
14	0x3ebec171	0.3725696
15	0xbf3800d7	-0.7187628
16	0xbe5bd16e	-0.2146661
17	0x3fff2d40	1.9935684
18	0xbfc786cf	-1.5588015
19	0xbfc0fe4e	-1.5077608
20	0xbeb69f8f	-0.3566861
21	0xbdbfea3a	-0.09370847
22	0xbf7aa45e	-0.97907054
23	0x3e0eaa90	0.13932252
24	0x3eac9763	0.3370925
25	0xbf35deeb	-0.7104327
26	0xbe869abb	-0.26289925
27	0x3eaf18a7	0.34198496
28	0x3fbe8809	1.4885265
29	0xbf5dd861	-0.86658293
30	0xbed4838f	-0.4150662
31	0xbf28e24a	-0.6597029
32	0xbf329e6c	-0.6977298
33	0x3f8010ba	1.0005105
34	0xbee7a777	-0.45244953
35	0x3edff538	0.43741775
36	0x4021d3ea	2.5285592
37	0x3fa7dfe6	1.3115203
38	0xbf32f398	-0.69902945
39	0x3f93ef43	1.1557392
40	0x3e107b0d	0.1410944
41	0xbf98921c	-1.1919589
42	0xbfa7acd6	-1.309962
43	0x3fa1f2ff	1.2652282
44	0x3e35b06d	0.17743082
45	0x3f4bab13	0.79557914
46	0x3db97e13	0.0905725
47	0xbf00ddb0	-0.5033827
48	0x40092527	2.1428926
49	0x3f483f06	0.78221166
50	0xbff025b2	-1.8761504
51	0x402a8d61	2.664879
52	0x3f602d30	0.8756895
53	0xbfe60183	-1.7969211
54	0xbeb9b625	-0.36271778
55	0xbf531f71	-0.8246985
56	0xbf8ac47a	-1.084121
57	0x3eaf1c79	0.3420141
58	0xbe75799b	-0.2397217
59	0xbf495fc7	-0.7866177
60	0xc0091f8a	-2.14255
61	0xbf1a15ee	-0.6018971
62	0x3e26e7e2	0.16299394
63	0x3d0033dc	0.031299457
64	0xc01b4402	-2.4260259
65	0x3f51bb8b	0.8192679
66	0xbf7bf125	-0.9841483
67	0xbf57f5c5	-0.8435939
68	0x3f1080cd	0.56446534
69	0xbf44d0ef	-0.7688131
70	0x3f22582a	0.6341578
71	0x3f1ec837	0.62024254
72	0xbfd37e82	-1.6522982
73	0xbf50ff69	-0.81639725
74	0x3f928ed9	1.1449844
75	0xc093c4ee	-4.6177893
76	0xbfcee3a6	-1.6163223
77	0x3f923196	1.1421382
78	0xbf75c474	-0.9600289
79	0xbf1aca3d	-0.6046484
80	0x3fd342f3	1.6504806
81	0x3eb4aa5f	0.35286233
82	0xbe54cdab	-0.20781581
83	0x3e1bc203	0.15210728
84	0x402c614a	2.693438
85	0x3f6cf8d9	0.9256721
86	0xbec28ac4	-0.37996495
87	0x400da518	2.2132015
88	0x3fe46014	1.7841821
89	0xbf953bb7	-1.1658849
90	0xbfd541c7	-1.6660699
91	0xbf5a65db	-0.8531167
92	0xbe8678fd	-0.26264182
93	0x3e7ea6c7	0.24868308
94	0xbf8d99f4	-1.1062608
95	0xc003473c	-2.0512228
96	0x3fac05e5	1.3439299
97	0x401ac3d7	2.418203
98	0x402236c1	2.534592
99	0xbf7cda99	-0.98771054
100	0x3f7ad6f5	0.9798425
101	0xbf789c3b	-0.9711339
102	0xbfcfaf33	-1.6225342
103	0x3fd55a25	1.6668135
104	0xbfaee68b	-1.3664106
105	0xbf9c2e68	-1.2201662
106	0x3f9455ed	1.1588722
107	0xbefaa218	-0.48951793
108	0xbfb0b01a	-1.3803742
109	0xbfb7ed0f	-1.436922
110	0xbf11d0e0	-0.5695934
111	0xbf84f4de	-1.0387228
112	0x3f27bc94	0.6552212
113	0x3f6cbd0f	0.9247598
114	0xbf5a4d3b	-0.85274094
115	0x3fbb07ce	1.4611757
116	0x400e15dd	2.2200844
117	0x3e81bb44	0.25338185
118	0xbe060cc3	-0.13090806
119	0xbec1d07b	-0.3785437
120	0x4003547b	2.0520313
121	0x3f8e03e5	1.1094939
122	0x3fa5fefc	1.296844
123	0x40246dfd	2.5692132
124	0x3f012a71	0.50455385
125	0x3fbc2119	1.4697601
126	0xbe9b07aa	-0.30279285
127	0x3eafc51c	0.3433007
128	0xbf38cf33	-0.7219116
129	0xbf25a528	-0.64705133
130	0x3e05d289	0.13068594
131	0xbf207aa5	-0.6268714
132	0xbf7830c2	-0.969494
133	0x3f090484	0.53522515
134	0x3e9c2281	0.30495074
135	0xbe8fb74e	-0.28069538
136	0x3f989a35	1.192206
137	0x3d69a11b	0.057038408
138	0xbf38a635	-0.7212861
139	0xbf20416d	-0.6259983
140	0x3e70c979	0.23514356
141	0x3f6ab0f3	0.91676253
142	0x400cc5ce	2.199573
143	0x400625d0	2.096058
144	0x3eeba809	0.46026638
145	0x401401cc	2.3126097
146	0x3f9e6416	1.2374294
147	0xc013a0c9	-2.3066885
148	0x401c1ce5	2.4392636
149	0x40652690	3.5804787
150	0x3d85a078	0.065247476
151	0x405bfa87	3.437166
152	0x4027e3d0	2.6232796
153	0x3eade6a0	0.33965015
154	0x3e439860	0.19101095
155	0x3c448a4e	0.011995865
156	0x3f86ab7e	1.0521085
157	0xbe6993f1	-0.22810341
158	0x3f0c1e70	0.54733944
159	0x3f0e0fd9	0.5549293
160	0xbfad99ed	-1.35626
161	0x3f656cb0	0.8961897
162	0x3e8b23b1	0.27175668
163	0x3eb6b8b4	0.35687792
164	0x3fb659a4	1.4246106
165	0xbe4cfae3	-0.2001758
166	0x3fc43556	1.5328777
167	0x3fb7ba95	1.4353815
168	0xbeaa5e3c	-0.3327502
169	0xbe93dcb3	-0.28879318
170	0x3d6343fd	0.05548476
171	0x3f223ea4	0.6337683
172	0x3f8ad1d2	1.0845282
173	0x3fc7ba17	1.5603665
174	0xbf26dcd7	-0.65180725
175	0x3e9f48ef	0.3111033
176	0x3ff7b92d	1.9353386
177	0x3f38a8c2	0.72132504
178	0x3fb17a54	1.3865457
179	0x3f2fdba8	0.68694544
180	0xbff67af9	-1.9256278
181	0xbf286ef3	-0.65794295
182	0x3fb5295c	1.4153247
183	0xc01760aa	-2.365275
184	0x3f68dbcd	0.9096039
185	0x3f973227	1.181218
186	0xbf3a4bf3	-0.7277214
187	0x3f195d8b	0.5990836
188	0x3ec1bc8f	0.3783917
189	0xbf045e99	-0.51706845
190	0xbf0e3207	-0.55545086
191	0x3eccef64	0.4002639
192	0xc0109d32	-2.2595944
193	0x3f3840f2	0.719741
194	0x3fedcb28	1.8577623
195	0xbe528b82	-0.2056103
196	0x3fca5b1b	1.5809053
197	0x3f173ea5	0.5907996
198	0x3f6b9d04	0.9203646
199	0x3fd2e381	1.6475679
200	0x3fc1018f	1.5078601
201	0x3da2c947	0.07948547
202	0x3fd91459	1.6959335
203	0x402e1738	2.7201672
204	0xbec244f3	-0.3794323
205	0x3f16072e	0.58604705
206	0x3e71663e	0.23574159
207	0x3f9f955d	1.2467457
208	0x3fd54162	1.6660578
209	0x3f34d81e	0.7064227
210	0xbf13817a	-0.5761944
211	0xbe95a0e7	-0.2922432
212	0xbf094a1e	-0.5362872
213	0x3ea6271e	0.3245172
214	0x3e15186f	0.14560102
215	0xbf8576ed	-1.0426918
216	0xbede3e5d	-0.43406954
217	0x3f2915a4	0.66048646
218	0x3e8d12f0	0.2755351
219	0x3e5ad07c	0.21368593
220	0x3f2ee29e	0.6831454
221	0xc01349df	-2.3013837
222	0x3faaea5d	1.3352772
223	0xbf6d306d	-0.92652017
224	0xc05d8815	-3.4614308
225	0x3c668d52	0.014071779
226	0x3f4e977d	0.806999
227	0x3f7966e1	0.97422606
228	0x4009f53e	2.1555934
229	0x3f9e8a9f	1.2386054
230	0x3fd93a34	1.6970887
231	0x403e1ba1	2.9704363
232	0x3ee37063	0.44421682
233	0xbe9d9e6e	-0.30784935
234	0xbf911708	-1.1335154
235	0xbf0defab	-0.5544383
236	0x3f003f19	0.5009628
237	0xbf87a3bd	-1.0596844
238	0x3f609ddb	0.8774087
239	0x3ef54cb9	0.47910097
240	0xc01ad9c0	-2.4195404
241	0x3e8095a0	0.25114155
242	0x3f987850	1.1911716
243	0xbe442067	-0.19152986
244	0xbfb64ad2	-1.4241583
245	0x3f34425e	0.7041377
246	0x3e4ccd95	0.20000298
247	0x3ec7d510	0.3902974
248	0xbe8918d0	-0.26776743
249	0xbe36f753	-0.17867784
250	0x3f4dccb1	0.8039046
251	0xbfcc7111	-1.5972005
252	0xc02b4f25	-2.6767056
253	0xbe487ea1	-0.19579555
254	0xbf0e4b55	-0.555837
255	0xbed4e8c4	-0.41583836

group2.group.0.main.1.weight f4 [32]
0	0x40001ca5	2.0017483
1	0x4001a117	2.0254571
2	0x4006cefc	2.1063833
3	0x401b4e16	2.426641
4	0x401983ac	2.3986616
5	0x40041f5b	2.0644138
6	0x4025af86	2.588838
7	0x3fbce1fe	1.4756467
8	0x3fe19f83	1.7626804
9	0x3fa85014	1.3149438
10	0x4004a6ab	2.0726726
11	0x3fa3f7ab	1.2809957
12	0x3ffb7b15	1.9646937
13	0x40136231	2.3028681
14	0x40106202	2.255982
15	0x3f9ad774	1.2097001
16	0x3fb4afcf	1.4116153
17	0x3ffb4b77	1.9632405
18	0x3fd7872c	1.6838126
19	0x402c56e1	2.6928027
20	0x3fb97daf	1.449148
21	0x3fe81ae1	1.8133203
22	0x40148209	2.3204367
23	0x4000aea9	2.0106604
24	0x3fbfc828	1.4982958
25	0x3ff8fb71	1.9451734
26	0x3fb276e6	1.3942535
27	0x3fdfa6a4	1.747273
28	0x3fd18863	1.6369747
29	0x3fcfa6ab	1.6222738
30	0x3fc8f463	1.5699581
31	0x3fe54c63	1.7913936

group2.group.0.main.1.bias f4 [32]
0	0xbf08d84b	-0.53455037
1	0xbf1c67ef	-0.6109609
2	0xbffe97a8	-1.9890032
3	0xbfa04d1b	-1.2523531
4	0xbf109757	-0.56480926
5	0xbf9614d9	-1.1725112
6	0xbfab0030	-1.3359432
7	0xbf271f4f	-0.6528215
8	0xbf757c7c	-0.95893073
9	0xbf4cb7c4	-0.79967904
10	0xbeb523e3	-0.35378942
11	0xbf050942	-0.5196725
12	0xbf43bb2b	-0.7645747
13	0xbf7934e1	-0.9734631
14	0xbf0e1019	-0.55493313
15	0xbe92a66f	-0.28642604
16	0xbf0055e8	-0.5013108
17	0xbf39cdbc	-0.7257955
18	0xbf353c73	-0.70795363
19	0xbf2a1a69	-0.6644655
20	0xbf8c8f53	-1.0981239
21	0xbf882244	-1.0635457
22	0xbfa5e918	-1.296176
23	0xbf6688a2	-0.90052235
24	0xbf5b01c4	-0.8554957
25	0xbea03e1c	-0.31297386
26	0xbf0c32e5	-0.5476516
27	0xbf166e8b	-0.58762425
28	0xbe278c9f	-0.16362236
29	0xbe83e78b	-0.2576259
30	0xbf20b8fb	-0.6278226
31	0xbf3ab32d	-0.7292965

group2.group.0.main.1.running_mean f4 [32]
0	0x4128561c	10.521023
1	0x4156f547	13.434882
2	0x41f33f19	30.40581
3	0x4141c133	12.109668
4	0xc0b706fc	-5.7196026
5	0xc1d24b60	-26.286804
6	0xc2132a22	-36.791145
7	0xc12f13f4	-10.942371
8	0xc2b5ead6	-90.958664
9	0xc28280d0	-65.25159
10	0xc19a70e2	-19.305119
11	0x426ee79f	59.726192
12	0x41b8db3b	23.107046
13	0x41a3cd18	20.475143
14	0x40c3a5d3	6.113992
15	0xc1a28c9a	-20.318653
16	0xbfbd1c3e	-1.4774244
17	0x420dc62d	35.44353
18	0x414993cd	12.598584
19	0xc1b87652	-23.057774
20	0x410389cc	8.221142
21	0x42054c60	33.324585
22	0xc1fe3bee	-31.779263
23	0xc19cef3a	-19.61681
24	0x4051f3a2	3.2804952
25	0xc1dfa9fb	-27.957998
26	0xc2394a26	-46.32241
27	0xc231ef64	-44.48378
28	0xc2663bc6	-57.558372
29	0xc25d0913	-55.25886
30	0xc288778a	-68.233475
31	0xc19cd111	-19.602083

group2.group.0.main.1.running_var f4 [32]
0	0x4496f0a9	1207.5206
1	0x44eb2e2e	1881.4431
2	0x44cc39cc	1633.8062
3	0x44e0720f	1795.5643
4	0x44ea03ee	1872.1228
5	0x452e5bae	2789.73
6	0x450ea99e	2282.601
7	0x44d2b69f	1685.7069
8	0x44cc062b	1632.1927
9	0x452a51bc	2725.1084
10	0x44e0a80d	1797.2516
11	0x44c3a4d8	1565.1514
12	0x44a8f54a	1351.6653
13	0x44d6926f	1716.576
14	0x44d37987	1691.7977
15	0x44ce1c33	1648.8812
16	0x449a2c89	1233.3917
17	0x44ee702f	1907.5057
18	0x44c516af	1576.7089
19	0x45033f4e	2099.9565
20	0x449f955d	1276.6676
21	0x44930bf4	1176.3735
22	0x45058b8f	2136.7224
23	0x44c8abfb	1605.3744
24	0x44e3260a	1817.1887
25	0x44d66716	1715.2214
26	0x4502c6ac	2092.417
27	0x44b6dffb	1462.9994
28	0x450c07fd	2240.4993
29	0x453fc4ed	3068.3079
30	0x455957f4	3477.497
31	0x44e82bb3	1857.3656
