Assignments/06_gnn/1_gnn.pth (torch, 56715 bytes, 12 tensors)

msg_net.0.weight f4 [96, 20]
0	0x3da85f8d	0.0822135
1	0x3e6e5e37	0.23278128
2	0xbc7bc13a	-0.015365893
3	0xbe12f95b	-0.14352934
4	0x3ea00f67	0.3126175
5	0xbe4af2fd	-0.19819255
6	0xbe379026	-0.17926082
7	0x3d9be3ec	0.07611832
8	0x3e73aa4f	0.23795436
9	0xbe14bba0	-0.14524698
10	0xbdf8fac0	-0.12157202
11	0xbd93de46	-0.0722013
12	0xbbdebcc0	-0.006797403
13	0x3e102286	0.1407567
14	0xbda103f5	-0.07862083
15	0x3c702a6b	0.014658551
16	0xbd875090	-0.06607163
17	0x3cd502ef	0.026002375
18	0xbd8bc02a	-0.06823762
19	0x3ce4ad9a	0.02791481
20	0x3dec11f3	0.11526861
21	0xbdb6a1f0	-0.08917606
22	0xbea874f5	-0.3290173
23	0xbe01e411	-0.12684657
24	0xbeab3072	-0.33435398
25	0x3ee2c55a	0.44291192
26	0x3eabb519	0.33536604
27	0x3f10080b	0.5626227
28	0x3d4691e5	0.04847898
29	0xbe07bd0b	-0.13255708
30	0xbe8edaaa	-0.27901202
31	0xbe376da5	-0.1791292
32	0x3e0c569d	0.13704915
33	0xbe1439e9	-0.14475216
34	0x3d5153dc	0.051105365
35	0xbe8976ec	-0.26848543
36	0xbd9c611a	-0.07635708
37	0xbdc43f72	-0.09582414
38	0x3e07c976	0.13260445
39	0x3e874cc9	0.2642577
40	0x3dfd12a5	0.12357072
41	0xbd6b6a6a	-0.05747453
42	0x3c8a6cef	0.016897647
43	0x3d032f0e	0.032027297
44	0xbed27a61	-0.41108993
45	0x3ed44c7b	0.414646
46	0x3d262bdb	0.040569168
47	0x3e7c38c8	0.24631035
48	0xbd799e25	-0.060941834
49	0xbe630780	-0.2217083
50	0xbced1c6b	-0.028944215
51	0x3cf36737	0.029712303
52	0xbdd70808	-0.10499579
53	0x3d9278d3	0.07151952
54	0x3d85f44f	0.06540739
55	0x3ce0ebcc	0.027456187
56	0x3d6668bb	0.056252223
57	0xbdd9fe2e	-0.10644184
58	0x3e21b5ee	0.15792057
59	0x3db46426	0.08808164
60	0xbd4ef706	-0.05052855
61	0xbd272ee3	-0.0408162
62	0xbe3565bc	-0.1771459
63	0x3e93abb3	0.28841934
64	0x3e30600f	0.17224143
65	0xbd93f41a	-0.07224293
66	0xbdd28c72	-0.10280694
67	0x3e7f5a49	0.24936785
68	0x3ebe5365	0.37173
69	0xbe500b82	-0.2031689
70	0xbd9a3508	-0.07529646
71	0xbd93b302	-0.072118774
72	0xbdaa9af4	-0.08330336
73	0xbe5e2b8e	-0.21696302
74	0xbe38901b	-0.18023722
75	0xbd93e233	-0.072208785
76	0xbd92a27b	-0.07159897
77	0x3e081dd2	0.13292626
78	0xbd7ca837	-0.06168386
79	0x3e984081	0.29736713
80	0xbdcbffb7	-0.09960883
81	0x3e470a07	0.19437419
82	0x3e20811f	0.15674256
83	0xbea3bd94	-0.31980574
84	0xbec748b0	-0.38922644
85	0xbcc28f4e	-0.023749974
86	0xbd4a0b65	-0.049327273
87	0xbdaf2cdb	-0.085534774
88	0x3e3c8eb3	0.1841381
89	0xbe00bb24	-0.12571388
90	0xbe46ede9	-0.19426693
91	0x3e45c9c5	0.1931525
92	0xbcb90506	-0.022585403
93	0xbe1a774a	-0.15084568
94	0xbd77b092	-0.060471125
95	0x3e687b37	0.22703253
96	0xbe0e75fe	-0.13912198
97	0x3d14a921	0.036294106
98	0x3e07734d	0.13227578
99	0x3d8d61cf	0.06903421
100	0x3f160918	0.58607626
101	0x3edc46f1	0.43022874
102	0x3d5b944f	0.053608235
103	0xbef5f666	-0.4803955
104	0x3ef089db	0.46980175
105	0xbd422d7f	-0.04740667
106	0x3e99b6a7	0.30022165
107	0xbe7ad6f6	-0.24496064
108	0x3eed222a	0.46315128
109	0x3f105a60	0.563879
110	0x3d495400	0.049152374
111	0x3ca2c43f	0.019868968
112	0x3b76c12e	0.0037651765
113	0xbd3bec83	-0.045879852
114	0xbb80d06c	-0.003931096
115	0xbcd55d57	-0.026045484
116	0xbc3be66b	-0.01146851
117	0xbc62d7c5	-0.013845389
118	0x3c0d290c	0.008615743
119	0x3c9e5d16	0.019331496
120	0xbdc21411	-0.094764836
121	0x3de0207a	0.109436944
122	0xbdad038d	-0.08447943
123	0x3d353712	0.044241972
124	0xbe58c4f8	-0.21168888
125	0x3e444d2d	0.19170065
126	0x3d4f46ba	0.05060456
127	0x3d08efd8	0.033431858
128	0x3c93fb83	0.018064266
129	0xbe0747c4	-0.1321097
130	0x3e366e8a	0.17815605
131	0x3c47c073	0.01219188
132	0xbcc24e59	-0.023719
133	0x3e41da36	0.18930897
134	0xbdb7e04f	-0.0897833
135	0x3e85f8cf	0.26166388
136	0x3e213840	0.15744114
137	0x3dbe6eff	0.092985146
138	0xbe07b6cf	-0.1325333
139	0xbe565389	-0.20930304
140	0xbe63678e	-0.22207472
141	0x3e5a51ba	0.21320239
142	0x3e591372	0.21198824
143	0x3d1c8684	0.03821422
144	0xbe8464aa	-0.2585805
145	0xbdc7598c	-0.097338766
146	0x3d924c32	0.07143439
147	0x3d2bd26a	0.041948713
148	0xbdf0852c	-0.117441505
149	0x3ef8458e	0.48490566
150	0xbdc8ad75	-0.09798709
151	0x3ce1622b	0.02751263
152	0x3dcc155f	0.09965014
153	0x3d3214d0	0.04347688
154	0x3be2cb4d	0.006921208
155	0x3e08ceca	0.13360134
156	0xbda8cabf	-0.08241796
157	0xbd9b8bab	-0.07594999
158	0x3d5cff22	0.05395425
159	0xbc42747d	-0.011868593
160	0xbe73f997	-0.2382568
161	0x3d884c4b	0.06655177
162	0x3e0ef32f	0.13959955
163	0x3d87dedd	0.06634305
164	0x3df4bf94	0.11950603
165	0xbe23404e	-0.15942499
166	0x3e00803b	0.12548916
167	0xbd9ed294	-0.07755008
168	0xbf06292e	-0.52406585
169	0xbdc50357	-0.09619778
170	0x3e01e55d	0.12685151
171	0x3d8e762c	0.06956133
172	0x3ca53926	0.020168852
173	0x3df4a6d4	0.119458824
174	0xbac26050	-0.0014829729
175	0x3e30c5ee	0.17263004
176	0xbe143f6e	-0.14477322
177	0xbd7d1ac9	-0.061793122
178	0x3dd6b03e	0.10482834
179	0x3e0eb501	0.13936235
180	0x3eb70fef	0.35754344
181	0xbeeede55	-0.46654
182	0x3e30adc6	0.1725379
183	0xbe07ded4	-0.13268596
184	0x3dd3a9cb	0.1033512
185	0xbd353a0f	-0.044244822
186	0xbe84d880	-0.25946426
187	0xbc0a8fb2	-0.008457111
188	0xbda3a8d1	-0.079911835
189	0x3cc1c70a	0.02365448
190	0xbe6c4375	-0.23072608
191	0xbd20d297	-0.039263334
192	0xbd2faa62	-0.0428871
193	0xbd55e772	-0.052222677
194	0x3d2dc38a	0.04242281
195	0x3ddcd30c	0.107824415
196	0x3dd2571d	0.10270522
197	0x3e0c86ee	0.13723347
198	0x3d486421	0.048923615
199	0x3d91cfbf	0.071197025
200	0x3e9d600e	0.30737346
201	0xbc042ac1	-0.008066834
202	0x3e285c50	0.16441464
203	0x3e7718ff	0.24130629
204	0xbdcce999	-0.10005493
205	0xbec9b670	-0.39397
206	0x3cc4e266	0.024033736
207	0x3dac37ab	0.08409055
208	0xbe917cf7	-0.28415653
209	0x3ec5a5ec	0.3860315
210	0xbd8da679	-0.06916518
211	0x3dede2f4	0.116155535
212	0x3e13b4b2	0.14424399
213	0x3e48fb83	0.19627194
214	0x3dd1c3e2	0.1024244
215	0x3dd112ea	0.10208686
216	0x3e1e6d8e	0.1547148
217	0xbdafc468	-0.085823834
218	0xbdf3234a	-0.11871965
219	0x3ec06579	0.37577417
220	0x3ea662b2	0.32497174
221	0xbf1067b6	-0.5640825
222	0x3e859eda	0.26097757
223	0x3ee24df8	0.4420011
224	0xbef1c0a4	-0.47217286
225	0xbeaf206e	-0.3420443
226	0x3edb112b	0.42786536
227	0xbee62a23	-0.44954023
228	0x3ef0ae35	0.4700791
229	0xbebc2759	-0.3674877
230	0xbc6ade86	-0.01433528
231	0x3c790ea8	0.015201248
232	0x3d00b532	0.0314228
233	0x3b2b129c	0.0026103621
234	0x3d019a61	0.031641368
235	0xbd1f48b5	-0.0388877
236	0xbd4ac724	-0.04950632
237	0xbc365300	-0.011128187
238	0xbc921056	-0.017830055
239	0x3b341a2c	0.002748142
240	0xbe10c7ab	-0.14138667
241	0xbdb6bdcd	-0.089229204
242	0xbe22581e	-0.15853927
243	0xbd05687a	-0.03257034
244	0xbdca7d5a	-0.0988719
245	0xbe81c1c2	-0.25343138
246	0x3df0eb6b	0.117636524
247	0x3d94065d	0.07227776
248	0x3e99a9fa	0.30012494
249	0xbcd04279	-0.025422322
250	0x3d405a98	0.046961397
251	0xbd34384c	-0.043999
252	0x3dc1dd24	0.09466007
253	0x3e590421	0.21192981
254	0x3e07d828	0.13266051
255	0xbd139d71	-0.03603882

msg_net.0.bias f4 [96]
0	0xbd582127	-0.05276599
1	0xbe883c21	-0.26608375
2	0x3d4665cc	0.048436925
3	0xbde7641a	-0.1129839
4	0xbe1fbe3b	-0.15599911
5	0xbe84e6be	-0.25957292
6	0xbe24c7c6	-0.16091833
7	0xbd72647d	-0.059177864
8	0xbe86b60e	-0.26310772
9	0x3cf35d0e	0.029707458
10	0xbe29088c	-0.16507167
11	0xbec51b2f	-0.38497302
12	0x3c3eb803	0.0116405515
13	0xbd5de84b	-0.05417661
14	0xbd052cf4	-0.032513574
15	0xbd7dcba3	-0.06196178
16	0xbe1f43f1	-0.15553261
17	0xbe00176c	-0.12508935
18	0xbe49064a	-0.19631305
19	0xbcbb1301	-0.02283621
20	0xbd2541a4	-0.040345803
21	0x3d44198e	0.047875933
22	0xbeae938f	-0.34096953
23	0xbe6973b6	-0.22798046
24	0x3db61b19	0.08891887
25	0x3ba061a5	0.0048944526
26	0xbe068ebb	-0.13140385
27	0xbddba7b7	-0.107253484
28	0x3d8aabc4	0.06771043
29	0xbe7bd25b	-0.24591963
30	0x3cddf95e	0.027096447
31	0xbd77d198	-0.06050262
32	0xbe5041ee	-0.2033765
33	0xbe237f32	-0.1596649
34	0xbe5077b4	-0.20358163
35	0xbe3e2f16	-0.1857265
36	0xbe5caaa7	-0.21549474
37	0xbd79fbfa	-0.06103132
38	0x3d4b0b2d	0.049571205
39	0xbdf3fa53	-0.1191298
40	0x3d525448	0.051349908
41	0xbdb41935	-0.0879387
42	0xbdece735	-0.11567537
43	0xbea3f2a3	-0.32021055
44	0xbe1c3280	-0.15253639
45	0xbe236307	-0.15955745
46	0xbd9fcbca	-0.078025416
47	0xbcc66442	-0.024217729
48	0xbe880f18	-0.26574016
49	0xbe9e8466	-0.30960387
50	0xbdfc740c	-0.12326822
51	0x3c7ce225	0.015434776
52	0xbc81bdae	-0.015837517
53	0xbda391c3	-0.07986786
54	0x3d80dbbe	0.062919125
55	0xbe7a67fe	-0.24453732
56	0xbd932734	-0.07185212
57	0xbc9fe0e7	-0.019516421
58	0xbd3cbc21	-0.04607785
59	0xbc201ad2	-0.009772019
60	0xbe803a94	-0.25044692
61	0xbe8ab30b	-0.27089724
62	0xbdf4153b	-0.11918112
63	0xbd45d839	-0.04830191
64	0xbe7475bd	-0.23873039
65	0xbc9e6325	-0.019334385
66	0xbe5bfab5	-0.21482356
67	0xbcf19e40	-0.029494405
68	0x3dfc60ee	0.12323175
69	0xbeabeb24	-0.33577836
70	0xbd29a0c0	-0.04141307
71	0xbd4aca77	-0.04950949
72	0xbd87ec84	-0.06636909
73	0x3c91bfd6	0.01779167
74	0xbc9b75bc	-0.018977039
75	0xbd1df1bf	-0.038560625
76	0xbe5c9ae5	-0.21543463
77	0xbce129d5	-0.027485767
78	0xbe696c0b	-0.22795121
79	0xbe62371e	-0.22091338
80	0x3dc99b4d	0.098440744
81	0xbe82d629	-0.25554016
82	0xbc4860fd	-0.012230155
83	0x3c8a545f	0.016885934
84	0xbe27abae	-0.16374084
85	0xbe2c1b5a	-0.16807309
86	0x3ca8246f	0.020525185
87	0x3d176928	0.03696552
88	0xbc7e92e6	-0.015537953
89	0x3d671d8f	0.056424674
90	0xbd4d1f7c	-0.050078854
91	0xbe99fb71	-0.30074647
92	0xbc1b61a1	-0.009483726
93	0x3d8fe172	0.07025422
94	0xbe3d08cf	-0.18460391
95	0xbd3ce90c	-0.04612069

msg_net.2.weight f4 [96, 96]
0	0x3adc6e03	0.0016817454
1	0xbe9d91b0	-0.30775213
2	0xbe4a6194	-0.19763786
3	0xbda25d69	-0.07927973
4	0x3ba75967	0.005107093
5	0xbdf3b848	-0.11900383
6	0x3cebfc67	0.028806878
7	0xbe2d8ffe	-0.1694946
8	0xbe3a6fab	-0.1820666
9	0x3d296a8c	0.041361377
10	0xbdbf06e5	-0.09327487
11	0xbdd435fa	-0.10361858
12	0x3ddbd399	0.107337184
13	0xbdd821b7	-0.105533056
14	0x3e137bdb	0.14402716
15	0xbe35cd75	-0.17754157
16	0x3deb3a1a	0.11485691
17	0x3cfb3510	0.03066495
18	0xbec545eb	-0.38529906
19	0x3e1201ff	0.14258574
20	0xbcd81e60	-0.026381671
21	0x3d47b613	0.048757624
22	0xbc18b162	-0.009319635
23	0x3dbff13e	0.09372185
24	0xbd890957	-0.066912346
25	0x3db88336	0.090094015
26	0xbf07a847	-0.52991146
27	0x3d89191d	0.06694243
28	0xbb33cff8	-0.0027437191
29	0xbe871d31	-0.2638946
30	0xbca151a0	-0.019692242
31	0xbd703b23	-0.058650147
32	0x3c7c5f9e	0.015403656
33	0xbdc30e1f	-0.09524178
34	0x3d738826	0.059456013
35	0xbd9ad3ab	-0.07559904
36	0xbe01100c	-0.12603778
37	0x3d50def0	0.05099386
38	0x3d221aa5	0.03957619
39	0xbd9231c1	-0.07138396
40	0xbc60d647	-0.013722963
41	0x3e1c0555	0.15236409
42	0xbe57d53f	-0.2107744
43	0xbdac2968	-0.08406335
44	0xbed23ff0	-0.41064405
45	0xbdcf6ff4	-0.10128775
46	0x3c3658f2	0.011129605
47	0x3d3e1a34	0.046411708
48	0xbd52b953	-0.05144627
49	0xbe90c94b	-0.28278574
50	0xbd7b1538	-0.061299533
51	0x3e34f922	0.17673162
52	0x3d092d5e	0.03349053
53	0x3e47851e	0.19484374
54	0x3db5bf1d	0.088743426
55	0xbebe5832	-0.37176663
56	0xbe396c5f	-0.18107747
57	0x3b89c719	0.0042046425
58	0xbd81669d	-0.063184
59	0x3d4ad7cc	0.049522206
60	0xbe2f10a6	-0.17096195
61	0x3d352964	0.044228926
62	0xbe002d94	-0.12517387
63	0xbec2e58a	-0.3806575
64	0x3d52ced2	0.05146677
65	0xbe494138	-0.19653785
66	0x3d24290a	0.0400782
67	0xbce39ad0	-0.027783781
68	0xbe1aac34	-0.15104753
69	0xbe0e196e	-0.13876888
70	0xbcce3fc3	-0.025176888
71	0xbd743f80	-0.05963087
72	0x3e1df4eb	0.1542546
73	0xbdc8ee6f	-0.098111026
74	0x3c03fbf3	0.008055675
75	0x3ce590f1	0.028023215
76	0xbc80a7b3	-0.015704965
77	0xbe67f48e	-0.22651884
78	0x3cac4892	0.021030698
79	0xbcde76a8	-0.02715619
80	0x3d523aaa	0.051325478
81	0xbe071642	-0.13192084
82	0xbd9db501	-0.077005394
83	0x3e404010	0.18774438
84	0xbe554d3f	-0.20830248
85	0x3ddc059a	0.10743256
86	0x3b348679	0.0027545972
87	0x3d3d9f1a	0.04629431
88	0x3d9b6937	0.075884275
89	0xbc999f27	-0.018752648
90	0xbd8bcbbe	-0.0682597
91	0xbeb3abd3	-0.3509203
92	0xbd21139e	-0.03932535
93	0xbc9c7bef	-0.019102065
94	0x3e5b3b1f	0.21409272
95	0xbd2da4ad	-0.042393375
96	0xbb8b0f3c	-0.0042437594
97	0xbc4891c5	-0.012241785
98	0x3d3830de	0.04496848
99	0xbe2365fa	-0.1595687
100	0xbd77dc2c	-0.060512707
101	0x3d113ca1	0.03545821
102	0x3da671fb	0.08127209
103	0x3e080661	0.13283683
104	0xbdb14f55	-0.086577095
105	0xbe1a4f0e	-0.1506922
106	0x3e4acbd8	0.19804323
107	0xbe389fc8	-0.18029702
108	0xbe2f9a85	-0.17148788
109	0x3d72fa61	0.05932081
110	0xbd07f41d	-0.03319179
111	0xbd95d06a	-0.073151425
112	0xbe2ab1ff	-0.16669463
113	0x3d1b7d5b	0.037961345
114	0x3e37c6b0	0.17946887
115	0xbd270390	-0.04077488
116	0xbd9c7bcc	-0.076408
117	0x3da34068	0.07971269
118	0xbedf789b	-0.43646702
119	0xbdec31a7	-0.11532908
120	0xbd85bbf2	-0.06529988
121	0xbdc64b53	-0.09682336
122	0x3dc3c471	0.095589526
123	0x3d5d4b81	0.054027084
124	0xbd719dc3	-0.058988344
125	0x3e164514	0.14674789
126	0x3dc04f1e	0.093900904
127	0xbc306830	-0.010767028
128	0x3d02ff5b	0.031981807
129	0x3e0135e9	0.12618221
130	0xbd795ef7	-0.06088158
131	0xbd5c8a7c	-0.053843006
132	0x3dadf803	0.0849457
133	0x3c5a8e86	0.013339644
134	0xbe93c653	-0.28862247
135	0xbe53b1d8	-0.20673311
136	0xbe35bde3	-0.17748217
137	0x3df9e44d	0.12201748
138	0x3cc1ecec	0.023672543
139	0xbd013b35	-0.031550605
140	0x3df84890	0.12123215
141	0x3b673650	0.0035280176
142	0xbe1a3626	-0.15059718
143	0x3e27defe	0.16393659
144	0xbe20cda2	-0.15703443
145	0xbd6f9ec3	-0.058501016
146	0x3d661871	0.056175653
147	0xbcc93560	-0.024561584
148	0x3d9b54f9	0.075845666
149	0x3dab2be0	0.08357978
150	0xbdbc2852	-0.09187378
151	0xbe1cb56e	-0.15303585
152	0x3dd71269	0.10501558
153	0x3dc14409	0.09436805
154	0xbd24de2f	-0.040250953
155	0xbdfcbcdb	-0.12340709
156	0x3c235f9f	0.009971528
157	0xbe9ff860	-0.31244183
158	0x3dfc94d0	0.12333071
159	0x3b3380be	0.0027389969
160	0xbd3eafcd	-0.046554375
161	0x3d07903c	0.033096537
162	0xbe691405	-0.22761543
163	0xbda0d72c	-0.07853541
164	0xbce70eb1	-0.028205248
165	0x3d2d6a1f	0.042337533
166	0x3d89c5e2	0.06727196
167	0xbd6ca49a	-0.057774164
168	0x3e916fec	0.28405702
169	0x3df21911	0.11821187
170	0xbd4fdd07	-0.050747897
171	0xbcb12ff8	-0.021629319
172	0xbd40a8fc	-0.047036156
173	0x3d8b2b23	0.06795337
174	0xbda67f9f	-0.081298105
175	0xbd563e77	-0.052305665
176	0xbcd69c7a	-0.02619766
177	0x3c043283	0.008068684
178	0x3dbc8c12	0.09206404
179	0x3cfd7d10	0.030943424
180	0xbe46d7b9	-0.19418229
181	0xbcc59d6a	-0.024122912
182	0x3c9f564a	0.019450326
183	0xbde5894c	-0.11207828
184	0xbce9d4ca	-0.028543849
185	0x3d93d840	0.07218981
186	0xbd93cdd5	-0.07216994
187	0x3e031e1f	0.12804459
188	0x3da0e3c9	0.078559466
189	0x3d8785d0	0.066173196
190	0xbe11ff23	-0.14257483
191	0xbcb60cc1	-0.022222878
192	0x3d9df740	0.07713175
193	0xbee271b7	-0.44227383
194	0x3e0df3cf	0.13862537
195	0xbcfdb975	-0.030972222
196	0xbadb9d10	-0.0016755182
197	0x3d6eaf29	0.058272514
198	0x3dbd801d	0.09252951
199	0xbd8d12fa	-0.06888385
200	0xbebe74ac	-0.3719839
201	0x3d3cdf3b	0.046111327
202	0xbd8813bb	-0.06644388
203	0xbe52eb3f	-0.20597552
204	0x3db85c43	0.090019725
205	0xbe38332c	-0.1798827
206	0x3c547355	0.01296695
207	0x3df70632	0.120617285
208	0x3bea65df	0.0071532573
209	0xbd6b9682	-0.057516582
210	0xbef2dacd	-0.47432557
211	0x3d5f163d	0.054464567
212	0xbe4fc4cc	-0.20289916
213	0xbde27210	-0.11056912
214	0xbedf39d9	-0.43598822
215	0x3dd9f1c7	0.106418185
216	0xbe11c05f	-0.1423354
217	0x3e2d8ec8	0.16948998
218	0xbcfedb85	-0.031110534
219	0x3936829a	0.00017405525
220	0x3dbbd1ef	0.09170901
221	0x3c74df5f	0.014945834
222	0x3d72d4b2	0.059284873
223	0x3dd6c2b5	0.10486356
224	0xbd469857	-0.048485126
225	0xbdd22a08	-0.10261923
226	0x3d73737f	0.059436318
227	0xbdbafb32	-0.09129943
228	0x3dc3cbed	0.0956038
229	0xbe1bc2d0	-0.15211034
230	0x3d1ec875	0.03876539
231	0x3e556a4d	0.20841332
232	0x3c94f7f5	0.018184641
233	0x3dfd80f2	0.1237811
234	0x3e68ebce	0.22746202
235	0xbe3d1094	-0.18463355
236	0xbe5b442c	-0.21412724
237	0xbeaffc3f	-0.34372136
238	0x3dc338e9	0.09532339
239	0x3cc6c70c	0.024264835
240	0xbdf7f954	-0.121081024
241	0xbe846d41	-0.25864604
242	0xbeb8058a	-0.35941726
243	0xbd752db3	-0.059858035
244	0x3dc9fa83	0.098622344
245	0xbd91aa94	-0.07112613
246	0xbd6b5f0a	-0.057463683
247	0xbec89258	-0.3917415
248	0xbe3378b4	-0.17526513
249	0xbc9871ad	-0.018608892
250	0x3d84b6e2	0.06480195
251	0xbd59cd9f	-0.05317461
252	0xbce1888e	-0.027530935
253	0x3d7e175e	0.062034003
254	0x3d8c44f0	0.06849086
255	0xb882d635	-6.238782e-05

msg_net.2.bias f4 [96]
0	0xbcf564e7	-0.02995534
1	0x3cc24090	0.023712426
2	0xbd2396a8	-0.0399386
3	0xba5977d9	-0.0008295752
4	0x3ca36fc3	0.019950753
5	0x3c800fbd	0.015632505
6	0xbb760836	-0.0037541515
7	0xbe138dea	-0.14409605
8	0xbe041e9b	-0.129023
9	0x3aa7840a	0.001278044
10	0x3c6f92e8	0.0146224275
11	0x3ce686ca	0.028140444
12	0xbbfd11d8	-0.0077230744
13	0xbbb2d51e	-0.0054575345
14	0x3d13a5bf	0.03604674
15	0x3d1eff87	0.03881791
16	0x3ca603ec	0.020265542
17	0xbdf412e0	-0.119176626
18	0x3d3fb86f	0.04680675
19	0x3cd7e815	0.026355783
20	0xbde6c81f	-0.11268639
21	0x3d1e52b7	0.0386531
22	0x3d480e4c	0.04884176
23	0x3d407507	0.046986606
24	0x3caad390	0.020852834
25	0x3c9e47bb	0.019321313
26	0x3d5a4c97	0.053295698
27	0xbd332de8	-0.04374495
28	0x3dad68af	0.084672324
29	0x3cfe873a	0.03107034
30	0xbce68aef	-0.02814242
31	0x3c7b7694	0.015348095
32	0x37909682	1.7236223e-05
33	0x3ba8ee17	0.0051553356
34	0xbe226e04	-0.1586228
35	0xbc12c385	-0.008957748
36	0x3d120117	0.03564557
37	0xbd7d828c	-0.061892077
38	0x3cbffa16	0.02343468
39	0x3d0cc256	0.03436502
40	0xbbf645e1	-0.0075156544
41	0xbb2ddd52	-0.0026529622
42	0x3cf561bd	0.029953832
43	0xbdc09722	-0.09403826
44	0xbdfe61bd	-0.12420986
45	0x3ae5acdb	0.0017522828
46	0x3d8d6c8a	0.06905468
47	0x3cd226f4	0.02565334
48	0xbcd88eac	-0.026435219
49	0x3c685128	0.014179505
50	0xbc6046cc	-0.013688754
51	0xbcd5fb99	-0.026120948
52	0xbd0ea098	-0.034821123
53	0x3cb95457	0.022623224
54	0x3ce047c8	0.027377978
55	0x3c8728d0	0.016498953
56	0x3d4b45e6	0.049627207
57	0xbce1a9ec	-0.027546845
58	0x3c34c2c1	0.011032761
59	0x3d15430d	0.036440898
60	0x3ca9e966	0.020741176
61	0xbe07b26c	-0.13251656
62	0xbe0517ee	-0.1299741
63	0xbdb689f3	-0.089130305
64	0xbd3db440	-0.046314478
65	0xbc9950aa	-0.018715221
66	0xbbd3017c	-0.006439386
67	0xbdce0c3d	-0.10060928
68	0x3c9c420a	0.019074459
69	0x3bb30ba5	0.0054640346
70	0xbdd922d7	-0.10602348
71	0xbc4234e4	-0.01185343
72	0xbdafad42	-0.08577968
73	0xbc88972f	-0.016673652
74	0x3d387bd0	0.04503995
75	0x3ba11c4f	0.0049167047
76	0xbdbb50e9	-0.09146292
77	0xbdb36305	-0.08759121
78	0x3d571787	0.05251267
79	0xbd5b423c	-0.053529963
80	0xbc429f89	-0.011878856
81	0xbd947c04	-0.072502166
82	0xbcae9e92	-0.021315847
83	0x3cf6d07a	0.030128706
84	0xbd86a7f7	-0.065750055
85	0xbbccc6cf	-0.006249286
86	0xbb4da22a	-0.0031377175
87	0x3d186f63	0.0372156
88	0x3cee3b0e	0.029080894
89	0x3d263aaa	0.04058329
90	0x3d451d1c	0.048123464
91	0xbbd91d21	-0.006625787
92	0x3ac6f0f9	0.0015178017
93	0x3b52a655	0.0032142599
94	0xbd32bbbb	-0.043636065
95	0x3d317748	0.043326646

msg_net.4.weight f4 [11, 96]
0	0x3d09e86c	0.03366892
1	0xbd6645b9	-0.056218836
2	0x3daf8e4c	0.08572063
3	0xbe48d216	-0.19611391
4	0xbd0f9694	-0.035055712
5	0xbcf33075	-0.029686192
6	0xbc236438	-0.0099726245
7	0x3d94df40	0.07269144
8	0x3d104558	0.03522238
9	0xbc708085	-0.014679079
10	0x3dcb8076	0.09936611
11	0xbd35103a	-0.044204928
12	0xbd263d8a	-0.040586032
13	0x3b6aced3	0.0035828843
14	0xbd8cea44	-0.0688062
15	0xbed0da2f	-0.4079146
16	0xbd8b8925	-0.068132676
17	0xbd3e7fdf	-0.046508666
18	0x3da6469b	0.08118936
19	0x3e046fd2	0.12933281
20	0x3d3b3886	0.0457082
21	0xbcf0df0c	-0.029403232
22	0xbb257313	-0.0025245592
23	0x3e3e9259	0.18610515
24	0xbe799626	-0.24373683
25	0x3bc42901	0.0059863334
26	0x3dc2c214	0.09509674
27	0x3c9275bd	0.017878408
28	0x3d397242	0.04527498
29	0xbd17e850	-0.037086785
30	0xbe059446	-0.13044843
31	0x3ca75331	0.020425411
32	0x3cd70545	0.02624763
33	0xbdf09fd6	-0.11749236
34	0xbdd4ee3e	-0.103970036
35	0xbde17aa3	-0.11009719
36	0xbacad98b	-0.001547621
37	0xbdf3936d	-0.118933536
38	0xbceec983	-0.029148823
39	0xbdea4188	-0.1143828
40	0x3e8f21ea	0.27955562
41	0x3c746420	0.01491645
42	0xbe040a2c	-0.12894505
43	0x3ee94f75	0.45568433
44	0x3dab4dc2	0.083644405
45	0x3e93e554	0.288859
46	0xbdc106f0	-0.09425151
47	0xbd35a869	-0.04435006
48	0x3d19f429	0.037586365
49	0x3dbda66f	0.0926026
50	0xbdf11f17	-0.11773508
51	0xbc3404b9	-0.010987454
52	0xbe49df9f	-0.19714211
53	0xbaca9425	-0.0015455527
54	0xbdbed298	-0.09317511
55	0xbb459422	-0.0030148108
56	0xbd975b0f	-0.07390415
57	0xbda248aa	-0.07924016
58	0x3d1c0b54	0.03809674
59	0xbe6da613	-0.23207884
60	0x3cc0cbc0	0.023534656
61	0xbdbcfb6a	-0.09227641
62	0xbd0c9577	-0.03432223
63	0x3dd4479c	0.10365221
64	0xbc40fb10	-0.011778608
65	0x3d9a46d1	0.075330384
66	0xbdd6d6fc	-0.10490224
67	0xbce0fa6d	-0.027463162
68	0xbd1dade5	-0.038495917
69	0x3e892eee	0.26793617
70	0xbd89280d	-0.06697092
71	0xbbf33554	-0.0074221287
72	0xbdb42acb	-0.087972246
73	0xbd0dd629	-0.034628067
74	0xbda325d2	-0.07966198
75	0xbc7079b2	-0.014677452
76	0x3dd513ac	0.10404143
77	0x3de7876e	0.11305128
78	0xbea08630	-0.31352377
79	0x3c91db63	0.017804807
80	0xbd9b5594	-0.07584682
81	0x3df55f8c	0.11981115
82	0xbd896b7e	-0.06709956
83	0xbc3a9030	-0.011386916
84	0xbc60453b	-0.013688381
85	0xbd45cfcd	-0.048293877
86	0x3e320dac	0.17388028
87	0x3d822779	0.06355185
88	0x3f07a8f2	0.52992165
89	0x3e865af2	0.2624126
90	0xbe1fdd4f	-0.15611766
91	0x3c8f13c6	0.017465483
92	0x3db63c33	0.08898201
93	0x3ac71e5b	0.0015191542
94	0x3c6de939	0.014520937
95	0xbdd88203	-0.10571673
96	0x3e1620fe	0.14661023
97	0x3e353c03	0.17698674
98	0x3e1071eb	0.14105956
99	0x3de23491	0.110451825
100	0xbdf19db6	-0.11797659
101	0xbc4edce0	-0.012625903
102	0xbd71c54b	-0.059026044
103	0x3dd0772a	0.10178979
104	0x3d5bcf02	0.053664215
105	0xbdaee438	-0.08539623
106	0x3e5add63	0.21373515
107	0x3dfccf33	0.123442076
108	0x3ebdae39	0.37046984
109	0xbbd62c09	-0.006536011
110	0x3e14f828	0.14547789
111	0xbf4c98a2	-0.799204
112	0x3e1b0d3e	0.1514177
113	0xbd3df526	-0.04637637
114	0x3c70c216	0.014694711
115	0xbd1ca289	-0.038240943
116	0x3db36567	0.08759575
117	0xbdf87143	-0.12130978
118	0x3d675a96	0.056482874
119	0x3c9de5b9	0.01927458
120	0x3eb89917	0.36054298
121	0x3e8b72e5	0.27236095
122	0xbd564a9b	-0.052317243
123	0x3e183e3c	0.1486749
124	0xb97dcc67	-0.00024204106
125	0x3dadd940	0.08488703
126	0xbdc1702e	-0.09445225
127	0x3ca4fef9	0.020141112
128	0xbaf5977c	-0.0018737162
129	0xbdae17c5	-0.085006274
130	0xbb227017	-0.002478605
131	0xbdad205e	-0.08453439
132	0xbd0f156c	-0.03493254
133	0xbd889f4d	-0.06671009
134	0x3b6d8328	0.0036241505
135	0xbd907a43	-0.070545696
136	0x3d7bdfd1	0.061492745
137	0x3e10c9cd	0.14139481
138	0x3ddeb37b	0.10874077
139	0x3dd19689	0.102337904
140	0xbda3d03f	-0.07998704
141	0x3db18a02	0.08668901
142	0x3e06915c	0.13141388
143	0x3cb47540	0.022028565
144	0xbc49779d	-0.012296584
145	0x3d0a1102	0.033707626
146	0xbd7ce8fb	-0.061745625
147	0x3bbb7ab5	0.005721415
148	0x3ea1d153	0.31605014
149	0x3dbfc793	0.09364238
150	0xbe7cf5d4	-0.24703151
151	0x3e16f920	0.14743471
152	0xbe7356c8	-0.23763573
153	0x3db6eee1	0.08932281
154	0x3e40966b	0.1880738
155	0xbd7411f3	-0.05958743
156	0xbe0fcf22	-0.14043859
157	0x3d350159	0.04419074
158	0x3d5efefe	0.0544424
159	0x3cf67d9f	0.030089198
160	0x3ad3bf80	0.0016155094
161	0xbc9e4708	-0.01932098
162	0x3e8e1ea9	0.27757767
163	0xbc974d85	-0.018469581
164	0xbdb39e55	-0.08770434
165	0xbd1514a1	-0.036396626
166	0xbe1bc80f	-0.15213035
167	0x3e3233cd	0.17402573
168	0xbe1925e6	-0.14955863
169	0x3d8ed29f	0.069737665
170	0x3e633f68	0.22192156
171	0x3d53a7c4	0.051673666
172	0xbd4ac132	-0.04950065
173	0x3db79eed	0.089658596
174	0x3ec2eccf	0.38071296
175	0x3d4e3f36	0.05035325
176	0x3e602e83	0.21892743
177	0xbe29c9d1	-0.16580893
178	0x3e095bae	0.1341388
179	0x3dd75b97	0.10515516
180	0xbd890111	-0.066896565
181	0x3db3cf54	0.08779779
182	0xbd698753	-0.05701382
183	0x3b15542c	0.0022785766
184	0x3e20b225	0.15692957
185	0x3d1d2238	0.03836271
186	0x3e3e3fc8	0.18579018
187	0xbc9cfabf	-0.019162534
188	0x3d8d1b7c	0.06890008
189	0x3cdca3e2	0.026933614
190	0x3dbac482	0.09119512
191	0xbe69f54a	-0.22847477
192	0x3e2971e6	0.16547355
193	0x3d750ad3	0.059824776
194	0xbcf63346	-0.030053746
195	0x3e5e37ec	0.2170102
196	0xbca14958	-0.019688293
197	0x3c857788	0.016292349
198	0x3d2a60b9	0.04159615
199	0x3e12afec	0.14324921
200	0xbc83efda	-0.016105581
201	0x3ddf7f90	0.109130025
202	0xbe5aeb3b	-0.21378796
203	0x3e01bb25	0.12669046
204	0x3d7128f7	0.058876958
205	0xbe018e7a	-0.12652007
206	0xbc9bdc7e	-0.019026037
207	0xbe1f1e5b	-0.15538923
208	0xbdd2765d	-0.10276482
209	0xbdcb9487	-0.09940439
210	0xbdb08115	-0.086183704
211	0x3dc7e92f	0.09761273
212	0xbc9c769d	-0.019099528
213	0x3d58afac	0.05290191
214	0x3d0b03b0	0.033939064
215	0xbd2524fe	-0.04031848
216	0xbc64d08e	-0.013965739
217	0xbe6a87ff	-0.22903441
218	0xbdc1443f	-0.09436845
219	0x3d8ffe59	0.07030935
220	0xbdd48eb4	-0.10378781
221	0x3dc4ca3e	0.09608887
222	0x3d25b1e4	0.040452853
223	0xbcbeb3aa	-0.02327903
224	0xbdbe9e25	-0.093075074
225	0x3dd19133	0.10232773
226	0xbd7c0157	-0.061524715
227	0x3e0ac5ba	0.13551989
228	0x3e8a5fce	0.27026218
229	0x3d2c6c73	0.042095613
230	0xbc85f8aa	-0.016353924
231	0xbd424261	-0.047426585
232	0x3ed0e94f	0.40803
233	0x3d8f0fe6	0.06985454
234	0x3dd70cdb	0.10500499
235	0xbdee8c96	-0.116479084
236	0xbcabe23f	-0.020981906
237	0x3e18a5d8	0.14907014
238	0x3dccbc12	0.09996809
239	0x3cdfa370	0.027299613
240	0x3db69fbc	0.08917186
241	0x3d37932e	0.044818096
242	0x3d0763f3	0.033054303
243	0x3cb8f477	0.022577507
244	0xbe0338d9	-0.12814654
245	0x3d9c829e	0.07642101
246	0x3c1f9692	0.009740489
247	0xbcd95505	-0.026529798
248	0x3f37ccc0	0.717968
249	0x3e2b4d78	0.1672877
250	0xbd9a9e17	-0.075496845
251	0x3ddd804d	0.10815487
252	0x3ec19422	0.3780833
253	0x3b9e5f0a	0.004833107
254	0x3d4a2366	0.049350165
255	0x3d265135	0.04060479

msg_net.4.bias f4 [11]
0	0xbc8c71e5	-0.017144153
1	0x3cabd0d0	0.020973593
2	0x3a4d01d3	0.0007820401
3	0x3b6e0d02	0.0036323671
4	0xbd03da2c	-0.032190487
5	0x3aafc030	0.0013408717
6	0x3c61c5eb	0.0137800975
7	0x3ca32a31	0.01991758
8	0x3b37e237	0.0028058419
9	0xbac16177	-0.0014753778
10	0xbc40ab30	-0.011759564

gru.weight_ih_l0 f4 [30, 20]
0	0x3d345639	0.04402754
1	0x3c68bdc6	0.014205402
2	0xbed9b539	-0.42521074
3	0x3ec1e7b1	0.3787208
4	0xbe315a9a	-0.17319718
5	0xbed4dca1	-0.41574576
6	0x3cc514bf	0.024057744
7	0xbbeeac7d	-0.007283746
8	0xbe420ea2	-0.18950894
9	0x3e6c6f6d	0.2308938
10	0x3f0b92bb	0.5452077
11	0xbe9ac78e	-0.30230373
12	0xbe56a7e8	-0.20962489
13	0x3f774bcf	0.9660005
14	0xbf4e93e9	-0.80694443
15	0x3e956769	0.29180458
16	0x3f5e6a38	0.86880827
17	0x3ebdb62c	0.3705305
18	0xbee306b8	-0.44341063
19	0x3e49ee29	0.19719757
20	0xbdd973f2	-0.10617818
21	0x3e03ddba	0.1287755
22	0x3e31c99f	0.17362069
23	0xbeab274f	-0.33428428
24	0xbd3bdc45	-0.045864362
25	0xbcd4c173	-0.02597115
26	0xbed2ceef	-0.41173503
27	0x3ed9a148	0.4250586
28	0xbdb7e735	-0.08979646
29	0xbe489848	-0.1958934
30	0xbeccf0d7	-0.40027496
31	0xbec58931	-0.3858123
32	0xbf2afcc2	-0.6679193
33	0x3e6d7b79	0.23191632
34	0x3ec27175	0.37977186
35	0x3d8a87bb	0.0676417
36	0xbf517d1e	-0.8183154
37	0xbf0abd17	-0.5419478
38	0xbd9ccda6	-0.07656412
39	0x3e984357	0.29738876
40	0xbe349096	-0.1763328
41	0x3e85ef4a	0.26159126
42	0xbe141d6f	-0.14464353
43	0xbe329af8	-0.17441928
44	0x3e14cc49	0.14531054
45	0xbe3123ca	-0.17298809
46	0xbd1b5f70	-0.037932813
47	0xbe86862c	-0.2627424
48	0x3e1be4d5	0.15224011
49	0xbe8f28d6	-0.27960843
50	0x3e891c2e	0.26779312
51	0x3fb6e5f1	1.4288923
52	0xbeeb38c0	-0.45941734
53	0x3f2e7647	0.68149227
54	0xbf3aca33	-0.7296478
55	0x3ee6f509	0.45108822
56	0xbe331b12	-0.17490795
57	0xbe8bbee7	-0.27294084
58	0x3efa7b09	0.48921993
59	0xbe5d7cdd	-0.21629663
60	0xbe8d7ef1	-0.2763591
61	0x3e3844b3	0.17994957
62	0xbe2ef53d	-0.17085738
63	0x3e9b3622	0.30314738
64	0xbe64a6d1	-0.2232926
65	0x3ecf1f38	0.40453506
66	0x3e08da6f	0.13364576
67	0x3e811300	0.25209808
68	0xbf20f448	-0.62872744
69	0x3d8c53ee	0.06851946
70	0xbedf4201	-0.43605044
71	0x3f7dbfa1	0.9912053
72	0xbf6bb2e5	-0.92069846
73	0x3f965f96	1.174792
74	0x3fa24af7	1.2679127
75	0xbf842823	-1.0324749
76	0x3f7339ad	0.9500988
77	0xbf82048a	-1.0157635
78	0xbe3a4a7a	-0.18192473
79	0xbf1482ed	-0.58012277
80	0x3eca2feb	0.39489684
81	0x3dc7b395	0.097510494
82	0x3e18736d	0.14887781
83	0x3e068888	0.1313802
84	0x3e69c3fa	0.22828665
85	0xbd808387	-0.06275087
86	0xbd92d6e5	-0.07169894
87	0xbf5dda08	-0.86660814
88	0x3e3a0626	0.18166408
89	0xbe1d0036	-0.15332112
90	0x3ea60d50	0.32432032
91	0xbf613759	-0.8797508
92	0x3fa4f145	1.288613
93	0x3db2885d	0.087174155
94	0x3f82d24a	1.0220425
95	0xbf5ef511	-0.8709269
96	0x3f2461ca	0.64211714
97	0x3d302707	0.04300597
98	0xbea2215b	-0.31666073
99	0x3f1c0d6b	0.60957974
100	0xbe839380	-0.2569847
101	0xbe8748e1	-0.2642279
102	0xbee1c697	-0.44096825
103	0x3e89034c	0.26760328
104	0xbee97a66	-0.45601195
105	0xbe099b5e	-0.13438174
106	0x3e57305b	0.2101454
107	0xbf14af50	-0.58080006
108	0xbf147a93	-0.57999533
109	0xbd49ac99	-0.049236868
110	0x3ea03bbf	0.31295583
111	0xbd72c8d6	-0.059273563
112	0xbf003cce	-0.5009278
113	0x3d8cd8f1	0.06877316
114	0xbf0daf7c	-0.5534589
115	0xbf35b87d	-0.7098463
116	0xbd6bc16d	-0.057557512
117	0x3fab9bd6	1.3406932
118	0xbf3473f0	-0.70489407
119	0x3f171005	0.5900882
120	0x3d97fb97	0.07421034
121	0xbea86b2b	-0.32894263
122	0xbce653f6	-0.028116208
123	0xbe9aba01	-0.30220035
124	0xbe1bf6d0	-0.1523087
125	0x3eaf11e9	0.34193352
126	0xbf0f2c11	-0.55926615
127	0x3e92de27	0.28685114
128	0x3cadb04d	0.02120223
129	0x3d4cb1b2	0.04997415
130	0x3dee42f4	0.11633864
131	0xbeb5afc6	-0.35485667
132	0xbf83f3a1	-1.0308725
133	0xbf8c4345	-1.0958029
134	0x3f1b417c	0.60646796
135	0x3f028662	0.509863
136	0x3f1f53bd	0.6223715
137	0x3eacd52f	0.33756396
138	0x3f9c2503	1.2198795
139	0xbf35e5bf	-0.7105369
140	0x3d2a8431	0.041629974
141	0xbeabecaf	-0.33579013
142	0x3e67a116	0.22620043
143	0xbe80f019	-0.2518318
144	0x3dec40b2	0.11535777
145	0x3ac28c24	0.001484279
146	0xbe719e87	-0.2359563
147	0x3e9f4bb8	0.31112456
148	0x3e8fd1f9	0.28089884
149	0x3e72bdc9	0.2370521
150	0xbe11e1eb	-0.14246337
151	0xbf058d39	-0.52168614
152	0xbf674590	-0.9034052
153	0xbf1022f4	-0.56303334
154	0x3f3bc1ff	0.7334289
155	0x3f070802	0.52746594
156	0x3ed86c40	0.42270088
157	0xbf0064e2	-0.50153935
158	0xbeac3ebe	-0.33641618
159	0x3f29f76c	0.6639316
160	0xbf481f48	-0.7817273
161	0x3e86cb61	0.2632704
162	0x3e857dba	0.26072484
163	0xbb7155e5	-0.0036824879
164	0x3dbc4a5d	0.09193871
165	0xbe63a7f9	-0.22232045
166	0x3e3c7abf	0.18406199
167	0xbe62d893	-0.22152929
168	0xbf2e3c43	-0.680607
169	0x3f3c96b6	0.73667467
170	0xbd22a5bb	-0.039708834
171	0x3f51aa80	0.8190079
172	0x3f3692b6	0.71317613
173	0xbf6797be	-0.90465915
174	0xbf663111	-0.8991862
175	0x3f294cb8	0.6613269
176	0x3e83c520	0.25736332
177	0xbf8544d2	-1.0411627
178	0xbec05cc6	-0.3757078
179	0x3e7e7d20	0.24852419
180	0xbf100838	-0.5626254
181	0xbed2b6e8	-0.4115517
182	0x3d8e0154	0.06933847
183	0xbcd43ee7	-0.0259089
184	0xbe0afbd1	-0.13572623
185	0xbe24b6d6	-0.16085371
186	0x3d46d1b5	0.048539836
187	0xbf22ef30	-0.6364622
188	0x3e3fe272	0.18738726
189	0xbd93eee5	-0.072233
190	0x3eb34222	0.35011393
191	0x3e9d6394	0.30740035
192	0x3f7bf469	0.98419815
193	0x3eabd284	0.33559048
194	0x3ed9c81a	0.42535478
195	0x3f82d826	1.0222213
196	0xbf36e0f6	-0.71437013
197	0x3e8767c4	0.26446354
198	0xbf923d22	-1.1424906
199	0xbf641f9f	-0.8911075
200	0x3f0c2561	0.54744536
201	0xbe78c856	-0.24295172
202	0xbf0b20c7	-0.5434689
203	0x3dd3d011	0.1034242
204	0x3e80d6c6	0.2516386
205	0x3f560403	0.8359987
206	0x3dafe47e	0.08588503
207	0xbeb54bee	-0.35409492
208	0x3f15f7ce	0.58581245
209	0xbe735512	-0.2376292
210	0x3f918aa4	1.1370435
211	0xbe4f3210	-0.20233941
212	0x3f2e438e	0.6807183
213	0xbdfd721a	-0.12375279
214	0xbee10966	-0.43952483
215	0x3dd4c185	0.103884734
216	0xbe692dbc	-0.22771353
217	0x3dadc223	0.08484294
218	0xbeccb7d2	-0.39983994
219	0xbc06822c	-0.008209746
220	0xbe77aa75	-0.24186118
221	0xbf3b9266	-0.7327026
222	0xbeb6b5e4	-0.35685647
223	0x3e3498f4	0.17636472
224	0xbd8a8a25	-0.0676463
225	0x3e85ca45	0.26130882
226	0xbe9a6991	-0.30158666
227	0xbf67c9f7	-0.9054255
228	0x3f6d0676	0.92587984
229	0xbf1a6619	-0.6031204
230	0x3f47a921	0.77992445
231	0xbed5681b	-0.4168099
232	0xbecb8122	-0.39746958
233	0xbe0565f3	-0.13027172
234	0x3ef60e72	0.48057896
235	0xbe9516e5	-0.2911903
236	0xbeda91f4	-0.42689478
237	0xbe00a34a	-0.1256229
238	0xbe0f360d	-0.13985462
239	0x3e93e043	0.28882036
240	0x3e844713	0.25835475
241	0xbf7f902e	-0.99829376
242	0xbf13752d	-0.5760067
243	0xbe5ec027	-0.21752988
244	0x3e4d3db5	0.2004307
245	0x3f506978	0.8141093
246	0x3cfeed39	0.031118976
247	0x3ea2a4c5	0.31766334
248	0xbdcb6fe3	-0.0993345
249	0xbe924f30	-0.2857604
250	0x3f4f97f8	0.8109126
251	0x3d8fc229	0.07019455
252	0x3d619cb6	0.05508109
253	0xbe1917dc	-0.14950508
254	0xbecdc0ab	-0.40186056
255	0xbd8db7e2	-0.069198385

gru.weight_hh_l0 f4 [30, 10]
0	0x3e6b6b2e	0.22990105
1	0x3ce809bb	0.028324952
2	0xbdd3f16b	-0.10348781
3	0xbe237680	-0.15963173
4	0xbe8be5cb	-0.27323756
5	0x3e8dee27	0.27720758
6	0xbe18f512	-0.14937237
7	0x3dc0b06d	0.094086505
8	0x3db4d015	0.08828751
9	0x3e046b7f	0.12931632
10	0xbd97ff32	-0.074217215
11	0x3ef36ea2	0.47545344
12	0x3d96ec8c	0.073693365
13	0x3eceb9cf	0.40376136
14	0xbe945bfe	-0.28976434
15	0x3da8be68	0.08239442
16	0xbe090485	-0.1338063
17	0x3e041f47	0.12902556
18	0xbec4d32a	-0.38442355
19	0xbda3389f	-0.07969784
20	0x3ebd740e	0.37002605
21	0x3e22b577	0.15889536
22	0xbe4cfe94	-0.20018989
23	0x3e3fe4dc	0.18739647
24	0xbef068d8	-0.4695499
25	0x3e597dc5	0.21239384
26	0xbef73e00	-0.4828949
27	0x3e96e306	0.2947008
28	0xbe189aeb	-0.14902847
29	0x3c59fd77	0.01330506
30	0xbe30aa3b	-0.17252438
31	0x3cdf301d	0.027244622
32	0xbdbf77f4	-0.09349051
33	0xbebb5c5d	-0.36593905
34	0xbe064b16	-0.1311458
35	0xbdb2d39d	-0.08731768
36	0xbe8e2ec3	-0.2777005
37	0xbd8ddf2e	-0.06927334
38	0x3c0d84ec	0.008637648
39	0xbe3b4349	-0.18287386
40	0xbda504c6	-0.08057551
41	0xbd91de8f	-0.07122528
42	0x3c623c79	0.013808363
43	0xbcd0b79e	-0.02547818
44	0x3dcfdcb1	0.101495154
45	0x3cc74e4d	0.024329329
46	0xbe764572	-0.24049929
47	0xbd8f90b9	-0.070100255
48	0x3dce2f93	0.10067668
49	0x3e79def0	0.2440145
50	0x3e0653b0	0.13117862
51	0xbc4b7fbb	-0.01242059
52	0xbd0c1cf5	-0.034207303
53	0x3dcbc5a0	0.09949803
54	0xbe808023	-0.2509776
55	0x3eba6fec	0.36413515
56	0x3e06c9af	0.13162874
57	0x3e3ae9d6	0.18253264
58	0xbecc703f	-0.39929387
59	0xbdfbc0e4	-0.1229265
60	0x3ec88874	0.39166605
61	0xbdbb6927	-0.091509156
62	0xbe708b3f	-0.23490618
63	0xbd964d2e	-0.073389396
64	0xbea6aa92	-0.3255201
65	0xbe4cce8d	-0.20000668
66	0xbe1369f8	-0.14395893
67	0x3d81400b	0.06311043
68	0xbe00c65a	-0.12575665
69	0x3eb2d682	0.3492928
70	0x3d945158	0.072420776
71	0xbe4b424a	-0.19849506
72	0x3c087fc7	0.008331246
73	0xbdcdd747	-0.100508265
74	0xbdeb19da	-0.1147954
75	0xbe1efb20	-0.15525484
76	0x3e00c0a1	0.12573482
77	0xbec287ef	-0.37994334
78	0x3e33ea38	0.17569816
79	0x3e43ae35	0.19109423
80	0x3e07c999	0.13260497
81	0xbdb916fb	-0.09037586
82	0x3e258a4c	0.16166037
83	0xbc0e9928	-0.0087035075
84	0xbb8df899	-0.0043326137
85	0x3db64d98	0.089015186
86	0x3d3e4478	0.046452016
87	0xbdbb1d57	-0.091364555
88	0x3d6731cc	0.056443974
89	0xbdff06ce	-0.1245247
90	0xbe00afc6	-0.12567052
91	0xbe842e5d	-0.25816622
92	0xbf150d0a	-0.5822302
93	0x3e826e45	0.25474754
94	0xbd8407b1	-0.064467795
95	0x3eb352c7	0.35024092
96	0xba893568	-0.0010468187
97	0xbe64b728	-0.22335494
98	0x3dc1dd4b	0.094660364
99	0x3d90d75c	0.070723265
100	0xbd9282d3	-0.07153859
101	0xbe7c8a86	-0.24662217
102	0xbf79fa9a	-0.9764801
103	0xbef822cb	-0.48464045
104	0x3e717c77	0.23582636
105	0xbc848f69	-0.016181665
106	0xbf10f58b	-0.5662467
107	0x3dbf21e9	0.0933264
108	0xbdbf80d1	-0.09350742
109	0x3f0e1c30	0.5551176
110	0xbcaf1dcd	-0.021376515
111	0xbec5eec5	-0.3865873
112	0xbf3f59a4	-0.74746156
113	0xbbe86773	-0.0070924102
114	0xbdaf7dda	-0.08568926
115	0xbe421e40	-0.18956852
116	0xbe0b6ff5	-0.13616927
117	0x3e7f5a5f	0.24936818
118	0xbe0d4f92	-0.13799885
119	0x3f17ba70	0.59268856
120	0xbebddb83	-0.37081537
121	0x3e487548	0.19575989
122	0xbf047e3b	-0.5175511
123	0xbee43cca	-0.44577628
124	0xbf322998	-0.6959472
125	0x3db98142	0.09057857
126	0xbee8aa58	-0.45442462
127	0x3efd47f3	0.49468955
128	0xbea578a6	-0.3231861
129	0x3f1e498e	0.61830986
130	0xbf6e791c	-0.9315355
131	0x3eb7d921	0.35907844
132	0x3ea8d58c	0.32975423
133	0xbfc0adf9	-1.5053092
134	0xbf90cfe0	-1.1313438
135	0x3f3d72b9	0.7400318
136	0xbe815951	-0.25263456
137	0x3eed81cc	0.4638809
138	0x3f16b300	0.5886688
139	0x3df1786a	0.11790545
140	0xbdf1b989	-0.11802966
141	0xbddd06c4	-0.10792306
142	0xbf70a300	-0.9399872
143	0xbf41cb2e	-0.7570065
144	0xbe7d65e7	-0.24745904
145	0xbd96077d	-0.07325647
146	0xbe407ed9	-0.18798389
147	0xbe90dbbc	-0.28292644
148	0xbf28b261	-0.65897185
149	0x3e8057b8	0.25066924
150	0x3ebc9f7e	0.36840433
151	0xbea2fb2c	-0.31832254
152	0xbf0cc892	-0.54993546
153	0xbe96a4da	-0.29422647
154	0xbdd268fc	-0.102739304
155	0xbe915b11	-0.2838979
156	0xbd6ab972	-0.05730576
157	0x3d54a1ab	0.05191199
158	0x3e73e6c6	0.23818502
159	0x3f4dbc6d	0.8036564
160	0xbebd9528	-0.3702786
161	0x3d669d5f	0.056302425
162	0xbe59d363	-0.21272044
163	0xbf1cc821	-0.6124287
164	0xbf4cbcfd	-0.79975873
165	0x3ead5898	0.33856654
166	0xbecabd75	-0.3959767
167	0x3f05c543	0.5225412
168	0xbe803a32	-0.250444
169	0x3f294089	0.661141
170	0xbe24c0e8	-0.16089213
171	0x3e91536c	0.28383958
172	0xbe04e757	-0.12978874
173	0xbf00983a	-0.5023228
174	0xbf06bee4	-0.52635026
175	0x3f5f2786	0.8716968
176	0xbe4fccd6	-0.20292982
177	0x3e214a18	0.15750921
178	0x3eaaaafc	0.33333576
179	0x3ed89ca0	0.42306995
180	0x3e2b9ece	0.16759798
181	0xbe97bb6f	-0.29635188
182	0xbf1369f5	-0.5758355
183	0xbe3d2826	-0.18472347
184	0xbe2def0a	-0.16985717
185	0x3ee3452e	0.44388717
186	0xbe92b187	-0.28651068
187	0xbd41df4a	-0.047332086
188	0xbb3776e1	-0.0027994441
189	0x3f3ed4d9	0.7454353
190	0x3e90a2a1	0.28249076
191	0xbca453bc	-0.020059459
192	0xbe32ef46	-0.17474088
193	0xbe448277	-0.19190393
194	0xbebdb65d	-0.37053195
195	0xbdbb7a60	-0.091542006
196	0x3d43522c	0.047685787
197	0x3d6c3313	0.057665896
198	0xbeebf69c	-0.46086586
199	0x3eb63480	0.3558693
200	0x3d61b3c9	0.055103097
201	0x3c9a1acc	0.018811606
202	0xbd86de0d	-0.065853216
203	0x3d909f93	0.07061686
204	0xbd47269b	-0.0486208
205	0x39d8c3be	0.0004134457
206	0x3e3bb064	0.18329006
207	0x3e172b13	0.14762525
208	0x3d3979cb	0.045282166
209	0x3c2e19e2	0.010626288
210	0xbda106c9	-0.07862622
211	0x3df9e15b	0.12201186
212	0xbd3d7d21	-0.04626191
213	0xbd75118b	-0.059831183
214	0x3b1c7eae	0.0023879218
215	0xbcc0b654	-0.02352444
216	0x3e2ea814	0.17056304
217	0x3e193d5a	0.1496481
218	0x3d69bf1b	0.057067018
219	0x3d2bd281	0.0419488
220	0x3c9227aa	0.017841179
221	0xbe704ed5	-0.23467572
222	0x3d5b86bb	0.053595286
223	0x3bcb6e02	0.0062081823
224	0x3e3cd2de	0.18439814
225	0xbe2b13e6	-0.1670681
226	0x3d9c6a4a	0.076374605
227	0x3ccb45ae	0.0248135
228	0xbdb0ad09	-0.08626754
229	0x3e51315b	0.20428984
230	0x3d75a26a	0.059969343
231	0xbdacb258	-0.08432454
232	0xbe43f6b2	-0.19137076
233	0x3e921e07	0.28538534
234	0xbe06e011	-0.13171412
235	0x3cec19a7	0.028820826
236	0x3dab5d96	0.083674595
237	0x3cf0f041	0.029411437
238	0xbd3a4411	-0.04547507
239	0xbd13aa57	-0.03605112
240	0xbcb71e36	-0.022353273
241	0x3de97a0b	0.11400231
242	0xbc888ef1	-0.016669722
243	0x3cff881b	0.03119283
244	0x3ce1cf60	0.027564704
245	0xbca36e00	-0.019949913
246	0x3d82643b	0.06366774
247	0xbe15898a	-0.14603248
248	0xbd2d7532	-0.042348094
249	0xbdef11e8	-0.11673337
250	0x3e5db9f2	0.21652964
251	0x3e85f672	0.26164585
252	0x3ddab16c	0.10678372
253	0x3e6e6990	0.23282456
254	0x3dba99d7	0.09111374
255	0x3d89f92f	0.06736981

gru.bias_ih_l0 f4 [30]
0	0xbec85363	-0.3912612
1	0xbe2925e1	-0.16518356
2	0xbdd2a4aa	-0.102853134
3	0xbe677ef1	-0.22607018
4	0x3da6835b	0.08130523
5	0xbead4f0b	-0.33849367
6	0xbe3097f8	-0.17245471
7	0xbe804ce4	-0.25058663
8	0x3e4a6272	0.19764116
9	0xbe411946	-0.18857297
10	0xbe8aaccf	-0.27084967
11	0x3ca0c9dd	0.019627506
12	0xbded6196	-0.11590879
13	0xbea58281	-0.3232613
14	0x3cbf0f7a	0.02332281
15	0xbd681cfb	-0.056668263
16	0xbe186efb	-0.14886086
17	0x3c9309ae	0.017948952
18	0xbdd26a57	-0.10274189
19	0xbe25d340	-0.16193867
20	0xbe2d8e56	-0.16948828
21	0xbdce621c	-0.10077307
22	0xbd7cb8c3	-0.06169964
23	0x3e69d815	0.22836335
24	0x3db3c169	0.087771244
25	0x3e48cb9c	0.19608921
26	0xbcaf25c8	-0.02138032
27	0xbc52cfdc	-0.01286694
28	0xbe92343d	-0.2855548
29	0xbd10d897	-0.035362806

gru.bias_hh_l0 f4 [30]
0	0xbe376806	-0.17910776
1	0x3dc41b8e	0.09575568
2	0x3dfd7927	0.123766236
3	0xbd2455e5	-0.040120978
4	0xbcc76dff	-0.024344442
5	0xbef48385	-0.4775659
6	0x3c0f4303	0.008744004
7	0x3e5a33c7	0.21308814
8	0x3eb6f27a	0.3573187
9	0xbe272602	-0.16323093
10	0x3e095fff	0.13415526
11	0xbe49f65e	-0.19722888
12	0xbebda674	-0.37041056
13	0x3c978904	0.018497951
14	0xbcb50317	-0.0220962
15	0x3eb91e75	0.3615605
16	0xbef20e7d	-0.4727668
17	0x3c1a8f4c	0.009433579
18	0x3da8adc2	0.08236267
19	0xbefe458c	-0.49662435
20	0x3f0b4c59	0.5441337
21	0xbe34db19	-0.17661704
22	0x3e8b648d	0.27225152
23	0xbefc6ff9	-0.49304178
24	0x3f0f3b20	0.5594959
25	0x3f19abf4	0.60028005
26	0x3ee625a3	0.4495059
27	0xbf1cee18	-0.613008
28	0x3ee0a7d3	0.4387804
29	0xbe998667	-0.29985353

linear.weight f4 [9, 10]
0	0xc04aeb00	-3.1705933
1	0x402e76e8	2.7260075
2	0x400af77a	2.1713548
3	0xc04ac511	-3.168278
4	0xc058292f	-3.3775136
5	0x401a943a	2.415297
6	0xbff9423d	-1.9473339
7	0xbf6561db	-0.8960244
8	0x402b94b9	2.6809523
9	0xbfb02af2	-1.3763106
10	0xbf960dd0	-1.1722965
11	0x40006b14	2.0065355
12	0xbff6eb7f	-1.9290618
13	0x40309741	2.7592318
14	0x401603db	2.3439853
15	0xc0257909	-2.5855124
16	0xc00bc76e	-2.1840472
17	0x403690f9	2.8525984
18	0x40593a84	3.3941965
19	0xc0111d75	-2.267423
20	0x402f9d16	2.7439628
21	0xc01aa97b	-2.4165943
22	0x402bcfe2	2.6845632
23	0xc03a4a39	-2.9107802
24	0x3fbf31fb	1.4937128
25	0xbfbf811d	-1.4961277
26	0xc0275acd	-2.614917
27	0x4030f413	2.764897
28	0xc01c429e	-2.441566
29	0xbfe711b8	-1.8052282
30	0xc087f006	-4.2480497
31	0xbef58d0d	-0.47959176
32	0xc03716a7	-2.8607576
33	0xc015b25b	-2.339011
34	0x3fc3e686	1.5304725
35	0xbfc13471	-1.5094129
36	0x3fe2330c	1.7671828
37	0xc0203a19	-2.503546
38	0xc02baaf6	-2.6823096
39	0xc012b3f9	-2.2922347
40	0x3fec5a2f	1.8465022
41	0xc0477667	-3.1166017
42	0x3f9d72b6	1.2300632
43	0x402c1c3b	2.689223
44	0xc03d4aab	-2.9576824
45	0xc01edbaf	-2.4821584
46	0x401619dd	2.3453286
47	0xc00ea75c	-2.2289648
48	0x4037fa77	2.8746622
49	0xc0138488	-2.304964
50	0x405a6deb	3.4129589
51	0x404529de	3.0806804
52	0x3e6de015	0.23230012
53	0xc036d2e9	-2.856623
54	0x4031efa6	2.780252
55	0xbf880b63	-1.0628475
56	0x3ffc6f79	1.9721519
57	0xbf92f3d8	-1.1480665
58	0x402ce0e1	2.7012255
59	0x4023bcce	2.5583987
60	0x40347c69	2.8200934
61	0x4013487e	2.3012996
62	0xc00e94e7	-2.2278383
63	0x3fd58d96	1.6683834
64	0xbfc8dbf0	-1.569212
65	0x40661f74	3.5956697
66	0x400d946b	2.2121837
67	0x4009ad99	2.1512206
68	0xc029404f	-2.64455
69	0xc026561c	-2.5990057
70	0xc04a38da	-3.15972
71	0x3fb452f0	1.408781
72	0x401c242f	2.4397085
73	0x4030ac6c	2.7605238
74	0xbf704d55	-0.93868
75	0xc004800d	-2.0703156
76	0x3fb2bc3f	1.3963698
77	0x4005e49c	2.0920782
78	0xc0285a22	-2.6305013
79	0x407cac53	3.9480178
80	0x3d38cf71	0.045119707
81	0xc035345e	-2.8313212
82	0xbfee3adf	-1.8611716
83	0x4009eb03	2.154969
84	0x3fc5b0f7	1.544463
85	0x4073351d	3.8001168
86	0xc013b182	-2.3077092
87	0xc0036751	-2.053181
88	0x3f0f0edc	0.5588205
89	0x4048c053	3.1367385

linear.bias f4 [9]
0	0x3e8930d7	0.26795074
1	0xbebd0c7c	-0.36923587
2	0xbd5c3b8c	-0.053767726
3	0xbe3ef344	-0.18647486
4	0xbee2a850	-0.44269037
5	0x3df0ba2f	0.11754262
6	0xbc983ab5	-0.018582681
7	0x3e59a790	0.21255326
8	0x3f439b13	0.764085
