Assignments/10_fewshot/1_pn.pth (torch, 474766 bytes, 25 tensors)

conv_block.0.0.weight f4 [64, 1, 3, 3]
00000000: dd1b e83c a14b 793e 1ce6 f4bd 98fd afbe
00000010: 944b d33d 943f bfbe 0adc 363e 05b7 93be
00000020: b046 a83e 5cc4 18bf dee0 d9be f2a1 adbe
00000030: 3934 5c3d 1af7 39be 0e62 543d 49a8 b03e
00000040: 7d2a f33e 2ed1 823e a288 c4be 3a74 1d3e
00000050: 5baf a3bd 53d6 473e 3c47 85be 0e48 413e
00000060: 35ca bd3d 044c 06be 9d9d d5bd b235 55be
00000070: 9439 803e b9e2 b0bd 9fcb 133d e516 d63d
00000080: 0078 b4be 41c8 d53c 4d5f d13d 68ff ce3d
00000090: 1019 243e 5eee cbbe 683f 513e ad99 c53d
000000a0: d7fa d7be e990 3f3e d085 9bbc a41b 973d
000000b0: 3c1d 1d3d f1b3 0f3e 4b1d 823d 6cee f0be
000000c0: 0e4b 303e 3305 003c 6291 97be 5287 993e
000000d0: 7f98 953d a97b e7be 6f7d 173d cd57 8bbe
000000e0: e295 16bf 8790 393e 9970 96be 9b9c 37bc
000000f0: 5b55 b5be b5d0 c5be eaed 283f ebf6 293e
00000100: ee01 c9be 064d 3e3e b702 043d 2864 babe
00000110: a927 7a3e 2ccc 8fbe d2cc 843e 8762 d0bd
00000120: fbd0 57be b4c4 9e3e 945e 0bbe 53c8 c0be
00000130: 7535 c53e 3eb6 d5bd cd90 0ebf 7625 4a3e
00000140: b855 1d3e 1a5a d3be d691 82be 3d2e b6bd
00000150: 59e3 7e3e 4a69 e5bd e900 6f3e b513 14ba
00000160: ca35 8cbd 9074 69be a4b8 993d 25bb 9f3d
00000170: 034a 1f3d 79a9 a4be 1fae 973e 6f06 b4be
00000180: 3511 d83d 83b7 28be dadc a33d bdd3 b83d
00000190: b303 1cbe f209 183e 7a75 0c3e 984a 9ebe
000001a0: b825 da3a acb8 733e 67b7 06bf 2155 843e
000001b0: 217e 573e 7352 f1bd e4c4 b03e b425 94be
000001c0: a312 03bf cb61 883e 2bcd 753e f91f 3ebe
000001d0: 1e48 babd a428 a1be 6fbf 2e3e 4c95 5abe
000001e0: 3ddf fabc 4939 9bbd c144 593e 5f44 ff3d
000001f0: 9280 233c b06d 093c 9d2e 9f3d dd9b 903e
00000200: 48b6 16bd ebed 4dbe 6b1e bdbe 9992 c7be
00000210: 4a45 c03d bee4 d43d c283 b73e 55d4 4fbd
00000220: eb9b 313d 6463 bf3c 5a59 fc3b f991 febd
00000230: c257 dcbd 6a91 dfbd 6f31 db3d 1b3b 85be
00000240: 5340 9abe 8c48 1bbd 33d9 a03e 3603 123e
00000250: 766f 74be 12f1 173c 393e a53d 68f6 bebe
00000260: 52e4 483e b554 a1bd b37f e0bd b9e2 693e
00000270: fbf6 183e d9a0 f9be 86eb 2d3e 6627 323e
00000280: f8e3 4dbe 13b1 8e3d 7beb 393d 5ba5 853d
00000290: 16a7 823e 0590 8d3e 426b 64be d2f0 153e
000002a0: 8184 603d e847 83bd bcb7 ad3e 2ed5 81be
000002b0: 743c e0be 3d95 73bc f49e 1d3e a039 24be
000002c0: 6019 9d3e 36f5 403d b1ef e8be 7fa3 c1bd
000002d0: 9526 dcbe f16b 89be 0208 373e 5871 693d
000002e0: 5ee8 90be bdb6 42be 8af3 e43e 01cc 703c
000002f0: e1a1 bcbe 8a57 9ebe 30f6 0f3f 0fe6 67bd
00000300: 1d90 acbe ab64 98bd 36cd c7be 7f7b c3bd
00000310: 0569 07be df30 08be 8431 44bd 819a ff3e
00000320: ba65 afbe a4de 3dbd c50a ff3d 4477 acbe
00000330: d72b 833e fcdc 85bd 9582 4d3d 7444 cabe
00000340: 6b8f 38bc 4399 c63e 3461 debd ce99 afbe
00000350: de8a 98be d331 963c 5160 073e 6a61 65be
00000360: dc3c 2d3e 47e1 333e 39ca d2be d718 7abd
00000370: 0ff5 d23e b154 8fbe 10f6 bbbe 23f1 553e
00000380: afb6 803d e508 983d ad93 fe3d 5d67 aabd
00000390: 029b 9cbe 2dc7 92be 6de4 383e 9479 953d
000003a0: d37d 0a3e 4150 cabd 8da0 6d3e 4d16 313e
000003b0: c2eb 2fbe 612e 833d aef2 8ebe 7ae9 b03d
000003c0: f99f ecbe 2f9b 7c3e d0ba 603e 2ffc dcbe
000003d0: a69b b1be d3f7 0fbd 4179 283e 690f 4f3e
000003e0: b11f dabd 7460 853d bac4 153d f152 8fbe
000003f0: e35b b6bd 5c1c 8ebe 36bd 1b3e 5d7b 243d
0.028333599 0.24345256 -0.119579524 -0.34373164 0.1031715 -0.37353194 0.17857376 -0.2885057
0.3286643 -0.5967462 -0.42554373 -0.33912617 0.05376074 -0.18160668 0.051851325 0.3450339
0.47493353 0.25550216 -0.38385493 0.15376368 -0.07992431 0.19515352 -0.2603091 0.18875143
0.092670836 -0.13114935 -0.10430453 -0.20821264 0.2504393 -0.08636994 0.03608286 0.104535855
-0.35247803 0.026096465 0.10223255 0.101073086 0.16025186 -0.39830297 0.20434344 0.09648452
-0.42183563 0.18707623 -0.018984705 0.07378319 0.03835796 0.14033486 0.063532434 -0.470569
0.17216131 0.00781374 -0.29603106 0.29986054 0.07304477 -0.45211533 0.036984857 -0.27215424
-0.58822453 0.18121539 -0.2938278 -0.011206771 -0.35416684 -0.38635793 0.6598803 0.16598098
-0.39259285 0.1858407 0.03222915 -0.36404538 0.24429192 -0.28085458 0.25937515 -0.101750426
-0.21075813 0.31009448 -0.13610297 -0.37652835 0.38517347 -0.104351506 -0.556897 0.19740853
0.1536473 -0.4127968 -0.2550189 -0.08895538 0.24891414 -0.11201723 0.23340191 -0.00056486885
-0.06846197 -0.22798371 0.075059205 0.07799367 0.038888942 -0.32160547 0.2962503 -0.35161158
0.10550157 -0.16476254 0.080011085 0.09024761 -0.15235786 0.14847544 0.13716689 -0.30916286
0.0016643321 0.23800915 -0.526236 0.25846198 0.21044208 -0.11783304 0.34525216 -0.28935015
-0.5120031 0.2663711 0.24004047 -0.18566884 -0.090957865 -0.3147632 0.17065214 -0.21346015
-0.030624026 -0.07579286 0.21217634 0.124642126 0.009979384 0.008387968 0.07772563 0.28243914
-0.03679493 -0.2011029 -0.3693727 -0.38979033 0.09388216 0.103951916 0.3584271 -0.050739605
0.043361586 0.023362823 0.007701081 -0.12430186 -0.10758926 -0.109164074 0.10702788 -0.26021656
-0.301272 -0.037910983 0.3141571 0.14259037 -0.23870644 0.009273784 0.08068509 -0.37297368
0.19618347 -0.07877485 -0.10961857 0.22840394 0.14937966 -0.4875553 0.16984376 0.17397842
-0.20106494 0.06967368 0.045390587 0.0652568 0.255181 0.2764894 -0.2230654 0.14642647
0.054813866 -0.064101994 0.3392924 -0.25357956 -0.43796122 -0.014867124 0.15392667 -0.16037607
0.30683422 0.04710885 -0.4549537 -0.094550125 -0.42998186 -0.26840165 0.17874148 0.05699286
-0.28302282 -0.19015022 0.44717056 0.014697076 -0.36842254 -0.30926162 0.5623503 -0.056615885
-0.337037 -0.07441076 -0.3902375 -0.095450394 -0.13223656 -0.13299893 -0.047898784 0.49922565
-0.342573 -0.046354905 0.12453226 -0.33684742 0.25619385 -0.0653629 0.05017336 -0.3950535
-0.011264662 0.38788804 -0.10858384 -0.3429703 -0.29793447 0.018334305 0.13220336 -0.22400442
0.16917747 0.17566405 -0.4116991 -0.061058845 0.4120259 -0.27994302 -0.36711168 0.20892768
0.06284844 0.074235715 0.12430511 -0.08320496 -0.30587012 -0.28667584 0.18055888 0.0729858
0.1352456 -0.098785885 0.23205777 0.17293663 -0.17179778 0.064053304 -0.27919525 0.08638282
-0.462158 0.24668573 0.21946263 -0.4316115 -0.34689063 -0.035148453 0.16452505 0.20220722
-0.10650576 0.065125376 0.036564566 -0.27992967 -0.08904245 -0.2775601 0.15208897 0.04015671

conv_block.0.0.bias f4 [64]
00000000: fe9f a5be 4578 54be 28a8 fe3d ecd8 d8be
00000010: 9ca1 ddbe 720c 8b3e 2bbf b63d dd19 37be
00000020: ebb7 bf3d e42e 9c3e b5c1 1f3e 0215 ca3d
00000030: ebfb 603d 49f0 1ebe 64c9 0fbe dff8 22bf
00000040: 837e 043e 5a40 693e 5dcd 21be 1fd4 8ebe
00000050: d192 f33d 1fad d5be ddff bfbd 1772 243f
00000060: 44d0 00bd 749d 133d 39c2 2ebe 1b15 26be
00000070: 751b a7be d263 ab3e aa8d 723e a90f f8be
00000080: 50e1 6d3e fe3e 5bbd f564 d83e 3246 183e
00000090: 12c6 e2be 7667 37be e119 f53c 25b8 7a3d
000000a0: d1cc 12be ef6d 18be 0730 95be fd8f 813e
000000b0: 7375 c13d 3257 fbbd 6594 90be 9f3d 37be
000000c0: 3caa cd3d c8ae 943a cecf cd3e 2395 b5bd
000000d0: d56b c5bd d458 0fbd 28f9 37bd 8dd7 1abf
000000e0: 8b97 4b3b 665c 69bd 3c90 ab3e f86c 10bf
000000f0: 2afe 713a 21c2 9e3e cf26 25be 6f83 d3be
-0.32348627 -0.20749004 0.12434417 -0.42352998 -0.4328736 0.27157933 0.08923181 -0.1788096
0.093612514 0.30504525 0.15601237 0.09867288 0.054927748 -0.15521349 -0.14041668 -0.63661
0.12938885 0.22778454 -0.15800996 -0.2789621 0.118932374 -0.41733643 -0.09374974 0.6423659
-0.031448618 0.03603883 -0.17066278 -0.16218989 -0.32638136 0.33474594 0.23686853 -0.48449448
0.23230481 -0.05352687 0.42264524 0.14870527 -0.4429174 -0.17910561 0.029919567 0.06121077
-0.14335944 -0.14885686 -0.29138204 0.25305167 0.0944623 -0.122724906 -0.28238216 -0.178946
0.10042235 0.0011343593 0.40197605 -0.08866336 -0.09639708 -0.034996822 -0.04491535 -0.60485154
0.0031065668 -0.056972884 0.3350848 -0.56416273 0.0009231294 0.31007484 -0.16128086 -0.41311213

conv_block.0.1.weight f4 [64]
00000000: 4016 7f3f 544c aa3f 4301 5a3f 8c8b 433f
00000010: dd07 803f dc3c 903f 3fe7 dd3f 2a25 563f
00000020: f66a 973f 2da6 823f cd42 6c3f ff01 8c3f
00000030: dcfd 8f3f ffdb 433f 4b91 923f 552e 393f
00000040: 7071 833f b2ec 783f 5188 6f3f 2d21 8b3f
00000050: 67cb d43f 6d38 ad3f fda7 833f eea7 b83f
00000060: 96c0 873f f21d 4e3f 5ba2 553f 82ce 873f
00000070: ef34 703f 9b19 c43f da20 923f f98d 623f
00000080: 76cc 763f d0a1 5b3f edaf 9c3f 53e6 a73f
00000090: 0949 873f 6166 773f 3e82 853f 220e 6e3f
000000a0: 6695 883f 822b 763f 1533 6e3f 5ac2 7d3f
000000b0: 0421 813f 8936 8b3f 5fc4 913f de5b a33f
000000c0: 2b4c bf3f 72fd 723f b99d 963f 3389 6b3f
000000d0: 056f 993f d050 a83f d2e8 b43f 6972 473f
000000e0: bdad ad3f 5437 7b3f f90b 843f e9de 223f
000000f0: 7186 803f f235 6a3f 2800 8f3f 5d74 873f
0.99643326 1.3304543 0.85158175 0.76384807 1.00024 1.1268573 1.7336196 0.8365046
1.1829517 1.0206963 0.9228943 1.0938109 1.1249347 0.7650756 1.145059 0.7233632
1.0268993 0.9723617 0.9356738 1.08695 1.6624573 1.3532845 1.0285641 1.4426248
1.0605648 0.8051444 0.8345086 1.0609896 0.9383077 1.5320314 1.1416276 0.88497883
0.9640573 0.8579378 1.2241188 1.3117164 1.0569164 0.9664059 1.0430372 0.92990315
1.0670593 0.9616014 0.93046695 0.9912468 1.00882 1.0876018 1.1388053 1.2762411
1.494512 0.94917977 1.1766883 0.92006224 1.1987005 1.3149662 1.4133551 0.7790895
1.3568646 0.981313 1.0316154 0.63621384 1.0041028 0.91488564 1.1171923 1.0582386

conv_block.0.1.bias f4 [64]
00000000: 04d4 31bd 03f9 903d 33f1 3abd 7925 36be
00000010: 23c4 fcbd 4910 313c 3303 a13d 4167 49bd
00000020: fd3e 57bc c93d 953c b755 c2bd f822 dabd
00000030: 9ce9 593d acae 0cbe 2ca2 13bd 71fd 8bbe
00000040: 613d 453d bdf4 49bd 7474 0ebe 8a2d 22be
00000050: f0f6 003e 769c ecbd cbbd 30bd 5133 953e
00000060: 397f 923c 4c03 d4bd 19a6 40be ab66 91bc
00000070: 0f37 3fbe 395d 613e b00d 1d3e f734 bcbe
00000080: ca3d 14bd a525 03bd edd4 e83d 8f94 b73d
00000090: ded1 f3bd a6ce f2bd 572d c4bd 4cd8 9cbd
000000a0: 2b3d 9cbd e350 86bd fb43 bcbd 9816 0fbd
000000b0: 2818 10bd a6fd 63bd 1a0c 9fbc 4f2d b63d
000000c0: c5e5 843d b534 00be 3904 c53d 2569 24be
000000d0: 6ab8 62bd ab38 31bd b68d ab3d 08d3 9fbe
000000e0: be21 ae3c 0614 36bd 12c3 953b f992 95be
000000f0: a6be 083d 6482 0bbd 9571 04bd 7624 86be
-0.043415084 0.07078745 -0.04564018 -0.17787732 -0.123420976 0.010807105 0.07861938 -0.049170736
-0.013137576 0.018217938 -0.09489005 -0.10651201 0.053201303 -0.13738507 -0.03604333 -0.27341798
0.04815424 -0.049305666 -0.13911611 -0.15837684 0.12594199 -0.1155328 -0.04314975 0.29140714
0.01788293 -0.10352191 -0.18813361 -0.017749151 -0.18673347 0.22008218 0.15337253 -0.3675916
-0.03619174 -0.032018322 0.11368737 0.08963882 -0.11905263 -0.11855821 -0.095789604 -0.07658443
-0.07628854 -0.06558397 -0.09192654 -0.034933656 -0.035179287 -0.05566182 -0.01941495 0.08895361
0.064891376 -0.12520106 0.09619946 -0.16055734 -0.055351652 -0.043266933 0.083766386 -0.31215692
0.021256324 -0.04445269 0.0045703733 -0.29213694 0.03338494 -0.034059897 -0.032334883 -0.26199692

conv_block.0.1.running_mean f4 [64]
00000000: aa82 a5be 30cd 6cbe daf1 dd3d 2983 c3be
00000010: d035 d4be a8d8 6d3e 2f56 9ebc cac3 38be
00000020: dae4 ba3d defd 883e 2844 273e 3772 013e
00000030: 9103 803d 3d16 02be f32d 13be abf2 25bf
00000040: a8de d83d 359e 7d3e f091 7cbd 090f a5be
00000050: 20d6 f33c 26fc f5be 9a6e c5bd bb78 113f
00000060: bcf8 13bd f5af 3b3d 14ff f5bd 4e20 51be
00000070: 7647 59be 8ecb 493e 5a82 443e 0588 e5be
00000080: dd67 593e 9b55 a9bd 56ad c43e 52c0 c23d
00000090: 126f e7be 2563 1fbe 4eb5 16bb e8e9 343d
000000a0: c9c4 05be 3e3c 1bbe c0aa 8bbe 1a65 843e
000000b0: 9df3 ca3d c5c0 38be 98bd a4be c374 41be
000000c0: 2ab0 22bb 356b 923d 43bf b23e e3ad 0cbd
000000d0: 1eaa 28be 68a2 83bd c81c c0bd 08b5 10bf
000000e0: 917e 9b3c 2852 82bd 41e6 a83e febd 2abf
000000f0: 4d57 74bc dd5c a23e a6f4 40be 9932 c8be
-0.3232625 -0.23125148 0.10837145 -0.38186005 -0.41447306 0.23227179 -0.019328205 -0.18043438
0.09125681 0.26756185 0.16334593 0.12641226 0.0625068 -0.12703796 -0.14372997 -0.64823407
0.10589343 0.24767382 -0.061662614 -0.32238033 0.029765189 -0.48043936 -0.09640236 0.56824845
-0.036125883 0.045822103 -0.12011543 -0.2042248 -0.21218666 0.19706556 0.1919035 -0.44830337
0.21231027 -0.08268281 0.38413495 0.095093384 -0.45201927 -0.15565164 -0.002299625 0.044168383
-0.13063349 -0.151597 -0.2727871 0.25858384 0.09909747 -0.18042286 -0.321759 -0.18892197
-0.002482424 0.07149354 0.34911546 -0.03434552 -0.16471145 -0.06427461 -0.093804896 -0.5652623
0.01898125 -0.06363326 0.3298817 -0.66696155 -0.014913392 0.31711474 -0.18843326 -0.39101103

conv_block.0.1.running_var f4 [64]
00000000: 80ec ee3b 5060 7b3d 7ce1 193c 8ad2 b03b
00000010: 65ea f23b cac1 383d 5218 613d e2d4 073c
00000020: c648 b73c 36c9 5a3c d7f8 563b 6924 253c
00000030: 6504 853c 425c b63b f875 373c 3ed9 d23b
00000040: 4c09 6d3c a562 013c 50ce c53c 8f37 083d
00000050: bda0 0f3d 5d05 f53c ccbd 303c 9922 ce3c
00000060: 854b 473c f024 563b a4de 113c 8ef7 803c
00000070: 9193 1f3d 93eb b33d 6231 503c 11c7 173c
00000080: 66af ec3c 5635 713c 711f 673c c588 8f3d
00000090: c196 c73c 0400 003c 34cd eb3c 2a46 bb3c
000000a0: e85b 303c 1d28 4b3c 98d7 a33c 877c 383c
000000b0: 353d 973c dd9d 743d c612 4d3c c8d0 713c
000000c0: 4277 a03d 5212 1a3c b19e e03c 1998 553c
000000d0: c265 903d f6b5 143d 35be 6b3d 0da9 413b
000000e0: bdd6 5b3c 9938 ca3b e1eb 3d3c 0de4 593d
000000f0: eb16 843b eace 533c a457 cd3c 43da 2a3c
0.0072913766 0.061371148 0.009392139 0.005396192 0.007413196 0.045106687 0.054954834 0.008290501
0.022373568 0.0133536365 0.0032802129 0.010079482 0.016237447 0.005565197 0.01119756 0.0064345887
0.014467549 0.007897054 0.024146229 0.03325611 0.0350654 0.029909784 0.010787439 0.025162982
0.012164001 0.0032675825 0.008903179 0.015743043 0.03895909 0.087851666 0.012707086 0.00926377
0.02889223 0.014722189 0.014106617 0.070085086 0.024363877 0.007812504 0.028784372 0.022860605
0.0107641 0.0123997005 0.020000264 0.011260158 0.018461803 0.059720863 0.012516683 0.01475925
0.078352466 0.009403782 0.02741942 0.013036751 0.07050659 0.036306344 0.057554442 0.0029550225
0.013417897 0.0061712977 0.011591882 0.053196 0.0040310523 0.01292775 0.025066204 0.010428014

conv_block.1.0.weight f4 [64, 64, 3, 3]
00000000: 32cb 9e3c 2dca 50bd 6f9f 8c3d 569a b8bd
00000010: e8b6 3fbe 2afa fdbd c2f2 8f3d 9176 c73d
00000020: a558 173e 92b6 383e fb63 9b3d 8092 8bbd
00000030: 5cfd 50bd 6f53 3ebd e2ca 19be b5cd ef3c
00000040: 63f4 bbbb 6734 acbc 7fd6 5e3c 13d1 22bb
00000050: fb69 4cbd 5271 1d3d 6d1f 9dbc 835b fdbc
00000060: e897 443d a5b4 40bd 0a5e 17be 3da9 bc3d
00000070: 1bab 63bd 6bcd 4b3d a016 7cbd fa67 86bd
00000080: b344 3dbd ce0f 01bc 0140 6b3d 59bf e23d
00000090: 267d 0cbd fe2c ba3d 11af 333d 959d a9bd
000000a0: 0f14 a1bd 598f c53d e0e7 ba3b 73d7 373e
000000b0: f47b ad3d 709f 8ebc aaba 2fbb f3ed 133e
000000c0: c28d 67bd 088b 323d 2805 113e 0c2f 3fbd
000000d0: de9b 223d 378e 8c3d 8071 a03d c715 8abe
000000e0: c474 3c3d 13e0 03bd 265d 58be 93d5 983d
000000f0: 281e 92bc c3b8 863d 063b d43d 78ed 5bbd
00000100: ebbb e93c a377 71be b693 893d bcba 34bc
00000110: 7f5c 863d 6e7c b83a 5a34 fa3d eb42 af3d
00000120: 511d b13d d4bd 143c e5e0 cf3d bb6b bf3d
00000130: 724f 243d 9217 853e 5570 a13d 9046 073e
00000140: 82e0 3f3e 7ee0 f3bb 5359 a4bd 40d4 a5bd
00000150: 9fe8 963d a62b de3d 8041 793a 3a80 d938
00000160: 884d cfbd f16e d8bd 4521 19be 1825 5d3d
00000170: 08d9 083e 76cf 463d 1003 323d c979 de3d
00000180: c4ba 80bd 4f1d 82bd 6e9f d03d 8d5d e93d
00000190: e621 14bd e359 a13c d137 bbbb 4a9f 383e
000001a0: b015 403e b05d b83d c125 b53d a47d 883d
000001b0: ca96 d9bc 46df f33d c633 1cbd 3b89 013e
000001c0: 2fc5 353e 9856 503c 0b07 f83c 2d26 0c3e
000001d0: de08 863d e4aa b13d eca1 bb3d f58a 903d
000001e0: 75d9 58bd 7e2d 74bd fd02 3ebd 4eb4 30bb
000001f0: 0b30 113d 8e1c cb3c bc30 333e ee91 973d
00000200: dbf5 d23c a59c 33be 39ff acbd b46b 06be
00000210: c4e3 eebc 1959 ab3d f851 6b3d 78ae 833d
00000220: 1fca e4bd b291 2fbc 5d6e 7e3c 7478 9e3c
00000230: 45b1 fa3d 91a4 c5bc 549e 14be 64dd b5bc
00000240: 579d 7dbb b502 d23d b741 00bd 5241 29bd
00000250: f1a3 4abb 910e 9a3d de7d 4e3d 1868 dc3d
00000260: 080e 853c 852d f4bb 5e44 763d bec7 223d
00000270: dd32 1f3d d724 773d b4a4 b33d 1c5d 893d
00000280: 0565 b83d aec8 423c 32a6 883d 617f 7e3d
00000290: b7ae 973d ee2a fc3d a6f7 ae3d adea ca3d
000002a0: 0af3 24bd 4fad d53c d380 af3d f491 42be
000002b0: 8a79 a33b f71c c9bd 97e8 dabd 65d6 ae3b
000002c0: 4c6b a93d d881 31bd 0375 a03d dd61 cc3d
000002d0: 0d79 573d 5ba3 ec3c 17bc 85bd dabc 06be
000002e0: 4d92 843d 718c f83c 094b 4abe 4180 aebd
000002f0: e955 13be 7ea9 ae3d 2057 1d3d 2be1 e9bd
00000300: cf76 663e db57 cfbc d9f2 203d dcd9 a43c
00000310: 91ca b5bc df62 2d3e 31fd 993d 152c a73d
00000320: f257 113e e3ec 02be 12f0 fdbd cb0f 3e3e
00000330: 4620 a6bd 807c e338 8c87 883e 1000 c33d
00000340: 8aa9 c23d 9673 a2bd d958 d03c 0b6c e43d
00000350: f857 08bd d7ba d53c c19e b73b 10df 0ebe
00000360: 0ac4 4b3d 29bd 833b 571f 583e 3da5 8d3d
00000370: 8b1f 603d c8d5 503e 2c34 65bd 16b9 3d3e
00000380: a65e ac3d 0f34 123d ac50 0e3d ec7c 44bd
00000390: 82e0 c7ba c15b 473b 375c a43d 9c06 c13c
000003a0: b888 6f3d a20c 0d3e 472c 493d ca69 3b3d
000003b0: e374 873d d4c1 1e3e 5994 ff3d edcf 333e
000003c0: 34ea f8bc c3cb 843d ef08 f13c 33ba c6bc
000003d0: aea6 e1bd 917d c1bd 9bf0 7d3d 1dca 9f3d
000003e0: 0aa9 b2bd 364d 76bd 4c14 03be 62d7 d1bd
000003f0: 0723 6f3d fb08 643c 7c5d 143d dc9c 323d
0.019384 -0.05097406 0.06866347 -0.09013812 -0.18722117 -0.12401231 0.07028724 0.097394116
0.14779909 0.18038395 0.07587429 -0.06815052 -0.051022872 -0.046466287 -0.150188 0.029272893
-0.0057359203 -0.021021081 0.013600945 -0.0024843856 -0.04990576 0.03843815 -0.019180024 -0.030927425
0.04799643 -0.047047276 -0.14781967 0.09211967 -0.0555831 0.04975645 -0.061545014 -0.06562801
-0.046208095 -0.007877303 0.057434086 0.11071653 -0.03429904 0.09090613 0.04386813 -0.082820095
-0.07865154 0.09646482 0.005703911 0.17953281 0.08470908 -0.01741001 -0.0026814141 0.14446239
-0.056531675 0.04358962 0.14162123 -0.046675727 0.039699428 0.06863063 0.078341484 -0.2696974
0.046009794 -0.032196116 -0.21129283 0.07462611 -0.017836645 0.06578209 0.1036282 -0.053693265
0.02853199 -0.23580794 0.06717627 -0.011030849 0.06560611 0.0014075169 0.122170165 0.085576855
0.0864817 0.009078462 0.10150317 0.0934672 0.040114827 0.25994545 0.07882754 0.13210511
0.18737987 -0.007442533 -0.0802485 -0.08097124 0.07368588 0.10848169 0.00095083565 0.000103712504
-0.1012221 -0.105680354 -0.14954098 0.053990453 0.13364041 0.048537694 0.043459952 0.108630724
-0.06285623 -0.063532464 0.10186659 0.113947965 -0.03616514 0.019696182 -0.005713441 0.18029514
0.18758273 0.090022445 0.088450916 0.06664589 -0.02656116 0.119078204 -0.038135312 0.12650006
0.17751001 0.012715958 0.030276796 0.13686438 0.0654466 0.08675173 0.091617435 0.07057754
-0.05294176 -0.059613697 -0.04638957 -0.0026962939 0.035446208 0.02479389 0.1749906 0.07400881
0.025751999 -0.17540224 -0.08447117 -0.13127023 -0.029161341 0.083666034 0.05745122 0.06429762
-0.11171364 -0.010715889 0.015529242 0.019344546 0.12240843 -0.024126323 -0.14513522 -0.022200294
-0.0038698518 0.102544226 -0.03131267 -0.04132206 -0.003092047 0.075223096 0.050413005 0.10762042
0.016242042 -0.0074517154 0.060123794 0.03974127 0.038866866 0.060337868 0.08771649 0.06707212
0.09003643 0.011888666 0.06672324 0.062133197 0.07406371 0.12312876 0.08543329 0.09908042
-0.040270843 0.026083617 0.08569493 -0.19000989 0.004988854 -0.09819978 -0.10688894 0.0053356164
0.082724184 -0.04333672 0.07834818 0.099796034 0.052605677 0.028886488 -0.06530016 -0.13157979
0.06473217 0.030340405 -0.19755186 -0.08520556 -0.14388241 0.08528422 0.038413167 -0.114199005
0.2250626 -0.025310447 0.039294098 0.020123415 -0.022191318 0.16932248 0.075189956 0.08162705
0.14193705 -0.12785678 -0.123993054 0.18560712 -0.081116244 0.000108473934 0.26665914 0.09521496
0.09504993 -0.079322025 0.02543299 0.1115342 -0.03328702 0.026090069 0.0056036417 -0.13952279
0.049747504 0.0040203524 0.21105705 0.06916282 0.05471758 0.20394051 -0.055957958 0.18527636
0.0841649 0.03569418 0.034744903 -0.047970697 -0.0015249404 0.003041968 0.08025401 0.023562722
0.058479995 0.1377435 0.04911449 0.045755185 0.06614091 0.15503627 0.12479467 0.17559786
-0.030385114 0.06484177 0.029423205 -0.024258709 -0.1101812 -0.09447778 0.061997037 0.07802222
-0.08723648 -0.060132228 -0.12800711 -0.10246159 0.058383014 0.013918157 0.036221966 0.043606624

conv_block.1.0.bias f4 [64]
00000000: a931 ad3d 4e48 42be 6e9a dabd 092b dcbc
00000010: 965d 14bd c138 af3c 6d6e f93b e4cd 513d
00000020: 4c00 b5bd fef0 a6bd b6ea 9a3d 22fe aabd
00000030: 5c17 d8bd 5bdf 34be b5a7 1c3e fd1c a23d
00000040: 6d58 acbd 7aae cc3d 3865 37bd c84e d9bd
00000050: 9984 cfbd 4e86 92bc 0148 a53c a829 c7bb
00000060: 7e14 013e 028f 623d ad73 4abc 39c1 e1bd
00000070: dd5a bb3d 1390 80bc 1b69 843d 81e2 c6bb
00000080: 6367 4d3e abd3 3a3d 10fe cd3c f64c 533d
00000090: 382b a8bc 0a37 963c d315 e73b 1406 f0bd
000000a0: 9648 5b3b 0b5e 94bd 8b73 633d 65b0 b63d
000000b0: 3674 47bd f16b c53d 7321 e0bd a2b1 f53b
000000c0: ae91 04bc db2d 993d 8eb3 593e b0c2 933d
000000d0: 57a5 8fbc 0ece 44b8 54c0 0b3d 7b84 5abb
000000e0: e6a4 aabd 6a11 de3d 63a7 7ebc c7d2 a03d
000000f0: d255 653d bb3d 60bd d324 efbc d2a5 383e
0.084567375 -0.18972895 -0.106739864 -0.02687599 -0.036222063 0.021389367 0.0076120407 0.051221743
-0.08837947 -0.08151434 0.07564299 -0.08349253 -0.105513304 -0.17663328 0.1529835 0.07915685
-0.084153034 0.09994216 -0.044774264 -0.106107295 -0.10132713 -0.017886307 0.020175936 -0.006077964
0.12605473 0.055312164 -0.012356681 -0.110231824 0.0914819 -0.0156937 0.0646536 -0.006069482
0.2005897 0.04561202 0.02514556 0.051587068 -0.02052842 0.018336792 0.007052162 -0.11719909
0.0033460013 -0.072445 0.055530112 0.08920363 -0.04869481 0.09639729 -0.1094388 0.007497982
-0.008091373 0.07479449 0.21259901 0.07214868 -0.017534895 -4.6921945e-05 0.034118965 -0.0033343125
-0.08332233 0.10843165 -0.015542838 0.078527026 0.055990048 -0.05474637 -0.029192364 0.18032005

conv_block.1.1.weight f4 [64]
00000000: c3af 5f3f 68b2 873f fd79 853f 62f1 983f
00000010: 4e42 4c3f 1851 7b3f e880 4a3f 0db2 843f
00000020: 7c1d 873f 8913 903f cb17 833f 552b 893f
00000030: 6932 6d3f c9b5 823f 30b3 623f f038 473f
00000040: e4d9 903f 154c 713f 823e 663f 3e58 8b3f
00000050: 794c 783f 072b b23f 803c 4f3f 0a22 963f
00000060: 0fe6 713f 4f5c 883f 1e4e 7d3f a50e 913f
00000070: b32b 8b3f 4f1e 863f d422 7f3f 78d9 923f
00000080: 22bd 943f b557 833f 01b2 7d3f 85c7 4d3f
00000090: bdde 673f 93d6 7f3f c244 523f d52a 473f
000000a0: 8c6d a83f a07f 8d3f 45d4 713f 641c 823f
000000b0: 3964 503f c124 8c3f af38 8a3f 5f00 853f
000000c0: 2662 953f 60fd a43f df86 813f 5d45 a73f
000000d0: 11b6 773f e422 8d3f 0256 873f a49c 983f
000000e0: e0ef 903f 267a 863f 4fde 9b3f bf1a a43f
000000f0: ea82 9d3f 05bf 583f c10c 9d3f 4a0f 513f
0.87377566 1.060132 1.0427853 1.1948664 0.7978867 0.98170614 0.79102945 1.0366837
1.0555873 1.1255962 1.0241636 1.0716349 0.92655045 1.0211726 0.8855467 0.77821255
1.1316495 0.94256717 0.8993913 1.0886304 0.9699169 1.3919381 0.8095169 1.1729138
0.94491667 1.065317 0.9894732 1.1332594 1.0872711 1.0478 0.9966252 1.1472616
1.1620219 1.0261141 0.9909974 0.8038257 0.90574247 0.9993679 0.82136166 0.7779973
1.3158431 1.1054573 0.9446452 1.0164914 0.8140293 1.0948716 1.0798548 1.0390738
1.1670578 1.2889824 1.0119284 1.3068043 0.96762186 1.1026273 1.0573123 1.1922803
1.1323204 1.0506027 1.2177218 1.2820662 1.2305577 0.8466647 1.2269517 0.81663954

conv_block.1.1.bias f4 [64]
00000000: 5032 583e 9850 2fbe bcce acbd 7cd3 abbb
00000010: 60c1 66bd 6dc3 f33d 8884 2f3d d6b2 db3c
00000020: 6f96 03be ad84 9abd 32bd 243d 3643 e4bd
00000030: 208d 50bd 7dcc 39be 29f4 063e cbd2 0f3e
00000040: 6eea 47bd 601c 2f3e aa24 19bc dba2 fbbd
00000050: e894 04be c8e8 0a3d 6a16 743d e8ee dcbc
00000060: aaac 553e 09dd 453d b8a2 de3b e52a d8bd
00000070: df4e 223e cd79 febc 686e be3d 3c92 53bc
00000080: 66d6 243e 417a 833d 82ca e5ba 5b08 323e
00000090: e8b4 f2bc 689c 38bb e203 923c 3925 04be
000000a0: ff25 10bc 1654 213c 6442 4d3c dd39 433e
000000b0: 5353 ccbd 99f7 9b3d f4c5 20be ea74 dd3c
000000c0: 7e9b ef3c 5fe6 a63d b62c 913e 3dbb 663d
000000d0: 322e 76ba c2bf 6e3d 2758 753d 2d39 383d
000000e0: eeee 9dbd e474 843e 9b4a ab3d 67b5 803d
000000f0: fae6 323d fc20 c3bd 2a98 36bc b7fc 823e
0.21112943 -0.17120588 -0.08437869 -0.0052437168 -0.05633676 0.11902509 0.042851 0.026818674
-0.12850355 -0.07544837 0.040219493 -0.11145632 -0.050915837 -0.18144412 0.13179077 0.14045255
-0.048807554 0.17100668 -0.00934712 -0.122869216 -0.12947428 0.033913404 0.05959169 -0.026969388
0.20866647 0.0483065 0.0067943 -0.105550565 0.158504 -0.031063939 0.09298402 -0.012913283
0.16097412 0.064198025 -0.0017531666 0.17386 -0.029627278 -0.0028169397 0.017824117 -0.12904824
-0.0087981215 0.009846708 0.012528036 0.19065042 -0.0997683 0.07615585 -0.15700513 0.027033288
0.02924895 0.081494085 0.28354424 0.056330908 -0.0009391039 0.058288343 0.05989852 0.044976402
-0.07711588 0.2587043 0.08363839 0.062846 0.043677308 -0.09527776 -0.011144677 0.2558343

conv_block.1.1.running_mean f4 [64]
00000000: 9cc9 8340 6c70 98c1 01c3 15c1 8775 69c1
00000010: e9b7 1dc1 e723 8640 7e83 7dc0 e850 4bc0
00000020: ecc0 b6c0 556d 6bc1 9c3b 5bc0 8ba1 97c1
00000030: 6567 bec0 c841 54c1 0157 0341 02dc c03f
00000040: 2d81 2dc1 d4f3 8140 8dbd f4c0 631f 2dc1
00000050: 304a ecc0 96af 8840 c0e3 31c0 6232 37c1
00000060: 7504 c640 e659 3fc1 2fc6 eec0 7f84 0ac1
00000070: 58d5 3741 98be 94c0 861d 0341 fb73 86c0
00000080: 5035 5541 c148 36c0 fcf9 e9c0 dc54 d140
00000090: acab 3ac1 4a5c cec0 9699 bfc0 8357 67c1
000000a0: a229 35c1 d6a3 a0c1 63b0 aec0 47df d340
000000b0: 4100 31c1 11e9 2ec0 bd5c 40c1 a841 f9c0
000000c0: a2aa c9c0 2890 3841 4cd1 4741 06b1 a540
000000d0: 4479 f7c0 11e2 c7c0 5002 ab40 1887 92c0
000000e0: 829e 77c1 727c 6a41 e2c8 ea3f 682c 4fc0
000000f0: a9d6 c0c0 e2d8 2dc1 3243 2bc0 904d f540
4.1183605 -19.054893 -9.360108 -14.591193 -9.8574 4.1918826 -3.9611506 -3.1768131
-5.71105 -14.714192 -3.4255133 -18.953878 -5.9501214 -13.26606 8.208741 1.5067141
-10.844037 4.061014 -7.6481385 -10.820163 -7.384056 4.271434 -2.7795258 -11.4498005
6.188044 -11.959448 -7.4616923 -8.657348 11.489586 -4.648266 8.194708 -4.201658
13.325516 -2.8481905 -7.3117657 6.541609 -11.666912 -6.4487658 -5.9874983 -14.458865
-11.322664 -20.079998 -5.4590316 6.6210055 -11.062562 -2.7329752 -12.022641 -7.7892647
-6.302079 11.535194 12.488598 5.1778593 -7.733553 -6.246346 5.3440323 -4.578991
-15.476198 14.655382 1.8342555 -3.2370853 -6.0262036 -10.86545 -2.6759763 7.665718

conv_block.1.1.running_var f4 [64]
00000000: 2ee3 3842 4278 0643 c35b d941 dbf3 0643
00000010: cf14 4f42 88b8 9142 2c0e 7541 4c93 2942
00000020: 98c1 0542 1e2c 8642 684d 2842 9647 d042
00000030: fa2c cc41 55de 8142 45d1 0c42 df12 b941
00000040: 5ce8 c042 c56d 8142 eda0 8e41 a57f 6742
00000050: 394c 1842 95fe 5142 978f 9341 e24d bb42
00000060: fcc5 6542 4fdc e642 3361 4742 92eb 7c42
00000070: 91d7 4c42 d27b 0342 026c c541 6569 2342
00000080: 99ba 2042 c7ba 6642 c8a2 d141 429a de41
00000090: e4f9 3242 4b5d ff41 3ed1 4d41 eb86 2442
000000a0: ed68 0343 a892 5343 d0ef 8042 8abc 7d42
000000b0: 9c01 ad41 d3b0 3742 963e a042 1c99 6b42
000000c0: 1c01 8542 c957 3442 8bb8 ad42 0475 2042
000000d0: 575d 7c42 62ba 7b42 acf9 f041 ba45 a242
000000e0: 4f34 b742 491e e342 0e69 7d42 efcb 3042
000000f0: d8c7 a142 b69a 9941 9b72 9942 fd26 1942
46.221855 134.46976 27.169806 134.95256 51.77032 72.86041 15.31596 42.393845
33.439056 67.08617 42.075592 104.13982 25.521961 64.93424 35.204365 23.134214
96.45383 64.71439 17.828577 57.874653 38.074436 52.498615 18.445112 93.652115
57.443344 115.43029 49.84492 63.23005 51.210514 32.87092 24.677738 40.852924
40.182224 57.6824 26.204483 27.825321 44.744034 31.920553 12.8635845 41.131756
131.40987 211.57288 64.46838 63.43412 21.625786 45.92268 80.12224 58.89952
66.50217 45.085728 86.860435 40.114273 63.091152 62.932014 30.12191 81.136185
91.602165 113.55915 63.352592 44.199154 80.89032 19.200542 76.72384 38.288074

conv_block.2.0.weight f4 [64, 64, 3, 3]
00000000: 7359 f73d 83a8 0e3e d01b 913e 4733 e83d
00000010: c79a 6a3d d29e 113e 6081 b538 bb64 4fbd
00000020: 1aa9 02be cd5c 023e 5552 d13c ffb0 073b
00000030: 804b 2e3e 1952 98bd 9a43 a0bc 70b5 07be
00000040: 33f2 e6bd 86ae 503c bf77 87bd aa32 db3d
00000050: 61ce f03d 5da0 213e 37b4 eb3d 5549 f03d
00000060: f7b2 073e a78d e4bd f749 d33c fc32 26be
00000070: 433e 47be 4191 11be 1f20 25be 7710 c4bd
00000080: abdb 2fbd 1952 e0bd 90ca 46bd 1e83 5b3d
00000090: cd1d f63d 77c7 ee3c 92ed 623a 7ad8 913c
000000a0: 3430 1c3c d7a7 bcba 4ea7 04be 6e87 24be
000000b0: af3f 7e3c a463 863d c0ce 1abd b195 0b3e
000000c0: 913f 263e 063d b83d 73b6 903c 206a 783d
000000d0: 1074 f4bc 6c8f 9cbd e2ab 073e 836c 433e
000000e0: 6ddf 353e a3fa d63d de01 e73d 5dc5 043e
000000f0: 0cb0 2d3c ff26 c3bc 0895 02be c8d5 0e3e
00000100: dbad b13d 804a d83d 8cf2 503b 6475 693d
00000110: 8225 d13d a829 1dbe afa1 373c 68cc 61bd
00000120: 55ca 183e d202 fb3d 0159 f63d f7c5 af3d
00000130: f1e8 f33d e405 e83d cf39 1cbd fb69 cbbd
00000140: f3a7 3fbd 0a8e 15be d539 3dbd 9609 dfbc
00000150: 6afa 50be 6d92 f4bb 1cfd 04bd 78f4 1ebe
00000160: 7608 43bd e368 28bc 7326 d0bc 4bdd ca3d
00000170: 3f4e f23d 40eb 3b3c 0c4c ce3d 8889 363e
00000180: 20d2 55bd 1983 5ebd 9252 bfbd dc4d afbd
00000190: 27e1 f0bd fb51 21bd 3e75 2abe 4f3c 19be
000001a0: e761 18bd 363b 56bd 1907 42bd 89b3 d13d
000001b0: 249f 083e 1989 7c3e 6b28 5d3e 962b 2e3e
000001c0: 5094 c83d de24 0b3e 6f3b 2c3c b482 4bbc
000001d0: 7c84 d0bd ef0a 673c 45c2 8dbd 401b 463d
000001e0: 25e6 53bd 4881 473c 1e4c 00be 0d05 a4bd
000001f0: 8986 a7bd 0b5b f7bd 77aa 883e c5d5 693e
00000200: 591e 5c3e b84f 523d ffb3 123d 74af 0c3e
00000210: a56a 57be ee45 6fbd c41c a4bd 2a0a bc3d
00000220: 6dca 443e 3b5d 913e bb0f 3c3e ee72 293e
00000230: 3619 123e 257d b03c a31c 7abd f868 a7bd
00000240: cf2b 8abd 20f4 6ebe ec60 29be a39b c43d
00000250: 4b33 7ebc 76d5 56be bf1a b93d bac5 65bd
00000260: 6384 a2bd b367 87ba 5a9e 953d dfca 2f3e
00000270: c542 ed3d aade 943d 636a ef3d a9a1 cf3d
00000280: 5940 833c e4a5 8cbd a39c 1cbd 5dca 8a3e
00000290: a78e 613e d6bb 363e d54c 8a3b 6904 9d3d
000002a0: 1fa8 903d 4d18 20be 9ef2 98bd 943e f5ba
000002b0: a306 47be 5b1b 24bd 55fe 4bbd b03e 15be
000002c0: 6992 50be b35a f7bc 36b3 ecbd 3060 afbe
000002d0: a029 a13d 4acd 9ebd 4601 d4bc 6d61 223e
000002e0: c4b9 0b3d 8a0f 1bbe 42fa 14bd f7df e9bd
000002f0: b26f 57be 3553 793e 4ad2 333c 8113 523d
00000300: 35bd dc3c 0a4e e6bd c215 89be 90ee d9be
00000310: c325 c5be 7499 01be 4787 7c3c f48c 7b3e
00000320: 1c26 043e 1e5c 5d3e f10d 07bd d83c fe3c
00000330: aaa4 883d 3678 bbb9 fc6c 0cbd cb5d 7dbc
00000340: 852e 22be 3b10 0ebe 89b9 5c3d 13df 68bb
00000350: e8ca 3abe aa9c 063d ade7 4fbd 83fe 44bd
00000360: 08e8 203e 3c63 7e3e 55b4 413e 02ca f73d
00000370: c50c f93d cb89 de3d 618f 08bd dd70 01bd
00000380: cb1c 7d3a 6eb7 a7bd 54c8 77bc daea b8bb
00000390: 543b 3ebe ad11 e2bd 8827 a6bd 3a3e 50bd
000003a0: 0292 283d 14ed 323d 7510 183e acdb 89bd
000003b0: 990c 73be 1d35 f8bd 7dc7 b5bd 83be dbbd
000003c0: 1e51 37be 1075 953c c1f5 683d 8156 083e
000003d0: 0e9e 03bd accb f73d 32c5 38bd d080 b03d
000003e0: 5844 9bbd b31c 40be 13e4 7abd 24e7 9c3d
000003f0: f09a 17be fb0d afbe 02cb 35be 3ee6 873d
0.12077608 0.1393147 0.28341532 0.113379054 0.057276513 0.14220741 8.6548505e-05 -0.050633173
-0.1275982 0.12730713 0.025551954 0.0020704863 0.17020988 -0.07437534 -0.019563485 -0.13252807
-0.112766646 0.012736922 -0.06614637 0.10703023 0.11758114 0.1578383 0.11508983 0.11732737
0.13251863 -0.111598305 0.025792105 -0.16230386 -0.19457345 -0.14215566 -0.16125534 -0.09573453
-0.0429341 -0.10953159 -0.048533022 0.05359184 0.12017403 0.029147847 0.00086566166 0.01780342
0.009532977 -0.0014393282 -0.12954447 -0.16067287 0.015518113 0.06561974 -0.03779483 0.13631321
0.16235186 0.08996014 0.017665124 0.060648084 -0.0298405 -0.07644543 0.13249162 0.19084363
0.17761011 0.10497024 0.11279653 0.12965913 0.010601055 -0.023822306 -0.12752163 0.13948739
0.086757384 0.10561085 0.003188285 0.056996718 0.10212232 -0.15347922 0.011207982 -0.055126578
0.14920934 0.12256397 0.12028695 0.08582681 0.119096644 0.113292485 -0.038141068 -0.099323235
-0.04679103 -0.14604965 -0.04619773 -0.02722625 -0.20408025 -0.0074637444 -0.032467946 -0.15522945
-0.04761549 -0.010278913 -0.025408959 0.099054895 0.118313305 0.011469662 0.100730985 0.17825902
-0.052202344 -0.054324243 -0.09341921 -0.08559772 -0.117616944 -0.039384823 -0.16646287 -0.14964412
-0.037202742 -0.05230256 -0.04737005 0.10239322 0.13341957 0.24661674 0.2159745 0.17008814
0.09793913 0.13588282 0.010512217 -0.012421299 -0.101815194 0.014101728 -0.069218196 0.04836583
-0.051733155 0.012176819 -0.12529036 -0.08008776 -0.081799574 -0.12077912 0.26692554 0.22835453
0.21495952 0.051345557 0.03581619 0.13738805 -0.21036775 -0.0584163 -0.08013299 0.09181626
0.19217844 0.28391442 0.18365376 0.16547748 0.1426743 0.021544049 -0.061062466 -0.08174318
-0.06746637 -0.23335314 -0.16540879 0.09599998 -0.015515159 -0.20979866 0.090383045 -0.05609677
-0.07935407 -0.0010330587 0.07305594 0.17167233 0.11585001 0.07269032 0.116902135 0.10138256
0.016021894 -0.068675786 -0.038235318 0.27107516 0.22027074 0.17845091 0.004220585 0.07666857
0.070633166 -0.1563427 -0.074681506 -0.0018710666 -0.19436125 -0.04006515 -0.049803097 -0.14574695
-0.20368351 -0.030194616 -0.11557619 -0.34253073 0.078692675 -0.077539995 -0.025879513 0.15857477
0.034112707 -0.15142646 -0.036371477 -0.11419671 -0.21038702 0.24348147 0.01097543 0.05128813
0.02694569 -0.112453535 -0.26774412 -0.4256482 -0.38505372 -0.12656194 0.015413112 0.24565488
0.12905163 0.21617171 -0.03297228 0.031034872 0.06672032 -0.00035756984 -0.034283623 -0.0154642565
-0.15838058 -0.13873379 0.053887878 -0.0035533353 -0.18241465 0.03286425 -0.050758053 -0.048094284
0.15713513 0.24842542 0.18916447 0.12099077 0.12160639 0.10866126 -0.03333986 -0.031601775
0.00096554746 -0.08189283 -0.015123446 -0.005643231 -0.1857732 -0.11038528 -0.08113009 -0.050840594
0.04115487 0.043683127 0.14850028 -0.06731352 -0.23735274 -0.121195056 -0.0887594 -0.107296966
-0.17902038 0.018244296 0.056874994 0.13314249 -0.032133155 0.12099394 -0.045109935 0.08618319
-0.07581395 -0.18760948 -0.061252665 0.07661274 -0.14805198 -0.34190354 -0.17753223 0.06635712

conv_block.2.0.bias f4 [64]
00000000: f5c0 383d 2479 78be c9b2 01be 0e44 82be
00000010: a844 81bd c06e 113e 8a31 50be 6375 cb3d
00000020: 605d 2ebe 352e 5abe f5cc 71be 7734 97be
00000030: 4123 88be 80fa e4bd 20f4 0ebd 4841 f0bc
00000040: 0d60 3ebe c40c 163e 889b d13c b49a 55bd
00000050: 436b 2b3e b1b4 86be 3a77 18be 84c9 193e
00000060: 41c0 72be 30f7 8dbe 4bfc 75bd 439d 4ebe
00000070: 1167 bdbc e2eb 60be 095b b1bd 859e 0dbd
00000080: 7b33 71be 2f16 25be 79ee 11be 28f6 6dbe
00000090: 7970 e23d 8fc0 e83d 485f 3fbe d8fd 70be
000000a0: 4f66 22be 50c0 01bd 8249 20be 59ce 833d
000000b0: c141 f4bc ab52 e13d fff2 0e3e 89a6 74bd
000000c0: 3930 49be 5b2d 823d e057 633d 5be9 acbe
000000d0: 9811 63be 439c 1a3e 87a0 acbd d98c 023e
000000e0: 45ec 0f3d 7e89 0b3d e966 b1bd df5e 21be
000000f0: fc70 5ebe 19f8 253d 6725 b43d 5c76 83bd
0.045105893 -0.24264961 -0.12665857 -0.25442547 -0.06311923 0.14202404 -0.20331398 0.09934499
-0.17027807 -0.21306689 -0.23613341 -0.29532215 -0.26589397 -0.111805916 -0.034900784 -0.029328004
-0.18591328 0.14653307 0.025586858 -0.05214949 0.16740136 -0.26309732 -0.14889231 0.15018278
-0.23706152 -0.27727652 -0.06005506 -0.20177178 -0.023120435 -0.21964982 -0.08659942 -0.034575004
-0.23554794 -0.16121744 -0.14251126 -0.23238432 0.11056609 0.11364853 -0.1868869 -0.23534334
-0.1585934 -0.031677544 -0.15653041 0.06435842 -0.02981651 0.11002096 0.13959883 -0.059729133
-0.19647302 0.06356307 0.055503726 -0.33771786 -0.2217468 0.15098672 -0.08429056 0.12749042
0.035137434 0.03406667 -0.08662207 -0.15758847 -0.21722788 0.040519807 0.087961964 -0.0641906

conv_block.2.1.weight f4 [64]
00000000: 7d1a a03f af95 243f 6433 8e3f 362c 223f
00000010: 220a 373f 6b13 7a3f 8819 233f 19be 4f3f
00000020: 4734 1e3f af9f 2e3f c594 7e3f 15a5 1c3f
00000030: e030 0d3f 2e8e 483f 7954 803f a0e2 7b3f
00000040: dbc0 953f 47d5 2f3f f756 423f c545 0d3f
00000050: a4c7 2c3f 802d 843f 8bb4 923f 6bad 793f
00000060: 8650 583f bc6a 2d3f 7f17 4e3f 18ad 013f
00000070: dd37 8e3f 180d 5a3f 5479 4b3f 67f2 2a3f
00000080: 51e5 0e3f fba1 283f aeb2 2a3f 8bfe 5b3f
00000090: 8b14 4f3f 1607 783f 180d 883f 9bea 3f3f
000000a0: a2ba 793f f118 693f 4c45 543f d425 793f
000000b0: 984d 823f 4b2a 883f 305a 623f dc5b 723f
000000c0: 2282 e23e 5d78 4f3f 45ac 053f bdc5 fc3e
000000d0: 1f43 633f 34f6 883f 8257 853f 427d 7a3f
000000e0: d430 953f 2267 503f 4af6 3b3f 55dd 9c3f
000000f0: 9ed9 593f 091f 333f 8327 593f 4387 163f
1.2508084 0.642909 1.1109433 0.6334871 0.71499836 0.9768588 0.6371083 0.8114944
0.6179852 0.6821241 0.99445754 0.61189395 0.551527 0.7834195 1.0025779 0.9839268
1.169948 0.6868481 0.7591395 0.55184585 0.6749213 1.0326385 1.1461347 0.9753024
0.8449787 0.6774099 0.805046 0.50654745 1.1110798 0.8517623 0.7948201 0.66776127
0.5581866 0.6587216 0.66678894 0.85935277 0.8089072 0.9688581 1.0628996 0.74967355
0.97550404 0.9105368 0.8291824 0.97323346 1.017993 1.0637907 0.88418865 0.94671416
0.44239908 0.81043035 0.5221599 0.49369612 0.88774294 1.0700135 1.041733 0.9784738
1.1655526 0.8140737 0.7342268 1.2255045 0.8509768 0.6996923 0.84825915 0.58800143

conv_block.2.1.bias f4 [64]
00000000: 45fe 613d e9c2 8abe 59ae 3dbe d185 8dbe
00000010: 30f7 89bd e18f 223e 04c5 a6be bafa c63d
00000020: 50bf 5fbe 22ba a8be ee2c 9dbe 9e74 9dbe
00000030: fee0 b7be 054c 96bd 73b9 35bc a2c8 eebd
00000040: 8037 7dbe dc90 603e 69e5 c83d 5a1a 41bb
00000050: 6c64 483e bdac 9ebe 8881 05be b92b 373e
00000060: e191 8dbe b34f debe 2a33 b0bc 7fb9 c0be
00000070: 2b34 f2bc a06d 92be 4f50 bbbd 0e43 cbbc
00000080: e2b9 9dbe ffbd 8abe d467 23be 6e50 a2be
00000090: 466d 2f3e d4f6 f13d 84cd 75be d2a9 8cbe
000000a0: 18c8 80be 853f 58bb 0265 88be b320 a93c
000000b0: 13aa 0cbd 70fa a13d c476 253e 851d a1bc
000000c0: 96c5 77be 353d 033d 5e15 1d3e 00a2 debe
000000d0: f7f6 8fbe c5bc f73d 6ae2 22be 55f1 c93d
000000e0: 69a7 9f3c 8e12 aa3c 4986 98bd 31d3 4cbe
000000f0: 6c7d 70be 9071 523d 416d 003e 0a2b ccbd
0.05517413 -0.2710183 -0.1852354 -0.27641156 -0.067366004 0.15875198 -0.32572186 0.09715791
-0.21850324 -0.32954508 -0.3069834 -0.30753034 -0.35913843 -0.07338718 -0.011091578 -0.116593614
-0.24728203 0.2193026 0.098093815 -0.002946517 0.19569558 -0.30991164 -0.13037694 0.17887773
-0.2765036 -0.4342018 -0.021508772 -0.37641522 -0.029565891 -0.28599262 -0.09146177 -0.024812248
-0.3080588 -0.2709808 -0.15957576 -0.31701988 0.17131528 0.11814657 -0.24004179 -0.27473313
-0.2515266 -0.0032996845 -0.26639563 0.020645475 -0.034341883 0.07909095 0.16158587 -0.019667396
-0.24196467 0.032040793 0.15340182 -0.4348297 -0.28118107 0.12096552 -0.15906683 0.098604836
0.019489007 0.0207608 -0.07447488 -0.20002438 -0.23485345 0.051377833 0.12541677 -0.099691465

conv_block.2.1.running_mean f4 [64]
00000000: f21c 3740 7228 f1c1 59e8 55c1 4ecb a6c1
00000010: 3cd1 c7c0 378c 4641 79b1 f6c1 5efd 3d3f
00000020: 509f 77c1 f57f f1c1 a5fb c1c1 bf8c c4c1
00000030: 15d0 eec1 46c1 c0c0 2ae5 c1be 7979 8bc0
00000040: 79be eac1 2d09 3441 e6db 1cbf c1b0 18c1
00000050: 62ef 1d41 6b7f c0c1 c7f5 5cc1 f4a9 2b41
00000060: b58f bdc1 a91b 11c2 0681 1b40 6faf c5c1
00000070: 0dfe 56c1 a3aa 5cc1 fea0 14c0 58cb 60c0
00000080: 833b aac1 47fd 88c1 8581 dec1 966f a0c1
00000090: 1b40 1b40 5b1a 3540 818b 01c2 158c d1c1
000000a0: 0d77 82c1 c885 d6c0 d2e9 abc1 e69a fcbf
000000b0: cff8 893f dcf6 37c0 845a cb40 3230 39c0
000000c0: 64e0 90c1 262b 3340 52c9 6bc0 9896 08c2
000000d0: ad3b 9fc1 3bb3 8840 531b 84c1 12d5 3840
000000e0: e84b 4bc0 adba c840 ff5f 27c1 f4f4 90c1
000000f0: eceb b6c1 e2eb 4dc0 c127 a640 8b0f 31c1
2.8611417 -30.144749 -13.3692255 -20.84927 -6.2442913 12.409232 -30.836657 0.7421473
-15.476395 -30.187479 -24.247873 -24.568724 -29.851603 -6.023593 -0.3787015 -4.358578
-29.343004 11.25224 -0.6127304 -9.543153 9.870943 -24.062216 -13.810004 10.728992
-23.69517 -36.27701 2.42975 -24.71066 -13.437024 -13.791659 -2.3223262 -3.512411
-21.279058 -17.12367 -27.813242 -20.054485 2.4257877 2.8297336 -32.386234 -26.1934
-16.30813 -6.7038307 -21.48917 -1.9734771 1.0779055 -2.874442 6.3547993 -2.8935666
-18.109566 2.7995086 -3.6841626 -34.147064 -19.904139 4.2718787 -16.513342 2.8880048
-3.176508 6.2727876 -10.460937 -18.119606 -22.865196 -3.2175221 5.192353 -11.066295

conv_block.2.1.running_var f4 [64]
00000000: 7e31 0043 5f78 4b43 7366 a442 ab55 f642
00000010: bd88 c741 007f df42 9b10 2543 f60e 2b42
00000020: d8dd 6c42 c286 7c43 c0dc 2743 6203 b442
00000030: 804e fe42 c576 3842 2efa 4742 683b 4842
00000040: 584b bf43 7215 0242 9bb7 2442 a65a c441
00000050: 3539 c241 efb5 0f43 354e 0143 8ae5 8242
00000060: c1e3 0c43 78c5 d742 d48b f841 20c1 2942
00000070: f4d2 d042 133c 5142 f4ed 8941 4353 3142
00000080: b018 0f42 5ccb a042 b428 6242 607d 0043
00000090: ebb2 ac41 9ecb 6a42 f58b cd43 50c9 3843
000000a0: 8911 b742 531e 3842 4142 eb42 00da 3742
000000b0: 1ef8 7c42 f22d 4b42 30de 4f42 f100 3942
000000c0: 377c 2942 8fab 1442 5e79 e341 4334 ad42
000000d0: ef29 cb42 33e5 5242 ae33 0f43 b8e9 4142
000000e0: a709 8842 1ec5 3542 72c5 2e42 5791 2d43
000000f0: fdf5 e242 7672 a941 e09d b741 1549 0b42
128.19333 203.4702 82.200096 123.16732 24.941767 111.74805 165.06487 42.76461
59.216644 252.5264 167.8623 90.00661 127.15332 46.115986 49.994316 50.058014
382.58862 32.520943 41.179302 24.544262 24.277933 143.71068 129.3055 65.44832
140.88966 107.88568 31.068275 42.4386 104.41202 52.308666 17.241188 44.33131
35.77411 80.39719 56.53975 128.48975 21.587362 58.698845 411.0934 184.78638
91.53425 46.029613 117.6294 45.96289 63.242302 50.79487 51.96698 46.25092
42.371304 37.167538 28.434261 86.60207 101.5819 52.723827 143.20187 48.47824
68.01885 45.442497 43.692818 173.56773 113.480446 21.18089 22.952087 34.82137

conv_block.3.0.weight f4 [64, 64, 3, 3]
00000000: ccc9 b43c c87d bfbc 7e1d 74bd b0f0 bb3c
00000010: e1b9 a53d e6ae fd3c 3b52 e7bd 73ce bf3d
00000020: ccbd f3bd 23d9 e23d 6102 363d 33c8 493d
00000030: f482 c83c ffe2 3e3d 4616 7dbd 0d03 913d
00000040: 29b1 ac3c 085a d4bd bb16 f93d 81a7 a23c
00000050: b0e0 efbd f331 c03c d0c3 d6bd 1f02 f43c
00000060: 2fc7 943d 7dcf c2bd 2235 213e 6067 ce3d
00000070: 38e3 103d d316 28bc cd80 e13d 45bb c03a
00000080: be8c f2bd bb4f 023e b248 373d 3daa 10be
00000090: eda7 c73d 3298 8abc 9afa 1e3c 3ef2 163b
000000a0: 6b15 c23c de00 a43c ef10 2fbd 00f5 d9bc
000000b0: 5553 183e da1a 923d 2b2b 5abd 35f0 9fbd
000000c0: b69c 2cbd 20a8 7b3c f44a 85bd d114 0cbe
000000d0: 42c1 913d 87b2 413e 1944 1b3e 9a6e 6b3d
000000e0: a267 3abc 81dc a93a 6444 c13d 8b0b 02be
000000f0: 8e79 cfbc 594a e9bc 92bb 33be 595c b43c
00000100: e530 1dbe 43e7 3dbe f926 8a3d c8fc 603d
00000110: c45e 5dbe aedd 24bd 1b1f 57bb bf93 8ebd
00000120: 0580 733d 4374 983d 3675 da3d 90ac c03c
00000130: cbd2 49bc 2629 7cbd c994 363d e688 fbbd
00000140: c5f2 ed3c 896f 253e 69cc d93d 3ba8 8bbc
00000150: e238 90bb a874 cdb9 cdec 18bd 4055 3a3d
00000160: 9ae1 a5bd f0de febc ed45 133e 4a99 993d
00000170: f0d4 b93d f24f 943d 56c3 86bd e052 14bd
00000180: 0998 823d ce4c 673d e8f1 b13d d650 d53c
00000190: 5b3c 123d 1a91 f6bc 1237 61bd d908 0fbd
000001a0: 040b 44bd dd09 bcbc 9f8f 5dbd 4015 1ebe
000001b0: 4144 2d3e 6d52 343d 2123 48bd 10cf 32bc
000001c0: 2c71 033c 4ef8 bbbd 2aa0 b8bd 015b 7ebd
000001d0: c106 e1bd 8517 113d cbe4 dd3d a08a 303d
000001e0: 6af6 f3bd ccab 553e cda8 bf3e 7c8a e5bd
000001f0: 0b16 41bd 6c80 cc3d ce11 00bd ee49 7d3d
00000200: 4162 b6bd 7d9f 24bd 67e7 e2bd 4eb7 d4ba
00000210: 5eb3 a93d c413 92be 944e 853d 0d46 9ebc
00000220: 177c 2b3e fcef 463d ba92 2d3b 016b 883e
00000230: 173a d93e db42 b6bd 270f 4abd efd3 233d
00000240: 1836 223e c946 1b3e 67a0 cb3d e7db b53c
00000250: 9fc3 873d 8296 2b3d 8009 ffb8 a349 08be
00000260: bf2f 0c3d 33e4 af3d ff80 13be 1ae7 ff3d
00000270: b17e 703d e7bb d93d f258 ba3d 7abc a53c
00000280: fd2d 053e 453a 4f3e 3673 a63c 9bf1 9dbd
00000290: 541a c6bb e7a3 913d a126 1e3e 5d51 5e3d
000002a0: 83af acbd 88bd 4abd 5e75 31bc a46c 0ebc
000002b0: b115 123d 46fa 203d 1ab5 c3bd 02ad 833b
000002c0: befa 02bd 8be0 7abd 36e4 c23c 9424 003e
000002d0: b981 553d 23e0 12be cf4f 453d b949 b53d
000002e0: b33f a53d 9aad 4a3c 7470 48bc 9ce4 e53c
000002f0: 0162 1e3e 7b13 1e3e 1795 643d c178 afbd
00000300: f887 8bbb 6468 743d 47ec 033e 43db 773d
00000310: 21b1 ccbd e9f3 6dbb ca0e 0c3e 6b69 d1bc
00000320: f2dd babc 2868 833d d1b4 4ebc f222 76be
00000330: 9857 9e3d 0a92 163d 0c6e 95bd 5e44 7abc
00000340: 3b8f 88bc 344a 283d 7bbc 283d ad76 07bd
00000350: 7056 12bd 82ea 24bc 5d91 86bd 039f 9e3e
00000360: 8fcc f93d acd8 8c3d 354b b9bc 6a39 cabc
00000370: 5758 17bd 32f6 39be cf25 09bd b355 613c
00000380: 2ba8 f8bc 13ce fd3d d626 c6bc 2a2f 1dbd
00000390: 727f 2b3d 979e e1bd 9d81 e1bd c23d 983b
000003a0: 43b9 d0bd ab10 0fbd 20a4 c63d c1b7 cabd
000003b0: e629 41bd fa67 7e3d 1d3b 12bd 8a97 c7bd
000003c0: a9dd f7bc 9bf0 0f3e 0c4b 113d 9dc6 503d
000003d0: 8251 6abd c657 e5bd e8c9 d1bc 5443 4abd
000003e0: eeb3 393d 9c4a 5c3b 9fcc 423d 5009 e73d
000003f0: 346c fd3d 68c0 87bd 6109 b4bd edfe 6a3d
0.02206888 -0.023375407 -0.05959844 0.022941917 0.08092094 0.030967187 -0.11294981 0.09365549
-0.11901435 0.11076572 0.044435862 0.04926319 0.024476506 0.0466032 -0.06178882 0.0708066
0.02108057 -0.103687346 0.121625386 0.019855263 -0.117127776 0.023461318 -0.10486567 0.029786168
0.07264554 -0.095122315 0.15742925 0.10078311 0.035372943 -0.010259348 0.11010895 0.0014704248
-0.11843251 0.12725727 0.044747062 -0.14127441 0.09748826 -0.016918276 0.009703303 0.0023032571
0.023691854 0.020019945 -0.04274076 -0.026606083 0.14875539 0.07134028 -0.053263824 -0.07809488
-0.04214164 0.015359908 -0.06508437 -0.13679816 0.07116939 0.18915759 0.15162696 0.057478525
-0.011377247 0.0012959392 0.094368726 -0.12699716 -0.025326516 -0.028477835 -0.17552021 0.022016691
-0.15350683 -0.1854525 0.06745715 0.05492857 -0.21618181 -0.040250473 -0.0032824937 -0.06961774
0.05944826 0.0744405 0.106668875 0.023519784 -0.012318323 -0.06156268 0.044575486 -0.12281971
0.029046426 0.16155829 0.10634691 -0.017047992 -0.004401312 -0.00039187563 -0.037335206 0.045491457
-0.08099671 -0.031112164 0.14382143 0.07499941 0.09073818 0.07241811 -0.06580226 -0.03621185
0.06376655 0.05646973 0.08688718 0.026039522 0.03570209 -0.030098487 -0.05498416 -0.034920547
-0.047862068 -0.022953922 -0.054092046 -0.15437794 0.16920568 0.04402392 -0.048861627 -0.010913625
0.008022588 -0.0917822 -0.09014924 -0.062098507 -0.10987616 0.03542282 0.108346544 0.043100953
-0.11912234 0.20866317 0.37433472 -0.112080544 -0.047140162 0.09985432 -0.03126698 0.061838083
-0.08905459 -0.040191162 -0.11079293 -0.0016228945 0.08286165 -0.28530705 0.06509128 -0.019320512
0.16746555 0.04856871 0.002648516 0.26644138 0.42427132 -0.088994704 -0.049330857 0.039997038
0.15840948 0.15163721 0.09942704 0.022199584 0.06629109 0.041891582 -0.00012161117 -0.1330934
0.03422522 0.085884474 -0.14404677 0.12495251 0.058714572 0.10631543 0.09098996 0.020231474
0.13005824 0.20237072 0.020318609 -0.07712098 -0.006045619 0.0711134 0.15444423 0.054276813
-0.08431914 -0.049497157 -0.010831205 -0.008692894 0.035665218 0.03930118 -0.09556027 0.004018427
-0.031977408 -0.061249297 0.02379046 0.12513953 0.052125666 -0.14343314 0.048171815 0.08851952
0.0806879 0.012370491 -0.012233842 0.028063111 0.15467073 0.15437119 0.055806246 -0.08567954
-0.004258152 0.059669867 0.12883101 0.06051184 -0.09994722 -0.0036308712 0.13677517 -0.025562963
-0.02281091 0.064163506 -0.012616352 -0.24036768 0.07731551 0.036760367 -0.072963804 -0.015275089
-0.01666986 0.04108639 0.041195374 -0.033072162 -0.035726964 -0.010065677 -0.065706946 0.3098069
0.121972196 0.068772644 -0.02261887 -0.02468558 -0.03694948 -0.18160322 -0.033483323 0.013753342
-0.030353626 0.12392821 -0.02418844 -0.038375057 0.04186959 -0.11016577 -0.1101105 0.004646034
-0.10191586 -0.034928005 0.09699273 -0.098983295 -0.047159098 0.06211088 -0.035700906 -0.09745701
-0.030257063 0.14056627 0.03547196 0.050970662 -0.05720664 -0.11198382 -0.025608972 -0.049380615
0.04533761 0.0033613807 0.047558423 0.11281073 0.12374154 -0.066284955 -0.087908514 0.057372022

conv_block.3.0.bias f4 [64]
00000000: 6dec 193d 8afc 0dbe efde 4e3e 72c1 123d
00000010: 8769 513d 17cd cc3e 04ba 853d 2d20 ca3d
00000020: 6371 213c 2401 cfbd 9673 5eb9 e64b a83e
00000030: a615 073e 2b23 d43d 820b c03e edd2 e23d
00000040: 887d 9b3d 200e 06bc b35b 203c 3522 453d
00000050: 557e c33e 872c 853e 2b47 22bc 1092 0f3e
00000060: 23fe ba3d a214 7e3c 8c6b 3a3e edab 663d
00000070: 4209 913e 98cf 87bc 2ab7 aabd 15e5 a5bd
00000080: dd1d ab3d a01c 243d 4f97 893d e583 293e
00000090: 6155 cb3e 5eba 7fbb 8ad3 b33b 9c07 4dbe
000000a0: df10 333e 5514 7b3e 53e3 6f3e 8d96 6dbe
000000b0: 29ec 673d f8ab 573e 8b77 fbbd 67aa 0c3d
000000c0: d7f2 e03d cb7f 9cbe d42f 80bc ced5 a4bd
000000d0: 1f36 273e 2216 af3d 8fae 843d 0660 a13e
000000e0: 327e 43ba d614 233e 6b51 98bd efbf 3e3d
000000f0: 8816 b3be c852 c23d 239c 0cbd 27a3 26bd
0.03757899 -0.13865867 0.2020223 0.035829015 0.05112603 0.4000022 0.0652962 0.09869418
0.009853694 -0.101076394 -0.00021214629 0.32870406 0.13191852 0.1035827 0.3750878 0.11075387
0.075923026 -0.008182079 0.009787488 0.048128325 0.3818232 0.26010534 -0.009904663 0.14020562
0.09130504 0.015507849 0.18205088 0.056316305 0.28327376 -0.01657848 -0.08335717 -0.081003346
0.08355305 0.04006636 0.06718313 0.1655422 0.39713576 -0.0039020996 0.005487864 -0.20022434
0.17486905 0.24519475 0.23426561 -0.23201962 0.056621704 0.21061695 -0.122786604 0.034342196
0.10983818 -0.30566248 -0.015647806 -0.080485925 0.1632924 0.085491434 0.06478607 0.31518573
-0.0007457464 0.15925917 -0.07437404 0.04656976 -0.34978127 0.094884455 -0.03432859 -0.040682938
